model/actor.pt (torch, 82664 bytes, 10 tensors)

weight f4 [128, 32]
00000000: bc6a b83d 38c4 c23a 05b7 103e a72f 1ebe
00000010: 9e59 9bbd cbb0 a33d d68e 353c 80e3 1b3e
00000020: b5b8 8b3d de16 b13d 6f23 82bd ec35 88bd
00000030: 0a06 23be 81f6 893d d94c 07be 3ef0 e7bc
00000040: ba87 e43d fdad 3ebd 41d0 bb3d d7c8 1dbe
00000050: be72 323e 1de9 2abe 1163 f3bc 05f9 943d
00000060: 1d51 b6bd ef4d cfbd 7720 383d 906c 12be
00000070: 2bf1 0b3e 3d53 233e 426e 1dbe 9ac9 d9bb
00000080: 0cb4 1fbe ada7 153e 2f92 143e db5d fbbd
00000090: d4d5 283e a753 543c f366 c6bd 0ede 3dbd
000000a0: e421 093e 18a1 fbbd cf3f 58bd 514c a13d
000000b0: c318 14be b3ea 623d 57ab 2f3e 1e58 4bbd
000000c0: f4b2 9ebd d3e2 c8bd 2e2c 2c3e 63a3 163e
000000d0: e95c c73d 3a4d 2fbe 8dee 61bd 183d 4fbd
000000e0: 0d52 2dbe 19ce d33d 3837 07be 5e2a 113e
000000f0: 1119 013d ad3e 9cbd 7cd1 fc3c df34 433d
00000100: 115f f1bd bc12 28be fb67 d03d c721 27be
00000110: 964d 9bbd 354c cb3c 9045 d2bb 6cb3 433d
00000120: 6d34 cebd 6083 bcbc f945 edbc 181b 8a3d
00000130: 6c66 c1bc 2bb6 ee3d ae38 8dbd 5be3 2dbe
00000140: 2b4a a43d f0b5 b73d be3c 853d f9ea 08be
00000150: 256e acbd 45dc 1f3d e7d4 15be be5b 2a3e
00000160: 9b0f b8bc 7da1 26be b528 d63d edb9 a2bd
00000170: a255 273d 783e a4bd c90d bc3d 63f0 2d3e
00000180: b465 043d 95ff 3c3d 2965 00be 846e 7fbd
00000190: 3762 ef3d f195 e93d 296b 13be 69be 1cbe
000001a0: edd7 36bd 94ec ea3d 6152 a8bc 4617 d13c
000001b0: c220 76bd a664 29bd 12a7 20be ccaf f13c
000001c0: ba89 103d 986f ef3d 8cb4 153d 2c15 80bd
000001d0: aad0 02bd 6950 203e ba79 053e 326a f73d
000001e0: 8d18 bf3d 9e3b 243e f0c3 823c 80ea a53d
000001f0: 357c 4e3d 6dd3 283d 0233 e43d d8ba 11be
00000200: 2a42 73bd b2c8 313e 26b6 1dbe 1933 55bd
00000210: 9021 2e3e aebe 8abb b31d b5bd 9352 893d
00000220: 17ce 253e 3b3f f2bd 2814 043e e733 103d
00000230: 5c48 253e 7d11 0cbe 0a80 333a db92 31bd
00000240: 55cb a33d 3853 01be 816e 833d 23d6 30be
00000250: 998c a3bd 609e 07be 5e8c f9bd 73bf 0dbe
00000260: 3337 20bd f1c9 8ebd 5827 d03c b71c 0abe
00000270: 40ac 02be c0f5 1cbe daf3 8dbc c91e a13d
00000280: acac 093e c656 b33d 327d 863d 4ffc 2dbe
00000290: 1b59 ad3d fc6f c23c 6e8a 97bd 4982 ddbd
000002a0: 5ee5 253e c53a 2ebd a78c 0dbe f44d cfbd
000002b0: e76a 923d 8154 f7bc 5eeb 273e d0d1 a43c
000002c0: 5586 0c3e 59ef 953b da03 a9bd 754d 38bd
000002d0: aef2 ddbc d20e 5c3d 724a 0bbe 9a2c 24be
000002e0: 55b7 ed3c bfd3 0dbe 4588 313e 77fe e43c
000002f0: 6a68 b43c f9f4 c5bd d14a ba3d 27ff d3bc
00000300: f97d ff3d 57ac efbd 16ed 27bd c876 163d
00000310: c0e2 95bd 27a2 30bc 18e6 9cbc 4c44 1e3e
00000320: 91e7 20be 234e 803d 4590 20bd ce06 6cbc
00000330: 66f8 cbbd e3f2 813d 83bd fbbd 687e f23c
00000340: f98d 33be 48a5 3e3d 863d 343d fedc c6bd
00000350: e4b2 f1bc 64a1 c53d 9c57 8a3d d064 0a3e
00000360: d358 333e 773d 50bd 9634 263e 102d f53d
00000370: c9e7 7bbb e6d2 67bd 650e 22bc 6fa0 ff3c
00000380: 30ba 57bd f946 92bd 054e 0a3e 0d7c 053e
00000390: 0566 463d 56bb afbd 4b7a 38bd 0aab b13d
000003a0: e024 8c3c 6221 06be 58ee 5abb addd 083e
000003b0: 7996 fabd d9f3 18be 3be2 12be a09b 143d
000003c0: 7c06 d93d cc0e 04bd 012a 26be 6ef9 8b3d
000003d0: f8f8 2cbe 3fc5 b13d b497 f93d e2e7 f53d
000003e0: 8182 08be 78c6 71bd 0126 cfbc abec 053e
000003f0: d819 0d3e bb3b 8fba cf61 2bbd 9461 ee3d
0.09004733 0.0014859503 0.14132316 -0.15447865 -0.075854525 0.07992705 0.011081418 0.15223503
0.068223394 0.0864694 -0.06354415 -0.0665091 -0.15920272 0.0673647 -0.13212909 -0.028312799
0.111587 -0.046552647 0.09170581 -0.15408646 0.17426583 -0.16690488 -0.029710324 0.07274059
-0.0890219 -0.101222865 0.044952836 -0.14299226 0.13666217 0.15949722 -0.15374091 -0.006646347
-0.15596026 0.14614744 0.1450889 -0.12273761 0.16487819 0.012959397 -0.09687605 -0.046354346
0.13391834 -0.122865856 -0.052795228 0.07875884 -0.14462571 0.055399608 0.17155205 -0.049644582
-0.07748976 -0.09808888 0.16813728 0.14710765 0.09734518 -0.17119303 -0.05515914 -0.050595373
-0.16925831 0.103420444 -0.13204658 0.14176318 0.031518046 -0.07629142 0.030861609 0.047657844
-0.117857106 -0.16413397 0.10176083 -0.16321479 -0.07583158 0.024816612 -0.006416984 0.047778532
-0.10068593 -0.023011863 -0.02896403 0.06743449 -0.023608409 0.116558395 -0.068955764 -0.1698126
0.08021959 0.08970249 0.06505726 -0.13370885 -0.08419446 0.039028425 -0.14631997 0.1663656
-0.022468379 -0.1627254 0.10456983 -0.07945619 0.04085315 -0.080197275 0.09182317 0.16986232
0.032323554 0.04614218 -0.1253859 -0.062361255 0.11688655 0.11405552 -0.14396347 -0.1530701
-0.044639517 0.11470905 -0.020547094 0.025523793 -0.060089834 -0.04135575 -0.15688732 0.029502772
0.035287596 0.11691207 0.036549136 -0.06254038 -0.03193728 0.15655674 0.13034716 0.12080802
0.093308546 0.16038367 0.01596257 0.08101368 0.05041142 0.041217256 0.111425415 -0.14231431
-0.05938927 0.17361715 -0.15401515 -0.052050684 0.1700499 -0.0042341566 -0.08843555 0.06705203
0.16191898 -0.118284665 0.12898314 0.035205748 0.16140884 -0.13678546 0.00068473874 -0.043352943
0.07997767 -0.12629402 0.06417561 -0.17269187 -0.07985801 -0.13244009 -0.12184976 -0.13842563
-0.039115142 -0.06972111 0.025409386 -0.13487516 -0.1276102 -0.15328121 -0.017328192 0.078672
0.13444775 0.08756785 0.06566848 -0.1699078 0.08464261 0.023735039 -0.0739945 -0.108158655
0.16200778 -0.042536516 -0.13823186 -0.1012229 0.07149296 -0.030191662 0.16398379 0.020119578
0.13723119 0.0045756516 -0.08252688 -0.044995744 -0.027093258 0.05372507 -0.13602617 -0.16032639
0.029018084 -0.13850306 0.17337139 0.02795337 0.022022445 -0.096658655 0.09096301 -0.025878502
0.12475199 -0.11702793 -0.040997587 0.036734372 -0.0731864 -0.010780848 -0.019152686 0.1545574
-0.15713336 0.062649034 -0.039200086 -0.014405919 -0.099594876 0.06345155 -0.12292006 0.02960129
-0.17534627 0.046544343 0.044003986 -0.0971012 -0.029504247 0.096499234 0.067549914 0.1351502
0.17514353 -0.050839867 0.16230997 0.119714856 -0.0038437715 -0.056597613 -0.009891127 0.03120443
-0.052667797 -0.07142443 0.13506325 0.13035603 0.048437137 -0.08580653 -0.045038503 0.08675201
0.017107427 -0.13098672 -0.0033406224 0.13365813 -0.12235732 -0.1493677 -0.14344113 0.036281228
0.1059694 -0.032240674 -0.1622696 0.06834684 -0.16891849 0.086802 0.12187138 0.12007119
-0.13331033 -0.059027165 -0.025286676 0.13078563 0.1377939 -0.0010927835 -0.041841324 0.11639705

bias f4 [128]
00000000: e641 b03a b3eb 013e 2638 21be 8693 283d
00000010: 7d34 893d 23e0 14be 32cc 07bb 5efe 66bd
00000020: 176a 043e aa48 51bd 50cc 1bbd 5099 063e
00000030: 1b12 e43d 8dcc c63c 59f0 c6bd 4e28 dbbd
00000040: 6e78 13bb 016e 0c3e f161 023e 5b31 29be
00000050: 0354 9cbd 4a73 b1bd 9725 143e 89ae 10be
00000060: ff20 e23d 1ed7 e5bd 8685 acbd 1ef5 323d
00000070: 25e4 1cbe 81c0 0e3e 1dae dfbd 9e5c 12bd
00000080: 92f1 f3bd d721 9cbd cd20 e83d 1f34 a7bd
00000090: c562 c93d 0785 bfbd 89b7 cdbd 14f9 f4bd
000000a0: cc24 23be 8a07 6bbc e917 df3c 5951 db3d
000000b0: 5e69 7f3c f62c 0cbd a1ad a8bd 0ecb 1fbe
000000c0: 48af 233e 2a6f 433c a3ab 3c3a 9176 b83d
000000d0: bf31 c73d 0fb3 8e3d 7704 103e 8a8f cfbc
000000e0: 1041 ea3d e9d0 04be dd18 023e 9775 aa3c
000000f0: bd8c 973c 6eb7 ebbb f96b 033e 6302 aabd
00000100: 4808 0d3e c380 313e d833 823d 9434 abbd
00000110: 72e4 12bd 5ba9 8abd 8bf7 09bd e653 e63d
00000120: 2ba0 d5bd c1fa 253c 85ba b13c d965 133d
00000130: 0606 ccbd a135 87bc f347 35bd 78ac f2bd
00000140: 89b7 b1bd 438f 243e b6f8 2b3e 990d c4bd
00000150: 3b2c 5cbd 21ba debc 388a 0dbe b166 e8bd
00000160: 03f7 ddbd 9e6a 9e3d bb5f 5ebd 3551 e1bd
00000170: 6113 31bd b086 25be 35d3 2e3e 648b 183e
00000180: 1d2a ad3c 8c1a c6bd b1c5 b33d a1e3 debc
00000190: 3d98 0ebe cae5 24bd 7b28 eebd 0b2c 9fbd
000001a0: a35a ba3d affd 16bd fcf2 343d dc32 fc3d
000001b0: c1d1 0abe 32f2 0c3e 75fd 80bd 977c 2abe
000001c0: 055e d33c 92e1 9fbd 731b 5e3d c4b4 ce3d
000001d0: 03cb 66ba 47fe e83d 306e b53d 8fda 2fbe
000001e0: 3a17 333e 3685 fdbd 19cd 2ebd fe26 843c
000001f0: 7b1e 66bb 6646 293e c981 173e f04f aabd
0.0013447374 0.12687568 -0.15744075 0.041156314 0.066994645 -0.14538626 -0.0020721075 -0.056394927
0.12931095 -0.05109469 -0.038036644 0.13144422 0.11136266 0.02426746 -0.097138114 -0.10701047
-0.0022502202 0.13713838 0.12732674 -0.16522734 -0.076332115 -0.08664568 0.14467464 -0.1412908
0.1104145 -0.11222671 -0.08423905 0.043690793 -0.15321405 0.13940622 -0.10921881 -0.035732858
-0.1191131 -0.07623642 0.11334381 -0.08164238 0.09833292 -0.09351545 -0.10044772 -0.119615704
-0.15932006 -0.014345059 0.027233081 0.10708875 0.015589086 -0.034222566 -0.08236242 -0.15604803
0.15984833 0.011928359 0.0007197207 0.0900699 0.09726285 0.069677465 0.14064203 -0.025337
0.11438191 -0.12970318 0.12704797 0.020808024 0.018499726 -0.0071934974 0.12834157 -0.083012365
0.1377269 0.17334275 0.06357545 -0.08359638 -0.035862394 -0.06770583 -0.03368334 0.11246471
-0.1043094 0.010130585 0.021695385 0.0359858 -0.099620864 -0.016505064 -0.04425807 -0.11849302
-0.08677585 0.16070275 0.16794094 -0.09572906 -0.05375312 -0.027188363 -0.13822258 -0.11347712
-0.10838129 0.07735179 -0.054290514 -0.11001817 -0.04323137 -0.1616466 0.17072757 0.14896923
0.021138245 -0.09673032 0.08777941 -0.027208151 -0.13925262 -0.040258206 -0.11628815 -0.077720724
0.09099319 -0.036863025 0.04417704 0.12314388 -0.13556577 0.13764265 -0.06298343 -0.1664909
0.025801668 -0.07806696 0.054225396 0.10093072 -0.0008804055 0.113766246 0.08858907 -0.17173217
0.17489329 -0.123789236 -0.042676065 0.016131874 -0.0035113383 0.16530761 0.14795603 -0.08316028

weight f4 [128]
00000000: 0000 803f 0000 803f 0000 803f 0000 803f
00000010: 0000 803f 0000 803f 0000 803f 0000 803f
00000020: 0000 803f 0000 803f 0000 803f 0000 803f
00000030: 0000 803f 0000 803f 0000 803f 0000 803f
00000040: 0000 803f 0000 803f 0000 803f 0000 803f
00000050: 0000 803f 0000 803f 0000 803f 0000 803f
00000060: 0000 803f 0000 803f 0000 803f 0000 803f
00000070: 0000 803f 0000 803f 0000 803f 0000 803f
00000080: 0000 803f 0000 803f 0000 803f 0000 803f
00000090: 0000 803f 0000 803f 0000 803f 0000 803f
000000a0: 0000 803f 0000 803f 0000 803f 0000 803f
000000b0: 0000 803f 0000 803f 0000 803f 0000 803f
000000c0: 0000 803f 0000 803f 0000 803f 0000 803f
000000d0: 0000 803f 0000 803f 0000 803f 0000 803f
000000e0: 0000 803f 0000 803f 0000 803f 0000 803f
000000f0: 0000 803f 0000 803f 0000 803f 0000 803f
00000100: 0000 803f 0000 803f 0000 803f 0000 803f
00000110: 0000 803f 0000 803f 0000 803f 0000 803f
00000120: 0000 803f 0000 803f 0000 803f 0000 803f
00000130: 0000 803f 0000 803f 0000 803f 0000 803f
00000140: 0000 803f 0000 803f 0000 803f 0000 803f
00000150: 0000 803f 0000 803f 0000 803f 0000 803f
00000160: 0000 803f 0000 803f 0000 803f 0000 803f
00000170: 0000 803f 0000 803f 0000 803f 0000 803f
00000180: 0000 803f 0000 803f 0000 803f 0000 803f
00000190: 0000 803f 0000 803f 0000 803f 0000 803f
000001a0: 0000 803f 0000 803f 0000 803f 0000 803f
000001b0: 0000 803f 0000 803f 0000 803f 0000 803f
000001c0: 0000 803f 0000 803f 0000 803f 0000 803f
000001d0: 0000 803f 0000 803f 0000 803f 0000 803f
000001e0: 0000 803f 0000 803f 0000 803f 0000 803f
000001f0: 0000 803f 0000 803f 0000 803f 0000 803f
1.0 1.0 1.0 1.0 1.0 1.0 1.0 1.0
1.0 1.0 1.0 1.0 1.0 1.0 1.0 1.0
1.0 1.0 1.0 1.0 1.0 1.0 1.0 1.0
1.0 1.0 1.0 1.0 1.0 1.0 1.0 1.0
1.0 1.0 1.0 1.0 1.0 1.0 1.0 1.0
1.0 1.0 1.0 1.0 1.0 1.0 1.0 1.0
1.0 1.0 1.0 1.0 1.0 1.0 1.0 1.0
1.0 1.0 1.0 1.0 1.0 1.0 1.0 1.0
1.0 1.0 1.0 1.0 1.0 1.0 1.0 1.0
1.0 1.0 1.0 1.0 1.0 1.0 1.0 1.0
1.0 1.0 1.0 1.0 1.0 1.0 1.0 1.0
1.0 1.0 1.0 1.0 1.0 1.0 1.0 1.0
1.0 1.0 1.0 1.0 1.0 1.0 1.0 1.0
1.0 1.0 1.0 1.0 1.0 1.0 1.0 1.0
1.0 1.0 1.0 1.0 1.0 1.0 1.0 1.0
1.0 1.0 1.0 1.0 1.0 1.0 1.0 1.0

bias f4 [128]
00000000: 0000 0000 0000 0000 0000 0000 0000 0000
00000010: 0000 0000 0000 0000 0000 0000 0000 0000
00000020: 0000 0000 0000 0000 0000 0000 0000 0000
00000030: 0000 0000 0000 0000 0000 0000 0000 0000
00000040: 0000 0000 0000 0000 0000 0000 0000 0000
00000050: 0000 0000 0000 0000 0000 0000 0000 0000
00000060: 0000 0000 0000 0000 0000 0000 0000 0000
00000070: 0000 0000 0000 0000 0000 0000 0000 0000
00000080: 0000 0000 0000 0000 0000 0000 0000 0000
00000090: 0000 0000 0000 0000 0000 0000 0000 0000
000000a0: 0000 0000 0000 0000 0000 0000 0000 0000
000000b0: 0000 0000 0000 0000 0000 0000 0000 0000
000000c0: 0000 0000 0000 0000 0000 0000 0000 0000
000000d0: 0000 0000 0000 0000 0000 0000 0000 0000
000000e0: 0000 0000 0000 0000 0000 0000 0000 0000
000000f0: 0000 0000 0000 0000 0000 0000 0000 0000
00000100: 0000 0000 0000 0000 0000 0000 0000 0000
00000110: 0000 0000 0000 0000 0000 0000 0000 0000
00000120: 0000 0000 0000 0000 0000 0000 0000 0000
00000130: 0000 0000 0000 0000 0000 0000 0000 0000
00000140: 0000 0000 0000 0000 0000 0000 0000 0000
00000150: 0000 0000 0000 0000 0000 0000 0000 0000
00000160: 0000 0000 0000 0000 0000 0000 0000 0000
00000170: 0000 0000 0000 0000 0000 0000 0000 0000
00000180: 0000 0000 0000 0000 0000 0000 0000 0000
00000190: 0000 0000 0000 0000 0000 0000 0000 0000
000001a0: 0000 0000 0000 0000 0000 0000 0000 0000
000001b0: 0000 0000 0000 0000 0000 0000 0000 0000
000001c0: 0000 0000 0000 0000 0000 0000 0000 0000
000001d0: 0000 0000 0000 0000 0000 0000 0000 0000
000001e0: 0000 0000 0000 0000 0000 0000 0000 0000
000001f0: 0000 0000 0000 0000 0000 0000 0000 0000
0.0 0.0 0.0 0.0 0.0 0.0 0.0 0.0
0.0 0.0 0.0 0.0 0.0 0.0 0.0 0.0
0.0 0.0 0.0 0.0 0.0 0.0 0.0 0.0
0.0 0.0 0.0 0.0 0.0 0.0 0.0 0.0
0.0 0.0 0.0 0.0 0.0 0.0 0.0 0.0
0.0 0.0 0.0 0.0 0.0 0.0 0.0 0.0
0.0 0.0 0.0 0.0 0.0 0.0 0.0 0.0
0.0 0.0 0.0 0.0 0.0 0.0 0.0 0.0
0.0 0.0 0.0 0.0 0.0 0.0 0.0 0.0
0.0 0.0 0.0 0.0 0.0 0.0 0.0 0.0
0.0 0.0 0.0 0.0 0.0 0.0 0.0 0.0
0.0 0.0 0.0 0.0 0.0 0.0 0.0 0.0
0.0 0.0 0.0 0.0 0.0 0.0 0.0 0.0
0.0 0.0 0.0 0.0 0.0 0.0 0.0 0.0
0.0 0.0 0.0 0.0 0.0 0.0 0.0 0.0
0.0 0.0 0.0 0.0 0.0 0.0 0.0 0.0

weight f4 [96, 128]
00000000: 205c 813d e2b9 7c3d fcbd 4d3d 01ff b0bc
00000010: 1943 483c e077 b33d 6174 1dbd 93bc 843d
00000020: c95f b23c bb21 f2bc 2b35 ae3d aa29 50bd
00000030: b014 5abd 3af9 ed3c 757d a13d 48d1 9cbb
00000040: eb0f 183d 7d40 6abb 63cd 9cbd 7cf4 6dbd
00000050: 408d c9bc ce45 5b3c e08e ab3d df27 94bd
00000060: 5ade b3bc 7f06 6cbd e8a3 853d 1222 6cbd
00000070: af51 003d e056 6ebc 9762 603d 4b25 47bc
00000080: bde4 2a3c acc4 143d 913c f03c edea 69bb
00000090: f79c 7f3d 10af 59bd 86f2 eabc 436a 14bd
000000a0: 7387 92bd 9dce bcbc 1145 a6bc 6026 2a3d
000000b0: ab08 ab3b 7155 833d 669d acbc d895 8abc
000000c0: 9842 583d 404f b4bd 03dc 043c 5d4a 953d
000000d0: 2f6d 2a3d f07c 0bbc 55f1 223d e516 453c
000000e0: cabe 86bb 6e8b 9bbd 7939 5b3d 23a1 adbd
000000f0: 6789 973c 87bb a23d 6f76 b3bd a3d0 e8bc
00000100: 8805 643d c457 663d 3eac 533c f415 5b3d
00000110: 4588 7dbd 8256 acbd 7e12 7dbd 02a1 ddbc
00000120: e530 0ebd d6e4 8b3a b63d a53c f587 a5bd
00000130: a155 1fbc 9f1b a23d 65a4 323d bb24 4d3d
00000140: 9729 adbd d29f 303d 9878 57bd 00fd 0dbc
00000150: 4a4c 843d c088 a9bd 58e4 a23d 86a8 b3bd
00000160: 6b5b acbc 5bbc a0bd a140 27bd 8992 353d
00000170: 4a27 abbd edfc 303c b7e6 b13b be32 92bd
00000180: 16a4 88bc ac7b e0bc 7a1c 8c3d 3dcb 48bd
00000190: 22ba c4bc b944 4a3c ede8 f03c b966 febc
000001a0: 2ed3 c23c 8291 093d 8831 00ba 6f70 9abd
000001b0: c9da 17bb 6ea9 5bbd 6b5b 9d3d 1b8d 3a3c
000001c0: 41e2 b03c 30e4 84bc 4786 6d3d 55e2 023d
000001d0: b48f 0abd c0b1 7cbc d2b4 93bd 44a4 75bd
000001e0: a5db db3c e00f 463d 98ed abbb 2d90 d8bb
000001f0: 0e1f c43a 9525 36bd 3a71 ac3c 1e17 5c3d
00000200: 8978 90bc 33f1 0dbd ddfe 943d ed62 c23c
00000210: 9fc9 60bd b29d c43c 10e7 b2bc 0e5f 9dbd
00000220: 732f a33c cd82 bcbb 5c9d a43d 09d3 7b3d
00000230: 34aa a23c bd01 c338 ce9d ae3d 02aa e93c
00000240: 55b0 afbd fac9 09bd 43a3 c83b 103e 9ebd
00000250: 55b0 6cbb f0aa 713d 8ef4 27bd ccd8 50bd
00000260: dd34 27bd 0322 a3bc f4ea bebb c90f 6a3d
00000270: dbda 273d e63e 85bc 1a6c 823c bd71 1f3a
00000280: c4d6 063d 9018 e93b 1e51 7fbd c760 083d
00000290: ba64 fb3c 5bbd 14bd fd8d 693d 897a 8f3d
000002a0: c7af a9bc 99ac 1cbc f103 b3ba 0164 3fbc
000002b0: 62c9 72bd 9aa5 f33c 3603 8e3c a6a9 1a3c
000002c0: 04e2 34bd e6d6 1b3d dcaa 853d 24a8 823c
000002d0: fede 243d cc88 a13c 55f5 b03d ee73 6a3a
000002e0: 2476 8cbd aec4 6f3d bc79 a3bd bb45 2cbd
000002f0: 73a0 393d a02a 00bd 08e6 3f3d eeff 67bd
00000300: cfb8 8abd 4e0b 97bd 8d8c 3b3c 9d0b 94bd
00000310: 9b94 e33c 9d7a 94bd 71c1 523d 8344 313d
00000320: 5170 a53c defb 773b 5abd ac3c 20c7 09bd
00000330: 7a25 db3c 693a 6ebc 2977 19bd bc67 8cbd
00000340: 23d1 af3d f337 63bd e4c4 a43d 28fc 34bd
00000350: 538d ed3c 4221 2cbc 4900 483d 27f6 4cbb
00000360: 0988 e6bc 3bd0 9a3d 510c 983d 42fb 2a3d
00000370: d124 b03d 3d2a a33d cd80 f93c 67df abbd
00000380: 72f9 08bd 90fc 083c 9379 903b 4d78 b3bd
00000390: f25a c7bc 9cfa c93c 5155 8ebd 5465 aa3d
000003a0: 8c8d cb3c 8a36 7c3d 62e1 003d 12ed 413d
000003b0: 031f 20bd 7b0c a13c f569 563d 876f 893d
000003c0: 3621 39bd a7b1 453d 21e8 2f3d c333 a2bd
000003d0: 2cd9 7c3c 529c 4bbd dfa2 6d3d 1ac3 553d
000003e0: 0fb6 8fba b455 c4bc 0b55 84bc 6c7a 303c
000003f0: b53c 92bb 4df4 973d b18c 1e3d b07d 0d3d
0.063163996 0.06170071 0.05023001 -0.02160597 0.012223029 0.08763099 -0.038441066 0.0648128
0.02177419 -0.0295571 0.08506235 -0.050820984 -0.053242385 0.029049505 0.07885257 -0.0047856905
0.037124556 -0.0035744004 -0.07656362 -0.058094487 -0.024603486 0.013383342 0.083768606 -0.07234167
-0.021956611 -0.057623383 0.06525403 -0.05764968 0.0313279 -0.01454708 0.054781523 -0.012154887
0.010430512 0.036320373 0.029325755 -0.0035693005 0.062405553 -0.05314547 -0.028680097 -0.03623415
-0.07154741 -0.02304774 -0.020296605 0.041540504 0.005219539 0.06412781 -0.021071147 -0.016917154
0.052797884 -0.08804178 0.0081090955 0.07289574 0.04160803 -0.008513674 0.039780933 0.012029384
-0.0041120993 -0.075949535 0.053521607 -0.08478 0.018498136 0.07945924 -0.08762824 -0.028419798
0.055669338 0.056236044 0.012919484 0.053487733 -0.061897535 -0.084149376 -0.061785214 -0.027054314
-0.0347146 0.0010673057 0.020171028 -0.08082572 -0.009725005 0.079154246 0.04361381 0.050083857
-0.08455198 0.043121167 -0.05260524 -0.008666277 0.064598635 -0.08278036 0.07953709 -0.08772378
-0.021039685 -0.07848426 -0.04083312 0.0443292 -0.08357103 0.01080249 0.0054291147 -0.071385846
-0.016679805 -0.027402721 0.06841369 -0.049021948 -0.024014536 0.012345486 0.029407943 -0.031054841
0.023782339 0.033586033 -0.0004890193 -0.07540976 -0.0023171178 -0.053628378 0.07683452 0.011386181
0.021592261 -0.01622209 0.057989385 0.03195413 -0.033828452 -0.015423238 -0.07212223 -0.05997111
0.026838133 0.048354983 -0.0052468292 -0.006608984 0.0014962868 -0.044469435 0.021050084 0.053732984
-0.0176356 -0.034653854 0.07275174 0.023728812 -0.05487978 0.024000976 -0.021838695 -0.07684146
0.019920086 -0.0057528974 0.080378264 0.061480556 0.01985655 9.2986484e-05 0.085261926 0.028523449
-0.085785545 -0.033639885 0.006122978 -0.07726681 -0.0036115844 0.05900091 -0.04100471 -0.050988004
-0.0408219 -0.019913679 -0.0058263484 0.05714396 0.0409802 -0.016265344 0.015920687 0.0006082317
0.03291966 0.007113524 -0.06233322 0.03329542 0.030687679 -0.036313396 0.057020176 0.070057936
-0.0207137 -0.009562635 -0.0013657791 -0.011681558 -0.059274085 0.02974205 0.017335515 0.009439861
-0.044160858 0.03804674 0.065267295 0.015949316 0.040251724 0.01971855 0.08640543 0.00089436665
-0.06858471 0.058537178 -0.07982203 -0.042058688 0.045319032 -0.03129065 0.046850234 -0.056640558
-0.06773531 -0.07375203 0.011447084 -0.072287776 0.027780822 -0.07249949 0.05145401 0.04327823
0.020195158 0.0037839334 0.021086384 -0.033637166 0.026751269 -0.014540293 -0.037467156 -0.06855723
0.085848115 -0.05547328 0.080453664 -0.044185787 0.028998053 -0.010505976 0.048828397 -0.0031274648
-0.028141038 0.07559248 0.07424224 0.041743524 0.08600772 0.07967041 0.030456925 -0.0839222
-0.033441015 0.008360997 0.004409024 -0.0876318 -0.024335358 0.024655633 -0.069498666 0.08320108
0.024847768 0.06157545 0.03146494 0.04734523 -0.039092075 0.019659271 0.052347142 0.06710725
-0.045197688 0.048265126 0.042945985 -0.07920029 0.015432637 -0.049709626 0.058016654 0.052188016
-0.0010964292 -0.023966648 -0.016153833 0.010771375 -0.0044628032 0.074196436 0.038708393 0.034543693

bias f4 [96]
00000000: c131 a4bd acbc 6cbd 54e3 21bd 9f23 943d
00000010: 016a 733d f653 ed3c 130d 7e3d f61a e73c
00000020: f7cb 2b3d ad80 c5bc c234 bfb9 61d3 8e3d
00000030: 58c2 3bbd 72f9 84bd 405e f33c 3627 a6bb
00000040: 41a6 79bc 0e96 75bd 4c06 20bd 8884 ab3d
00000050: fb6b 8b3d ec2f acbd d3e7 8dbd c088 50bd
00000060: 36b8 8d3d 0e70 fc3c 27dc ec3c ff23 24bd
00000070: f684 173d 5180 5bbd d223 023d c3bc 5dbb
00000080: 3f0c b83c 06d0 613d f2d8 98bc f573 d03c
00000090: 72e9 a73d 05c3 00bb dbac 7cbd c142 703c
000000a0: 584a 9cbd d089 b23c 1bc3 0f3d 670d a23d
000000b0: a929 f7bc e5b0 81bc d0d2 81bc c886 5dbd
000000c0: 39c1 753d c36f 103d b67f 353d 228d 9a3d
000000d0: bc89 0abd a74e 94bd f838 913d 3390 903b
000000e0: b395 6fbd 24a4 2a3d 305a 963c 9489 37bd
000000f0: 538a acbd 4f8f 33bd a8bc 58bd 0242 41bc
00000100: 9b9a 43bd 1f6d 0e3d e000 563d 2d4b a83d
00000110: 5fb7 0d3d 81a9 adbc e443 55bd cea3 b3bd
00000120: 5056 2e3d 33bc a33d e173 9a3d 1b37 03ba
00000130: 54e3 b23c ed42 edbc 2865 a9bc cc14 173c
00000140: a98a 8b3d 7661 063d 221f 863d 0b36 10bd
00000150: f15b 403d 839c 55bd 625c 92bd 5a56 e4bc
00000160: 3dcd 8c3d 6b02 59bc aafb db3c 6ef6 b33d
00000170: 07af 59bd c5ea a6bc 744e a93d 87be 143d
-0.08017302 -0.05779712 -0.039523438 0.07233357 0.059427265 0.0289707 0.062024187 0.028211098
0.041942563 -0.024109209 -0.00036469667 0.06973911 -0.045839638 -0.064928904 0.029708028 -0.0050705923
-0.015237392 -0.059957556 -0.039068505 0.08374888 0.06807705 -0.08407578 -0.069289826 -0.050911665
0.06919901 0.03081515 0.02891357 -0.04007339 0.036992036 -0.05358917 0.031772442 -0.0033834435
0.022466777 0.055130027 -0.018658135 0.025445918 0.08198823 -0.001964749 -0.061688285 0.014664353
-0.076313674 0.02179423 0.035098176 0.079127125 -0.030171232 -0.01583142 -0.015847594 -0.054083616
0.059998725 0.035262834 0.044311248 0.0754645 -0.03382276 -0.07241564 0.07090944 0.004411721
-0.058492374 0.041660443 0.018353552 -0.04480894 -0.08424821 -0.04383784 -0.05291429 -0.011795523
-0.047754865 0.034772035 0.05224693 0.08217464 0.034598704 -0.02119899 -0.0520667 -0.08771478
0.042562783 0.079948805 0.075416334 -0.0005005465 0.021836914 -0.028962577 -0.020678118 0.009221267
0.06813557 0.03280779 0.06548907 -0.03520779 0.046962682 -0.052151214 -0.07146527 -0.027873207
0.068750836 -0.013245205 0.026853401 0.08787237 -0.053145435 -0.020375619 0.08266917 0.036314514

weight f4 [96]
00000000: 0000 803f 0000 803f 0000 803f 0000 803f
00000010: 0000 803f 0000 803f 0000 803f 0000 803f
00000020: 0000 803f 0000 803f 0000 803f 0000 803f
00000030: 0000 803f 0000 803f 0000 803f 0000 803f
00000040: 0000 803f 0000 803f 0000 803f 0000 803f
00000050: 0000 803f 0000 803f 0000 803f 0000 803f
00000060: 0000 803f 0000 803f 0000 803f 0000 803f
00000070: 0000 803f 0000 803f 0000 803f 0000 803f
00000080: 0000 803f 0000 803f 0000 803f 0000 803f
00000090: 0000 803f 0000 803f 0000 803f 0000 803f
000000a0: 0000 803f 0000 803f 0000 803f 0000 803f
000000b0: 0000 803f 0000 803f 0000 803f 0000 803f
000000c0: 0000 803f 0000 803f 0000 803f 0000 803f
000000d0: 0000 803f 0000 803f 0000 803f 0000 803f
000000e0: 0000 803f 0000 803f 0000 803f 0000 803f
000000f0: 0000 803f 0000 803f 0000 803f 0000 803f
00000100: 0000 803f 0000 803f 0000 803f 0000 803f
00000110: 0000 803f 0000 803f 0000 803f 0000 803f
00000120: 0000 803f 0000 803f 0000 803f 0000 803f
00000130: 0000 803f 0000 803f 0000 803f 0000 803f
00000140: 0000 803f 0000 803f 0000 803f 0000 803f
00000150: 0000 803f 0000 803f 0000 803f 0000 803f
00000160: 0000 803f 0000 803f 0000 803f 0000 803f
00000170: 0000 803f 0000 803f 0000 803f 0000 803f
1.0 1.0 1.0 1.0 1.0 1.0 1.0 1.0
1.0 1.0 1.0 1.0 1.0 1.0 1.0 1.0
1.0 1.0 1.0 1.0 1.0 1.0 1.0 1.0
1.0 1.0 1.0 1.0 1.0 1.0 1.0 1.0
1.0 1.0 1.0 1.0 1.0 1.0 1.0 1.0
1.0 1.0 1.0 1.0 1.0 1.0 1.0 1.0
1.0 1.0 1.0 1.0 1.0 1.0 1.0 1.0
1.0 1.0 1.0 1.0 1.0 1.0 1.0 1.0
1.0 1.0 1.0 1.0 1.0 1.0 1.0 1.0
1.0 1.0 1.0 1.0 1.0 1.0 1.0 1.0
1.0 1.0 1.0 1.0 1.0 1.0 1.0 1.0
1.0 1.0 1.0 1.0 1.0 1.0 1.0 1.0

bias f4 [96]
00000000: 0000 0000 0000 0000 0000 0000 0000 0000
00000010: 0000 0000 0000 0000 0000 0000 0000 0000
00000020: 0000 0000 0000 0000 0000 0000 0000 0000
00000030: 0000 0000 0000 0000 0000 0000 0000 0000
00000040: 0000 0000 0000 0000 0000 0000 0000 0000
00000050: 0000 0000 0000 0000 0000 0000 0000 0000
00000060: 0000 0000 0000 0000 0000 0000 0000 0000
00000070: 0000 0000 0000 0000 0000 0000 0000 0000
00000080: 0000 0000 0000 0000 0000 0000 0000 0000
00000090: 0000 0000 0000 0000 0000 0000 0000 0000
000000a0: 0000 0000 0000 0000 0000 0000 0000 0000
000000b0: 0000 0000 0000 0000 0000 0000 0000 0000
000000c0: 0000 0000 0000 0000 0000 0000 0000 0000
000000d0: 0000 0000 0000 0000 0000 0000 0000 0000
000000e0: 0000 0000 0000 0000 0000 0000 0000 0000
000000f0: 0000 0000 0000 0000 0000 0000 0000 0000
00000100: 0000 0000 0000 0000 0000 0000 0000 0000
00000110: 0000 0000 0000 0000 0000 0000 0000 0000
00000120: 0000 0000 0000 0000 0000 0000 0000 0000
00000130: 0000 0000 0000 0000 0000 0000 0000 0000
00000140: 0000 0000 0000 0000 0000 0000 0000 0000
00000150: 0000 0000 0000 0000 0000 0000 0000 0000
00000160: 0000 0000 0000 0000 0000 0000 0000 0000
00000170: 0000 0000 0000 0000 0000 0000 0000 0000
0.0 0.0 0.0 0.0 0.0 0.0 0.0 0.0
0.0 0.0 0.0 0.0 0.0 0.0 0.0 0.0
0.0 0.0 0.0 0.0 0.0 0.0 0.0 0.0
0.0 0.0 0.0 0.0 0.0 0.0 0.0 0.0
0.0 0.0 0.0 0.0 0.0 0.0 0.0 0.0
0.0 0.0 0.0 0.0 0.0 0.0 0.0 0.0
0.0 0.0 0.0 0.0 0.0 0.0 0.0 0.0
0.0 0.0 0.0 0.0 0.0 0.0 0.0 0.0
0.0 0.0 0.0 0.0 0.0 0.0 0.0 0.0
0.0 0.0 0.0 0.0 0.0 0.0 0.0 0.0
0.0 0.0 0.0 0.0 0.0 0.0 0.0 0.0
0.0 0.0 0.0 0.0 0.0 0.0 0.0 0.0

weight f4 [12, 96]
00000000: dca7 19bd e5ef 53bc d695 aabd 4d4d a8bd
00000010: b9f1 843b a1e7 db3c e3fc cebd 3d82 a13c
00000020: 850c 673d b0b3 993d 4a75 6fbc 2cc9 afbd
00000030: c320 1bbc ff5a cfbb ad55 2fbd 6335 abbc
00000040: 5117 0abd f5db bf3d c7a9 be3d fbd4 11bc
00000050: 428e 2fbd 7e1b c5bb bf80 bbbd 8bb6 70bd
00000060: e464 88bc 61eb a5ba f0cb 033d 519b f5bc
00000070: 80c8 ae3c a42a 8abd 0348 c83d 9237 c1bd
00000080: e479 03bd 70cb 88bc 4a3a 5b3d e9c9 42bd
00000090: e25d bcbb 488e 2f3d 4b38 b4bd 77d5 363c
000000a0: 73f2 48bc d849 dabb ec62 c0bc 4bd4 c7bc
000000b0: eb93 c9bd 647e 573b e0c7 003d 6dad a7bd
000000c0: e230 b83d 18f0 5e3b 0c40 85bd 6b7a 41bc
000000d0: 7ea2 c53c 105c b63d 28fe 01bc 92a6 eb3c
000000e0: 37a6 99bb 3024 2b3d 8cbc 09bd 1dcd c63d
000000f0: 328c 8f3d ba32 43bd 8083 a23d 6bcd 073d
00000100: 800a af3d a6d3 8a3b 3694 08bd 734f 22bd
00000110: b6b4 e03c 95aa 5c3d 718c 83bd baf8 dabc
00000120: 4428 da3b da10 c3bd 229d 733c e1ed 6a3d
00000130: f22a 233c a83a 8f3d ff2d 91bd 9515 13bd
00000140: c422 e83b bac5 61bd b60b 0dbd 4576 7e3d
00000150: 3457 babc 2a56 093d 2ed3 cb3d 109e b93d
00000160: fbb4 6ebd 404f 8b3d c1d4 023d c4c0 883d
00000170: b71e cb3c bac7 ac3d 103d acbc 4145 2b3c
00000180: b8c5 f7bc 14b5 c4bd ad88 3b3c 6425 ca3d
00000190: ffc2 46bd f3ff babd 1e44 953d 30d0 903c
000001a0: 7acd b73b 914a e1bb 6ef9 5a3d e0bc 953d
000001b0: a144 43bc 1b61 023d 4ab7 fcbc dcd5 89bd
000001c0: 7f8e e73c 0237 bebd f6b1 debc 9c02 8dbd
000001d0: e212 643d 5d6d 6c3c 1ef6 d43c 3825 4c3d
000001e0: 87ca d7bc 8898 a53c 15a1 b1bd 41db 3bbd
000001f0: c177 86bc f4a2 5c3d bde5 ba3d 497f b2bd
00000200: dac7 d63c cc0e dcbc f77e a2bd 7b72 ac3d
00000210: 7925 a5bd e952 a93d 526c 393d f6c6 683d
00000220: 5c39 513c e451 c73d 4e3a abbd 40ba 17bd
00000230: 26f6 52bd 47d5 9ebd a135 14bd 9717 d63c
00000240: 6327 50bd 940d 513c 046e d5bc 528c 77bd
00000250: 5467 ac3d 82d7 1abd 641d 93bd d3d1 853c
00000260: 0b0b a43d 52ba b73d 99db b3bc 3a2d 17bc
00000270: b885 62bd 9682 5cbd 7cee 5ebd b663 cabd
00000280: 7d67 a53d 26c8 4b3d a5c1 62bb 478b a0bd
00000290: 8eb0 8b3d 2a75 a3bd c750 34bd c512 2cbd
000002a0: 62ba d53c 52d4 4b3d b365 9bbd 5511 c43d
000002b0: fd76 18bb 8134 b03d 16d3 98bd 26b3 6c3d
000002c0: 128d 06bd 377a b4bd bd0f 86bd cc68 b73d
000002d0: c89b a53d 0e63 d13c 876c 3c3d e49f 293c
000002e0: 4f1d b93d c47f 133d 0c12 0bbd 8130 b93d
000002f0: 8d96 733d b04b cfbb 0aa3 2f3c b5f7 8abd
00000300: 1ebe bbbd 9f72 073c 8a8b 7d3d a8d7 123d
00000310: 6467 16bd e845 943d f563 a03c 9de4 af3d
00000320: f247 f93c 05fb bc3d 63b6 f63c e127 c0bb
00000330: ae3b 05bd 5bc4 a13d cf1c 6dbd 2c4b 48bc
00000340: 42c6 b53c 8d99 a53d 31de b53d 9579 76bc
00000350: 2aa9 01bd 5311 c73d 58d6 a1bd 2aad 833c
00000360: b87f cdbc 19b4 26bd 5b40 5d3d 3c65 1f3d
00000370: c4c5 6f3a f6e4 3cbd 4954 21bc 8d67 6fbd
00000380: a3a9 83bd c93b 3f3d 61f0 73bd 31dd bcbd
00000390: f6f3 bd3d 7d7d ccbd d49b 59bc 0910 133d
000003a0: 5182 8a3d 479d 9e3d 2fc0 b0bd 773d 40bc
000003b0: 3ac9 fc3c 9a16 cbbc 0f4c 8e3d d85a b3bc
000003c0: 5dde dc3c 7987 a1ba 0435 9dbc 1bba 813c
000003d0: 8aa4 a3bd 0315 843d ee58 cc3d 1f4d 693d
000003e0: d71d 24bd 25fa aebd ec33 13bc 501e 8bbd
000003f0: e5b3 0e3b 6c4c 96bd 6711 89bc 5178 b5bd
-0.0375136 -0.012935613 -0.0832936 -0.08217869 0.004057136 0.026843848 -0.10106828 0.019715423
0.056408424 0.07504976 -0.014615366 -0.08583292 -0.00946826 -0.0063279863 -0.042806316 -0.02089948
-0.033713643 0.09368125 0.09309726 -0.008900876 -0.042860277 -0.00601524 -0.09155416 -0.058767837
-0.01664967 -0.0012658649 0.03217691 -0.029981287 0.02133584 -0.06746414 0.0977936 -0.09434427
-0.032098666 -0.016698569 0.053522386 -0.047555838 -0.0057484964 0.0428603 -0.087997995 0.011159292
-0.012264836 -0.006661635 -0.02348467 -0.024393221 -0.09842666 0.0032881731 0.031440616 -0.08187375
0.08993699 0.0034017619 -0.065063566 -0.011808972 0.024125334 0.08904278 -0.007934131 0.02876595
-0.004689004 0.041782558 -0.033627078 0.09707091 0.07009162 -0.0476558 0.07935238 0.033154886
0.085469246 0.0042366562 -0.03334447 -0.03962655 0.02742992 0.053873617 -0.064232714 -0.02672993
0.006657632 -0.095246986 0.014869006 0.057355765 0.009958969 0.0699361 -0.07088851 -0.035909254
0.0070842225 -0.055120207 -0.034434997 0.06212451 -0.02274666 0.033529438 0.09952389 0.09063351
-0.058278065 0.06802225 0.03194118 0.06677392 0.02479492 0.08436532 -0.02102521 0.010453523
-0.030245647 -0.096048504 0.01144616 0.09870413 -0.048525807 -0.0913085 0.07288383 0.017677397
0.0056092115 -0.006875344 0.05346053 0.07311416 -0.011918218 0.03183089 -0.030849118 -0.067302436
0.02826619 -0.09287836 -0.027184468 -0.06885263 0.05568207 0.014430371 0.025996264 0.049840182
-0.02634169 0.020214334 -0.08673302 -0.045863394 -0.016414525 0.05386634 0.0912585 -0.08715684
0.026218344 -0.026862524 -0.07934373 0.08420273 -0.08063788 0.08267767 0.045269318 0.05683037
0.012770023 0.09732416 -0.0836073 -0.037042856 -0.051504277 -0.07755523 -0.036183957 0.026134295
-0.050818812 0.012759585 -0.026053436 -0.060436554 0.08418146 -0.03780318 -0.0718334 0.016335404
0.08009919 0.08971085 -0.021955298 -0.009227091 -0.055303305 -0.053835474 -0.054426655 -0.098822996
0.080763794 0.049751423 -0.0034600284 -0.07839065 0.068207845 -0.07981332 -0.044022348 -0.042010088
0.02608985 0.04976303 -0.07587757 0.09573618 -0.0023264282 0.08603764 -0.074621364 0.057788037
-0.03284938 -0.08812373 -0.065459706 0.08955535 0.080863535 0.025559928 0.046001937 0.010353062
0.09038793 0.03601052 -0.033952758 0.090424545 0.05946975 -0.0063261613 0.010720024 -0.067855276
-0.09167121 0.008267074 0.061900653 0.035850197 -0.036719695 0.07239896 0.019578913 0.085885264
0.030429814 0.09227566 0.030116266 -0.005864129 -0.032527618 0.0789878 -0.057888802 -0.012224954
0.022189263 0.08085928 0.0888027 -0.015043636 -0.031655468 0.09720101 -0.07902211 0.016073782
-0.025085315 -0.0406991 0.054016452 0.038914904 0.0009146596 -0.04611679 -0.009846755 -0.058448363
-0.0642884 0.046687875 -0.059555415 -0.092218764 0.092750475 -0.099848725 -0.013281781 0.035903964
0.06763137 0.07744842 -0.08630406 -0.011733404 0.030857671 -0.02479105 0.06948101 -0.021893904
0.0269615 -0.0012323699 -0.019190319 0.015835812 -0.07990368 0.0644932 0.099778995 0.056958314
-0.04006752 -0.08543805 -0.008984547 -0.06792891 0.0021774706 -0.07338795 -0.01673193 -0.08860839

bias f4 [12]
00000000: d106 083c 5941 e3bc 4dbe 99bc 20df b03c
00000010: 1339 dc3c 17b8 823c f779 28bd ad0a b5bd
00000020: a653 93bd e43d 513d d424 cebb 1a96 8d3d
0.008302406 -0.027741121 -0.0187675 0.02159077 0.026882684 0.015956922 -0.04113194 -0.08839927
-0.07193689 0.051084414 -0.0062910113 0.06913395
