model/actor.pt (torch, 83166 bytes, 10 tensors)

weight f4 [128, 32]
0	0x3b96ca5f	0.0046017612
1	0x3d87e739	0.06635899
2	0x3d469cc7	0.04848936
3	0x3b469955	0.0030303795
4	0xbe1f52e7	-0.15558968
5	0x3e29f50e	0.16597387
6	0xbe15cb3d	-0.1462831
7	0xbca93db7	-0.02065931
8	0xbc96f3f6	-0.018426877
9	0x3e0799c6	0.13242254
10	0xbe1464ed	-0.14491625
11	0x3bdea0a1	0.006794051
12	0xbdb3b759	-0.08775205
13	0xbd52f42d	-0.051502395
14	0x3d2ebf4f	0.042662915
15	0xbd4669b0	-0.048440635
16	0x3d9080e0	0.07055831
17	0xbe2577ac	-0.16158932
18	0xbdc15f54	-0.094420105
19	0xbddad72f	-0.10685574
20	0xbe222e44	-0.15837961
21	0x3da303a1	0.079596765
22	0xbd747a7c	-0.059687123
23	0x3db740cd	0.08947907
24	0xbd082671	-0.033239786
25	0xbd26f73c	-0.040763125
26	0x3db0b19f	0.086276285
27	0x3c048000	0.008087158
28	0xbd9a1909	-0.07524306
29	0x3df50e59	0.11965627
30	0xbdb9a977	-0.09065526
31	0x3e14b2a2	0.14521268
32	0xbe0e2962	-0.13882974
33	0x3d9491c0	0.07254362
34	0xbde6fe31	-0.11278952
35	0xbe3377f0	-0.17526221
36	0x3e255697	0.16146313
37	0xbe2600fd	-0.16211314
38	0x3e1a0ba2	0.150435
39	0x3df2ff93	0.11865153
40	0x3cd26eb5	0.025687555
41	0x3b6de885	0.0036301923
42	0xbd148a64	-0.036264792
43	0xbd8cf496	-0.068825886
44	0xbe0039ad	-0.12522002
45	0x3d33dd12	0.043912
46	0x3d8d0a3e	0.06886719
47	0xbe01e364	-0.12684399
48	0xbd893229	-0.066990204
49	0x3e0dbecf	0.13842319
50	0x3e02f17b	0.1278743
51	0xbe006a92	-0.12540653
52	0xbcc78f73	-0.024360394
53	0x3e0e665b	0.13906233
54	0xbd84be7b	-0.06481644
55	0xbd6c835d	-0.057742465
56	0x3e311d48	0.17296326
57	0xbd36587e	-0.044517986
58	0xbde5387b	-0.111924134
59	0x3cfc5146	0.030800473
60	0x3e2e4787	0.17019473
61	0xbdcbab3a	-0.09944768
62	0x3dc4ebd4	0.09615293
63	0xbd92e1c3	-0.07171967
64	0x3e24e71d	0.16103788
65	0xbd0e6b49	-0.034770284
66	0xbe14f4a2	-0.14546445
67	0x3dd3b816	0.10337846
68	0x3d8fea62	0.07027127
69	0x3de49855	0.111618675
70	0xbe317617	-0.17330204
71	0xbe21a25d	-0.15784593
72	0xbe15adee	-0.1461713
73	0x3db83839	0.089950986
74	0xbc2eebbf	-0.010676323
75	0xbd82a262	-0.06378628
76	0xbe014897	-0.12625347
77	0xbddbf66d	-0.10740361
78	0xbc0e0073	-0.008667099
79	0xbd5c9307	-0.053851154
80	0x3c326fce	0.010890914
81	0xbd8c2986	-0.068438575
82	0xbd3f1107	-0.046647098
83	0xbe15a948	-0.14615357
84	0xbd5727b5	-0.052528102
85	0x3d9215bd	0.071330525
86	0x3c8094f8	0.015696034
87	0x3e21d619	0.15804328
88	0xbd72f05c	-0.059311256
89	0x3deda342	0.116034046
90	0xbe27e41b	-0.16395609
91	0x3defbd7d	0.11706064
92	0xbe1722b5	-0.14759333
93	0xbd6a651a	-0.057225324
94	0xbe2eeedd	-0.17083307
95	0x3e03e8a0	0.12881708
96	0x3dd55a4c	0.104176134
97	0xbe193df9	-0.14965047
98	0xbba36f55	-0.004987637
99	0xbdc84a58	-0.09779805
100	0x3e160040	0.14648533
101	0xbd2a0bc5	-0.04151513
102	0xbe2ea145	-0.17053707
103	0x3dfaca61	0.12245632
104	0xbe18e1d7	-0.14929901
105	0x3dcb6147	0.099306636
106	0x3e254aa9	0.16141762
107	0xbd8f0e44	-0.06985143
108	0xbceeb05e	-0.029136833
109	0xbdb72d17	-0.08944147
110	0x3e1816eb	0.14852493
111	0xbd65f9bb	-0.056146365
112	0xbd798b8a	-0.06092409
113	0x3d56194e	0.052270226
114	0xbd9cff6b	-0.076659046
115	0x3c39dc11	0.011343972
116	0x3e1c5766	0.15267715
117	0xbe099ea1	-0.13439418
118	0xbdbaa2eb	-0.091131054
119	0x3e14a1c2	0.1451483
120	0x3e02ba59	0.12766398
121	0xbc9f7f4e	-0.019469883
122	0xbdf0b4b5	-0.11753217
123	0x3e27f23c	0.16400999
124	0x3c95453e	0.018221494
125	0x3d562fd2	0.0522917
126	0xbdfa4883	-0.12220862
127	0x3ce6366f	0.028102128
128	0x3d2030e6	0.039109133
129	0xbda546ed	-0.08070169
130	0x3e1407f8	0.14456165
131	0xbce5d64f	-0.028056292
132	0x3d07eca8	0.033184677
133	0xbd6452e2	-0.055743106
134	0xbe22e2c5	-0.15906818
135	0x3de9d6cc	0.114179224
136	0xbe2a68e0	-0.16641569
137	0x3c93ea52	0.018056069
138	0x3e05e743	0.130765
139	0xbde0b4df	-0.109719984
140	0x3e21b8c4	0.15793139
141	0x3bcd956d	0.0062739165
142	0xbdd294f2	-0.10282315
143	0x3d0bf903	0.034173023
144	0xbdeda008	-0.11602789
145	0x3dd34e30	0.103176475
146	0xbdf967aa	-0.121779755
147	0xbd1117b9	-0.035423014
148	0xbdefcded	-0.11709199
149	0xbbeb0510	-0.0071722344
150	0xbda2b888	-0.07945353
151	0xbdf6b858	-0.120468795
152	0xbd4673e6	-0.048450373
153	0xbd7ffe20	-0.06249821
154	0xbdb5847c	-0.0886316
155	0x3e2d748e	0.16938993
156	0xbe2d44bf	-0.16920756
157	0x3bd5016c	0.0065004136
158	0xbe334795	-0.17507775
159	0x3cbb1cf6	0.022840958
160	0xbd9b098a	-0.07570179
161	0xbe27fcb6	-0.16404995
162	0xbdf89cd3	-0.12139287
163	0xbdefa15e	-0.117007
164	0xbd604acb	-0.054758828
165	0x3e31e998	0.17374265
166	0xbde33b93	-0.11095347
167	0xbd9c9fc8	-0.07647663
168	0x3d34f806	0.044181846
169	0xbe1d54c9	-0.15364374
170	0x3e1331b8	0.14374435
171	0x3dc72cd7	0.097253494
172	0x3da7af01	0.08187676
173	0xbd76995e	-0.060204856
174	0xbe04b8a3	-0.12961058
175	0x3c2ae156	0.010429701
176	0x3d93342c	0.07187685
177	0xbccf3e00	-0.025298119
178	0x3e2846e6	0.16433296
179	0xbdac1482	-0.08402349
180	0x3d3a878a	0.045539416
181	0xbda34684	-0.07972434
182	0x3d80bc97	0.06285971
183	0x3e1d1841	0.15341283
184	0xbd9ac485	-0.075570144
185	0x3cfe6da3	0.031058138
186	0x3d2776d8	0.040884823
187	0x3b510599	0.0031894206
188	0xbd7e904f	-0.062149342
189	0xbdac7df5	-0.08422462
190	0xbe08ee69	-0.13372196
191	0x3e2073fe	0.15669248
192	0xbdad45e1	-0.08460594
193	0x3e288c05	0.16459663
194	0x3ab88590	0.0014077891
195	0x3e2728be	0.16324136
196	0xbd195664	-0.037435904
197	0x3dbaa753	0.09113946
198	0xbd836edc	-0.06417629
199	0xbd02813a	-0.03186152
200	0xbe286ec8	-0.1644851
201	0x3dacc65e	0.08436273
202	0xbc231b02	-0.00995517
203	0xbc6719db	-0.0141052855
204	0x3e29c3c7	0.1657859
205	0x3daafb06	0.0834866
206	0x3d1a6d7a	0.03770206
207	0xbc88041a	-0.016603518
208	0x3e110a99	0.14164199
209	0xbd0f81ff	-0.035036083
210	0xbe218b4a	-0.15775791
211	0xbe2c89fb	-0.1684951
212	0xbd307fcb	-0.043090623
213	0x3e16362b	0.14669101
214	0x3cd8cdb2	0.02646527
215	0xbcbc1401	-0.022958757
216	0xbd6df441	-0.058094267
217	0xbdcca752	-0.09992851
218	0x3e2d9950	0.16953015
219	0xbe136a35	-0.14395984
220	0x3b63e926	0.0034776418
221	0x3dce97a2	0.100875154
222	0x3e144a11	0.14481379
223	0xbdf08689	-0.117444105
224	0x3e0b8d88	0.13628209
225	0xbd39feab	-0.045408886
226	0x3e3162c9	0.1732284
227	0x3d3af776	0.045646153
228	0x3e20530f	0.15656684
229	0xbdd26740	-0.102735996
230	0x3d1b7798	0.03795585
231	0xbe0880fd	-0.13330455
232	0xbba11869	-0.00491624
233	0xbce6bfca	-0.028167624
234	0x3e345c6c	0.17613381
235	0x3d803d8e	0.062617406
236	0x3d6eb1cd	0.058275033
237	0x3db82696	0.08991735
238	0xbde95897	-0.1139385
239	0x3c03ad1b	0.008036877
240	0x3e228996	0.15872797
241	0x3dba2833	0.09089699
242	0x3e0216a4	0.12703949
243	0xbdd94d0a	-0.10610397
244	0xbde10989	-0.10988147
245	0xbca78b76	-0.020452242
246	0x3d21b3a5	0.039477963
247	0x3db167f7	0.08662408
248	0xbdbf8929	-0.09352333
249	0xbde854f3	-0.11344328
250	0xbd1fd8e3	-0.0390252
251	0xbd92fc5b	-0.07177039
252	0x3e20819c	0.15674442
253	0x3b188615	0.0023273278
254	0x3dfe9cc0	0.124322414
255	0x3e2b706c	0.16742104

bias f4 [128]
0	0xbe070471	-0.13185288
1	0xbd02c1af	-0.031922992
2	0xbd31aa09	-0.04337505
3	0xbd3e092b	-0.046395462
4	0x3dfa248a	0.122140005
5	0x3dd92511	0.10602773
6	0xbdf4439e	-0.119269595
7	0x3da25f32	0.07928313
8	0xbc9d3578	-0.019190535
9	0xbcf1c0b9	-0.029510843
10	0x3d178d12	0.03699977
11	0xbe13c970	-0.14432311
12	0xbca87863	-0.020565217
13	0x3e0418df	0.12900113
14	0x3d1cbf23	0.03826822
15	0x3d4ebda9	0.050473843
16	0xbd93bb27	-0.07213431
17	0x3d7966cb	0.060889047
18	0x3dc6125f	0.09671473
19	0x3e074e1a	0.13213387
20	0x3d81d832	0.06340064
21	0xbdde17e4	-0.108444005
22	0x3dc94f01	0.09829522
23	0xbd303f17	-0.043028917
24	0x3e017662	0.12642816
25	0x3cd0ad41	0.025473239
26	0xbd82b1d4	-0.06381574
27	0xbe0de520	-0.13856936
28	0xbda7b9b6	-0.081897184
29	0x3e069d6e	0.13145992
30	0x3d983b05	0.07433132
31	0xbdbc4aa9	-0.09193928
32	0x3d8deac8	0.069295466
33	0xbd2ee945	-0.042702932
34	0xbcfc384e	-0.030788567
35	0x3e1fddd8	0.1561197
36	0xbdead3c4	-0.11466172
37	0x3d41457a	0.0471854
38	0xbdec6ae7	-0.115438275
39	0xbce03cd4	-0.027372755
40	0xbe27d8ef	-0.16391347
41	0x3d80787a	0.06272979
42	0xbdd1b175	-0.10238925
43	0xbdd3883a	-0.103287175
44	0xbe01c5c4	-0.12673098
45	0xbbe66399	-0.007030916
46	0xbd26cc8b	-0.04072241
47	0xbd95c60c	-0.07313165
48	0xbe037e95	-0.12841256
49	0xbdf62120	-0.12018037
50	0xbe0b3f16	-0.13598284
51	0x3ded606f	0.11590659
52	0x3d380c8f	0.04493385
53	0xbddaa484	-0.1067591
54	0x3dc85ecf	0.09783708
55	0xbdd8cc9d	-0.10585902
56	0xbcb970ac	-0.022636734
57	0xbc0d8bdd	-0.008639303
58	0x3d4647e1	0.048408393
59	0x3e0c11fd	0.13678737
60	0x3e0c8aae	0.13724777
61	0x3da46d42	0.08028652
62	0x3d89c082	0.06726171
63	0xbd6bd521	-0.057576302
64	0x3df970b1	0.12179697
65	0xbe18a6d0	-0.14907384
66	0x3de2d3d7	0.110755615
67	0x3e2f6b38	0.17130744
68	0xbe235c2e	-0.15953133
69	0x3d914a9a	0.07094307
70	0x3dab051a	0.083505824
71	0xbd8fdf78	-0.07025045
72	0x3d6acf42	0.057326563
73	0xbe1d080f	-0.15335105
74	0xbd3fb8db	-0.04680715
75	0xbde084fc	-0.10962865
76	0xbdc7b7a7	-0.09751826
77	0xbbad4ff2	-0.0052890712
78	0xbe251aa2	-0.16123441
79	0x3d5fc1cb	0.054628175
80	0x3e0a5307	0.13508235
81	0x3e25f799	0.16207732
82	0xbe317042	-0.17327979
83	0xbe09b0d7	-0.13446365
84	0xbd589dbe	-0.05288481
85	0xbe2291a0	-0.15875864
86	0x3da1399a	0.07872315
87	0xbe0243e9	-0.12721218
88	0x3dfda272	0.123844996
89	0xbd4432c4	-0.047899976
90	0x3e0772df	0.13227414
91	0xbd1eb452	-0.038746186
92	0xbe3449c8	-0.1760627
93	0xbda627b6	-0.08113043
94	0xbe030cc8	-0.12797844
95	0xbca5e55d	-0.02025097
96	0xbe109f0a	-0.14123169
97	0xbd5a60db	-0.053315025
98	0xbd887f7b	-0.0666494
99	0xbda664ee	-0.081247196
100	0xbcd5a5ea	-0.02608009
101	0xbcdc906c	-0.026924334
102	0xbe077941	-0.13229848
103	0xbbd9db75	-0.006648476
104	0xbbe74dd4	-0.0070588384
105	0xbde57bf4	-0.11205283
106	0x3dd07452	0.10178436
107	0xbd8b1369	-0.067908116
108	0x3c711c52	0.014716225
109	0x3d65377a	0.05596111
110	0x3e31766c	0.1733033
111	0xbdcc4e04	-0.09975818
112	0x3d49f778	0.04930827
113	0x3d21237b	0.039340477
114	0x3e165f9c	0.1468491
115	0xbd9b6dfe	-0.07589339
116	0xbd77b917	-0.06047925
117	0xbc9c9b46	-0.019117009
118	0x3d436138	0.047700137
119	0xbd46df8e	-0.048553042
120	0x3d45d4e9	0.04829875
121	0x3dca30ab	0.09872564
122	0x3de079d1	0.10960735
123	0x3dbd8eaf	0.0925573
124	0x3d56dacf	0.052454766
125	0x3d84cb6e	0.06484114
126	0xbe10e116	-0.14148363
127	0xbe33b8cd	-0.17550965

weight f4 [128]
0	0x3f800000	1.0
1	0x3f800000	1.0
2	0x3f800000	1.0
3	0x3f800000	1.0
4	0x3f800000	1.0
5	0x3f800000	1.0
6	0x3f800000	1.0
7	0x3f800000	1.0
8	0x3f800000	1.0
9	0x3f800000	1.0
10	0x3f800000	1.0
11	0x3f800000	1.0
12	0x3f800000	1.0
13	0x3f800000	1.0
14	0x3f800000	1.0
15	0x3f800000	1.0
16	0x3f800000	1.0
17	0x3f800000	1.0
18	0x3f800000	1.0
19	0x3f800000	1.0
20	0x3f800000	1.0
21	0x3f800000	1.0
22	0x3f800000	1.0
23	0x3f800000	1.0
24	0x3f800000	1.0
25	0x3f800000	1.0
26	0x3f800000	1.0
27	0x3f800000	1.0
28	0x3f800000	1.0
29	0x3f800000	1.0
30	0x3f800000	1.0
31	0x3f800000	1.0
32	0x3f800000	1.0
33	0x3f800000	1.0
34	0x3f800000	1.0
35	0x3f800000	1.0
36	0x3f800000	1.0
37	0x3f800000	1.0
38	0x3f800000	1.0
39	0x3f800000	1.0
40	0x3f800000	1.0
41	0x3f800000	1.0
42	0x3f800000	1.0
43	0x3f800000	1.0
44	0x3f800000	1.0
45	0x3f800000	1.0
46	0x3f800000	1.0
47	0x3f800000	1.0
48	0x3f800000	1.0
49	0x3f800000	1.0
50	0x3f800000	1.0
51	0x3f800000	1.0
52	0x3f800000	1.0
53	0x3f800000	1.0
54	0x3f800000	1.0
55	0x3f800000	1.0
56	0x3f800000	1.0
57	0x3f800000	1.0
58	0x3f800000	1.0
59	0x3f800000	1.0
60	0x3f800000	1.0
61	0x3f800000	1.0
62	0x3f800000	1.0
63	0x3f800000	1.0
64	0x3f800000	1.0
65	0x3f800000	1.0
66	0x3f800000	1.0
67	0x3f800000	1.0
68	0x3f800000	1.0
69	0x3f800000	1.0
70	0x3f800000	1.0
71	0x3f800000	1.0
72	0x3f800000	1.0
73	0x3f800000	1.0
74	0x3f800000	1.0
75	0x3f800000	1.0
76	0x3f800000	1.0
77	0x3f800000	1.0
78	0x3f800000	1.0
79	0x3f800000	1.0
80	0x3f800000	1.0
81	0x3f800000	1.0
82	0x3f800000	1.0
83	0x3f800000	1.0
84	0x3f800000	1.0
85	0x3f800000	1.0
86	0x3f800000	1.0
87	0x3f800000	1.0
88	0x3f800000	1.0
89	0x3f800000	1.0
90	0x3f800000	1.0
91	0x3f800000	1.0
92	0x3f800000	1.0
93	0x3f800000	1.0
94	0x3f800000	1.0
95	0x3f800000	1.0
96	0x3f800000	1.0
97	0x3f800000	1.0
98	0x3f800000	1.0
99	0x3f800000	1.0
100	0x3f800000	1.0
101	0x3f800000	1.0
102	0x3f800000	1.0
103	0x3f800000	1.0
104	0x3f800000	1.0
105	0x3f800000	1.0
106	0x3f800000	1.0
107	0x3f800000	1.0
108	0x3f800000	1.0
109	0x3f800000	1.0
110	0x3f800000	1.0
111	0x3f800000	1.0
112	0x3f800000	1.0
113	0x3f800000	1.0
114	0x3f800000	1.0
115	0x3f800000	1.0
116	0x3f800000	1.0
117	0x3f800000	1.0
118	0x3f800000	1.0
119	0x3f800000	1.0
120	0x3f800000	1.0
121	0x3f800000	1.0
122	0x3f800000	1.0
123	0x3f800000	1.0
124	0x3f800000	1.0
125	0x3f800000	1.0
126	0x3f800000	1.0
127	0x3f800000	1.0

bias f4 [128]
0	0x00000000	0.0
1	0x00000000	0.0
2	0x00000000	0.0
3	0x00000000	0.0
4	0x00000000	0.0
5	0x00000000	0.0
6	0x00000000	0.0
7	0x00000000	0.0
8	0x00000000	0.0
9	0x00000000	0.0
10	0x00000000	0.0
11	0x00000000	0.0
12	0x00000000	0.0
13	0x00000000	0.0
14	0x00000000	0.0
15	0x00000000	0.0
16	0x00000000	0.0
17	0x00000000	0.0
18	0x00000000	0.0
19	0x00000000	0.0
20	0x00000000	0.0
21	0x00000000	0.0
22	0x00000000	0.0
23	0x00000000	0.0
24	0x00000000	0.0
25	0x00000000	0.0
26	0x00000000	0.0
27	0x00000000	0.0
28	0x00000000	0.0
29	0x00000000	0.0
30	0x00000000	0.0
31	0x00000000	0.0
32	0x00000000	0.0
33	0x00000000	0.0
34	0x00000000	0.0
35	0x00000000	0.0
36	0x00000000	0.0
37	0x00000000	0.0
38	0x00000000	0.0
39	0x00000000	0.0
40	0x00000000	0.0
41	0x00000000	0.0
42	0x00000000	0.0
43	0x00000000	0.0
44	0x00000000	0.0
45	0x00000000	0.0
46	0x00000000	0.0
47	0x00000000	0.0
48	0x00000000	0.0
49	0x00000000	0.0
50	0x00000000	0.0
51	0x00000000	0.0
52	0x00000000	0.0
53	0x00000000	0.0
54	0x00000000	0.0
55	0x00000000	0.0
56	0x00000000	0.0
57	0x00000000	0.0
58	0x00000000	0.0
59	0x00000000	0.0
60	0x00000000	0.0
61	0x00000000	0.0
62	0x00000000	0.0
63	0x00000000	0.0
64	0x00000000	0.0
65	0x00000000	0.0
66	0x00000000	0.0
67	0x00000000	0.0
68	0x00000000	0.0
69	0x00000000	0.0
70	0x00000000	0.0
71	0x00000000	0.0
72	0x00000000	0.0
73	0x00000000	0.0
74	0x00000000	0.0
75	0x00000000	0.0
76	0x00000000	0.0
77	0x00000000	0.0
78	0x00000000	0.0
79	0x00000000	0.0
80	0x00000000	0.0
81	0x00000000	0.0
82	0x00000000	0.0
83	0x00000000	0.0
84	0x00000000	0.0
85	0x00000000	0.0
86	0x00000000	0.0
87	0x00000000	0.0
88	0x00000000	0.0
89	0x00000000	0.0
90	0x00000000	0.0
91	0x00000000	0.0
92	0x00000000	0.0
93	0x00000000	0.0
94	0x00000000	0.0
95	0x00000000	0.0
96	0x00000000	0.0
97	0x00000000	0.0
98	0x00000000	0.0
99	0x00000000	0.0
100	0x00000000	0.0
101	0x00000000	0.0
102	0x00000000	0.0
103	0x00000000	0.0
104	0x00000000	0.0
105	0x00000000	0.0
106	0x00000000	0.0
107	0x00000000	0.0
108	0x00000000	0.0
109	0x00000000	0.0
110	0x00000000	0.0
111	0x00000000	0.0
112	0x00000000	0.0
113	0x00000000	0.0
114	0x00000000	0.0
115	0x00000000	0.0
116	0x00000000	0.0
117	0x00000000	0.0
118	0x00000000	0.0
119	0x00000000	0.0
120	0x00000000	0.0
121	0x00000000	0.0
122	0x00000000	0.0
123	0x00000000	0.0
124	0x00000000	0.0
125	0x00000000	0.0
126	0x00000000	0.0
127	0x00000000	0.0

weight f4 [96, 128]
0	0xbcc71622	-0.024302546
1	0x3bf2dca1	0.007411555
2	0x3d0cd867	0.034386065
3	0x3da4cfb4	0.08047429
4	0x3c219e47	0.009864396
5	0xbd817ce6	-0.063226506
6	0x3da34297	0.079716854
7	0xbd4e00ff	-0.05029392
8	0x3d9094c2	0.07059623
9	0xbd9f6eb0	-0.07784784
10	0xbccbd5a7	-0.02488215
11	0xbc22a081	-0.009925962
12	0x3da50418	0.080574214
13	0x3c3e34e0	0.011609286
14	0x3c0ba938	0.008524232
15	0x3d59bf15	0.053160746
16	0x3d8fbd8e	0.070185766
17	0xbccceab4	-0.025014259
18	0x3d8fa77b	0.07014366
19	0xbd435fbd	-0.047698725
20	0x3d852622	0.06501414
21	0x3ba1e7f2	0.00494098
22	0x3c9c1e13	0.01905731
23	0xbc8828c9	-0.01662101
24	0x3cec1262	0.02881736
25	0x3dadd090	0.08487046
26	0xbc4db057	-0.01255425
27	0x3d7dc112	0.061951704
28	0xbbb9ebfa	-0.0056738826
29	0x3d093155	0.033494312
30	0xbd2d0d4d	-0.042249013
31	0xbda00f7a	-0.07815452
32	0xbd50e304	-0.05099775
33	0x3d304eae	0.043043785
34	0xbdab64c7	-0.08368831
35	0xbd8648ee	-0.06556879
36	0x3d903f7e	0.0704336
37	0xbda06927	-0.07832556
38	0xbd6a41ed	-0.057191778
39	0x3d063216	0.03276261
40	0xbd4a6663	-0.04941405
41	0x3cd86e75	0.026419858
42	0x3c962d38	0.018332109
43	0x3d44aee0	0.048018336
44	0x3b88717c	0.004163919
45	0x3d65bea8	0.056090027
46	0xbc2bb2c6	-0.010479635
47	0xbd9b0634	-0.075695425
48	0xbdb1d562	-0.08683278
49	0xbd1810a9	-0.037125263
50	0xbcaa2af8	-0.020772442
51	0x3d0686e5	0.03284349
52	0x3c0c4550	0.008561447
53	0xbd03bac9	-0.032160554
54	0x3d90a980	0.070635796
55	0x3d99d1c8	0.07510716
56	0xbc474583	-0.012162569
57	0xbc920878	-0.017826304
58	0xbd905109	-0.07046706
59	0x3db4df73	0.08831682
60	0x3d398a73	0.04529805
61	0x3ca9cadf	0.02072662
62	0x3cb21c91	0.021742137
63	0x3c514b78	0.012774341
64	0xbceb8ecb	-0.028754612
65	0xbd854c2f	-0.065086715
66	0x3c7b278a	0.015329251
67	0xbd629fe4	-0.055328265
68	0x3d022bf4	0.0317802
69	0xbcffd621	-0.031230034
70	0x3da843f0	0.08216083
71	0xbd9b01e2	-0.075687185
72	0x3d91e984	0.07124618
73	0xbdb3f85f	-0.087876074
74	0xbd94a5a1	-0.07258154
75	0x3d845886	0.06462197
76	0x3cd46e5e	0.025931533
77	0xbd509150	-0.05091983
78	0x3bb46744	0.0055054743
79	0xbda6f52c	-0.081522316
80	0x3d5a1121	0.05323899
81	0x3c622f1e	0.013805179
82	0x3c8dd364	0.017312713
83	0xbd850594	-0.064952046
84	0x3d6151f5	0.0550098
85	0x395eea58	0.0002125887
86	0xbc1b2778	-0.009469859
87	0xbd367768	-0.04454747
88	0xbd5348c0	-0.05158305
89	0xbd12a102	-0.03579808
90	0xbcf375ce	-0.02971926
91	0xbd4cae4d	-0.049970914
92	0xbd4b2e36	-0.049604617
93	0x3cde2bde	0.027120527
94	0xbd41dfe4	-0.04733266
95	0x3b78f931	0.0037990327
96	0x3d5f437c	0.054507717
97	0xbcc04b1e	-0.023473319
98	0x3d13c0ca	0.03607253
99	0x3d874de8	0.06606656
100	0xbcba0b66	-0.022710513
101	0xbda056a0	-0.078290224
102	0xbd1b86d4	-0.03797038
103	0xbcacc4b0	-0.021089882
104	0x3d64ac7f	0.055828568
105	0xbd433ced	-0.047665525
106	0x3dabe0b4	0.08392468
107	0xbc24627d	-0.010033247
108	0xbcfb8df0	-0.03070733
109	0x3d9f4645	0.07777075
110	0x3cff981a	0.031200457
111	0xbcdbf64b	-0.02685084
112	0xbd3f4fce	-0.046706967
113	0x3cebde8b	0.02879264
114	0x3d3e74ec	0.046498224
115	0x3d2d79ee	0.04235261
116	0x3d2427e6	0.040077113
117	0x3d498d76	0.049207173
118	0xbc862b72	-0.016378138
119	0x3b7f480c	0.0038952855
120	0x3dadd39c	0.08487627
121	0xbcf2814d	-0.029602671
122	0xbc3ea395	-0.011635681
123	0xbd9f9d27	-0.07793646
124	0xbc6240cb	-0.013809393
125	0x3d1dba0d	0.03850751
126	0x3d5138b5	0.05107947
127	0xbd53b14b	-0.05168275
128	0x3d91921d	0.07107947
129	0x3d484a94	0.04889925
130	0x3cfe1222	0.031014506
131	0xbd28307c	-0.041061863
132	0x3ce1df91	0.027572425
133	0x3d1d57c9	0.038413797
134	0xbd923a73	-0.071400546
135	0x3d83969e	0.06425212
136	0xbce10a49	-0.027470725
137	0xbc84b881	-0.01620126
138	0xbd9aff6a	-0.075682476
139	0x3d8c22a2	0.06842543
140	0xbd8a028c	-0.06738767
141	0x3c3c5936	0.011495879
142	0x3c66f242	0.014095845
143	0x3d8264e3	0.06366899
144	0x3db396b8	0.08768982
145	0xbd3b4072	-0.045715757
146	0x3d8eaa93	0.06966128
147	0x3d0198c4	0.03163983
148	0x3db15caa	0.086602524
149	0x3dae5b67	0.08513527
150	0xbc9159b4	-0.01774297
151	0x3cfdc48d	0.030977512
152	0xbd2de717	-0.042456713
153	0xbcdafb1e	-0.02673107
154	0x3cef197b	0.029186955
155	0x3d841f00	0.06451225
156	0xbd0b034d	-0.033938695
157	0x3d44814d	0.047974873
158	0x3d198fbf	0.037490603
159	0xbd9e2874	-0.077225596
160	0x3d45be48	0.04827717
161	0x3da4cc39	0.08046765
162	0xbcfd850b	-0.030947229
163	0x3d37d214	0.04487808
164	0x3d1e10c2	0.0385902
165	0xbc9c2651	-0.01906124
166	0x3d16a316	0.036776625
167	0xbcb10d1a	-0.021612693
168	0x3d37451f	0.044743653
169	0xbb6df89b	-0.003631151
170	0xbce12fda	-0.027488638
171	0x3bd3ecdb	0.0064674444
172	0x3ce94571	0.028475495
173	0xb8c9f1fd	-9.629501e-05
174	0x3d6c599d	0.05770265
175	0xbd867a87	-0.06566339
176	0xbd9cea10	-0.076618314
177	0xbd00b28f	-0.031420287
178	0x3bf0e6c2	0.007351727
179	0xbd1966a5	-0.037451405
180	0x3d21ba1e	0.039484136
181	0xbd7162e1	-0.05893219
182	0xbb8eb1ee	-0.004354707
183	0xbda2ce63	-0.079495214
184	0xbcaa6f9a	-0.020805169
185	0xbd21a276	-0.039461575
186	0xbd7f2648	-0.062292367
187	0x3d8f2565	0.06989554
188	0xbd8f6b69	-0.07002909
189	0xbd70fb4f	-0.058833417
190	0x3d02725b	0.03184734
191	0xbd5d3e37	-0.05401441
192	0xbda0021f	-0.078129046
193	0x3cf9d109	0.030495184
194	0x3c9c7aae	0.019101467
195	0x3ce3cc71	0.027807446
196	0x3b6dcc3c	0.0036285063
197	0xbd8ab587	-0.06772905
198	0xbd75bd96	-0.059995256
199	0x3cf91f60	0.030410469
200	0xbd922fa9	-0.07137997
201	0x3daecbe2	0.08534981
202	0x3d0131c8	0.031541616
203	0x3d9356ed	0.07194314
204	0x3c934848	0.017978802
205	0x3d8e6b6d	0.069540836
206	0x3b12b518	0.0022385772
207	0xbd6b7425	-0.05748381
208	0xbcacaad0	-0.021077543
209	0xbcdd4658	-0.027011082
210	0x3da0d8a5	0.07853822
211	0x3d9a14a1	0.07523466
212	0xbdaf6c08	-0.08565527
213	0xbd2d39a0	-0.042291284
214	0x3d5bda79	0.05367515
215	0xbd7a5a4d	-0.061121274
216	0x3d86241e	0.065498576
217	0xbd9c03b6	-0.07617895
218	0xbc9b3005	-0.018943796
219	0xbd89ed25	-0.06734685
220	0xbc539302	-0.012913467
221	0x3cf447f8	0.029819474
222	0x3cd6e647	0.026232852
223	0xbd942a19	-0.07234592
224	0x3dabb96a	0.08384974
225	0xbd83d19e	-0.06436466
226	0xbc485eda	-0.012229646
227	0xbc658a9b	-0.014010097
228	0xbda46182	-0.08026411
229	0x3d8b6ec1	0.06808234
230	0x3d092574	0.033482984
231	0xbd386f38	-0.04502794
232	0xbda0cd79	-0.07851691
233	0x3c904a0b	0.017613431
234	0x3d59bb86	0.053157352
235	0xbc8433d5	-0.016137997
236	0xbcd15695	-0.02555398
237	0xbd4dc3eb	-0.05023567
238	0x3d35a72d	0.044348884
239	0x3cc8c27d	0.024506802
240	0xbce7682b	-0.028247913
241	0x3d9c9d30	0.07647169
242	0xbd3ae229	-0.04562584
243	0xbceefe26	-0.029173922
244	0x3d774055	0.060364086
245	0x39902abb	0.00027497657
246	0x3cc87301	0.0244689
247	0x3d31dca3	0.043423306
248	0x3d351db8	0.044217795
249	0x3d8d04b2	0.06885661
250	0xbcd97ccb	-0.026548764
251	0x3b900240	0.0043947995
252	0xbda3aea4	-0.079922944
253	0xbcb13278	-0.02163051
254	0x3d34ba10	0.044122756
255	0x3d3a5799	0.045493696

bias f4 [96]
0	0xbd3b7830	-0.045768917
1	0xbb5e9a44	-0.0033966461
2	0x3d8cca29	0.068744965
3	0x3d803896	0.06260793
4	0x3d426c8d	0.047466803
5	0xbda72bc1	-0.08162642
6	0xbc689abe	-0.01419705
7	0x3d821d74	0.06353274
8	0x3d9b2134	0.07574692
9	0x3bb4f8ee	0.005522839
10	0x3c2d6282	0.010582568
11	0xbc86ae16	-0.016440433
12	0xbdb375cf	-0.087627046
13	0xbd1b3665	-0.03789367
14	0x3c99fdee	0.01879784
15	0xbc574b37	-0.013140491
16	0x3c8b231d	0.016984517
17	0xbdaf2d53	-0.08553567
18	0x3a2de114	0.00066329655
19	0xbdb226bc	-0.08698794
20	0xbd2d6901	-0.042336468
21	0xbd6a9b70	-0.057277143
22	0x3cfe002b	0.03100594
23	0x3cdc6b8a	0.026906747
24	0xbd1765c0	-0.03696227
25	0x3d5180b1	0.05114812
26	0xbcf5e0e0	-0.030014455
27	0xbc415e1d	-0.0118022235
28	0x3da6eb23	0.081503175
29	0x3b962d38	0.004583027
30	0xbd28a0d9	-0.04116902
31	0x3d5f1dc1	0.054471735
32	0xbce6a940	-0.028156877
33	0x3db08f9b	0.086211406
34	0xbc3d1a57	-0.011541924
35	0x3cc87d0f	0.024473695
36	0xbcc7010e	-0.024292495
37	0xbc9212f2	-0.0178313
38	0x3d420210	0.04736525
39	0xbceb0c66	-0.028692435
40	0xbda90be1	-0.08254219
41	0x3b9d6ee0	0.004804477
42	0x3d74c140	0.05975461
43	0x3bf8d09f	0.007593229
44	0xbda40aeb	-0.08009895
45	0xbd0645eb	-0.032781523
46	0xbd2b1b52	-0.0417741
47	0x3d6cd936	0.057824336
48	0x3d5f836f	0.054568704
49	0x3da04279	0.07825179
50	0x3d3df42d	0.046375442
51	0xbce1a37c	-0.027543776
52	0x3dac3b95	0.08409802
53	0x3da62870	0.081131816
54	0xbc8f069b	-0.017459204
55	0xb9e5998b	-0.00043792682
56	0x3d416e1d	0.047224153
57	0xbc903e11	-0.01760772
58	0x3c34736b	0.011013846
59	0xbcc83878	-0.024440989
60	0xbc5a3b5b	-0.0133198155
61	0x3cf30577	0.029665692
62	0xbda7e2f2	-0.08197583
63	0xbaab38d7	-0.0013063204
64	0xbc63a8ef	-0.013895257
65	0x3d9bc4b5	0.07605878
66	0x3d1b098a	0.037850894
67	0x3d33246a	0.0437359
68	0xbdaec77b	-0.08534142
69	0xbce2445a	-0.027620483
70	0x3d99bb6a	0.075064495
71	0xbd870a4d	-0.065937616
72	0x3c8a7fa9	0.016906576
73	0xbdad02f0	-0.08447826
74	0xbd9c3e66	-0.07629089
75	0xbd8f63f6	-0.07001488
76	0x3d4640ff	0.04840183
77	0xbd66381d	-0.056205858
78	0xbd772d18	-0.06034574
79	0x3d5e6b71	0.054301683
80	0x3c2ff067	0.010738469
81	0x3d720118	0.059083074
82	0x3da2c770	0.07948196
83	0xbcb173f7	-0.021661742
84	0x3c6e9e9a	0.014564181
85	0xbd5ffbfc	-0.05468367
86	0x3db08f30	0.08621061
87	0xbbfd00f2	-0.00772106
88	0xbd7b5ff4	-0.061370805
89	0xbd9758a5	-0.073899545
90	0xbcdc83c8	-0.026918307
91	0xbd43e76d	-0.047828127
92	0x3d889118	0.066682994
93	0xbd7e6eeb	-0.0621175
94	0xbd1e04bd	-0.038578738
95	0x3cad7bc3	0.021177178

weight f4 [96]
0	0x3f800000	1.0
1	0x3f800000	1.0
2	0x3f800000	1.0
3	0x3f800000	1.0
4	0x3f800000	1.0
5	0x3f800000	1.0
6	0x3f800000	1.0
7	0x3f800000	1.0
8	0x3f800000	1.0
9	0x3f800000	1.0
10	0x3f800000	1.0
11	0x3f800000	1.0
12	0x3f800000	1.0
13	0x3f800000	1.0
14	0x3f800000	1.0
15	0x3f800000	1.0
16	0x3f800000	1.0
17	0x3f800000	1.0
18	0x3f800000	1.0
19	0x3f800000	1.0
20	0x3f800000	1.0
21	0x3f800000	1.0
22	0x3f800000	1.0
23	0x3f800000	1.0
24	0x3f800000	1.0
25	0x3f800000	1.0
26	0x3f800000	1.0
27	0x3f800000	1.0
28	0x3f800000	1.0
29	0x3f800000	1.0
30	0x3f800000	1.0
31	0x3f800000	1.0
32	0x3f800000	1.0
33	0x3f800000	1.0
34	0x3f800000	1.0
35	0x3f800000	1.0
36	0x3f800000	1.0
37	0x3f800000	1.0
38	0x3f800000	1.0
39	0x3f800000	1.0
40	0x3f800000	1.0
41	0x3f800000	1.0
42	0x3f800000	1.0
43	0x3f800000	1.0
44	0x3f800000	1.0
45	0x3f800000	1.0
46	0x3f800000	1.0
47	0x3f800000	1.0
48	0x3f800000	1.0
49	0x3f800000	1.0
50	0x3f800000	1.0
51	0x3f800000	1.0
52	0x3f800000	1.0
53	0x3f800000	1.0
54	0x3f800000	1.0
55	0x3f800000	1.0
56	0x3f800000	1.0
57	0x3f800000	1.0
58	0x3f800000	1.0
59	0x3f800000	1.0
60	0x3f800000	1.0
61	0x3f800000	1.0
62	0x3f800000	1.0
63	0x3f800000	1.0
64	0x3f800000	1.0
65	0x3f800000	1.0
66	0x3f800000	1.0
67	0x3f800000	1.0
68	0x3f800000	1.0
69	0x3f800000	1.0
70	0x3f800000	1.0
71	0x3f800000	1.0
72	0x3f800000	1.0
73	0x3f800000	1.0
74	0x3f800000	1.0
75	0x3f800000	1.0
76	0x3f800000	1.0
77	0x3f800000	1.0
78	0x3f800000	1.0
79	0x3f800000	1.0
80	0x3f800000	1.0
81	0x3f800000	1.0
82	0x3f800000	1.0
83	0x3f800000	1.0
84	0x3f800000	1.0
85	0x3f800000	1.0
86	0x3f800000	1.0
87	0x3f800000	1.0
88	0x3f800000	1.0
89	0x3f800000	1.0
90	0x3f800000	1.0
91	0x3f800000	1.0
92	0x3f800000	1.0
93	0x3f800000	1.0
94	0x3f800000	1.0
95	0x3f800000	1.0

bias f4 [96]
0	0x00000000	0.0
1	0x00000000	0.0
2	0x00000000	0.0
3	0x00000000	0.0
4	0x00000000	0.0
5	0x00000000	0.0
6	0x00000000	0.0
7	0x00000000	0.0
8	0x00000000	0.0
9	0x00000000	0.0
10	0x00000000	0.0
11	0x00000000	0.0
12	0x00000000	0.0
13	0x00000000	0.0
14	0x00000000	0.0
15	0x00000000	0.0
16	0x00000000	0.0
17	0x00000000	0.0
18	0x00000000	0.0
19	0x00000000	0.0
20	0x00000000	0.0
21	0x00000000	0.0
22	0x00000000	0.0
23	0x00000000	0.0
24	0x00000000	0.0
25	0x00000000	0.0
26	0x00000000	0.0
27	0x00000000	0.0
28	0x00000000	0.0
29	0x00000000	0.0
30	0x00000000	0.0
31	0x00000000	0.0
32	0x00000000	0.0
33	0x00000000	0.0
34	0x00000000	0.0
35	0x00000000	0.0
36	0x00000000	0.0
37	0x00000000	0.0
38	0x00000000	0.0
39	0x00000000	0.0
40	0x00000000	0.0
41	0x00000000	0.0
42	0x00000000	0.0
43	0x00000000	0.0
44	0x00000000	0.0
45	0x00000000	0.0
46	0x00000000	0.0
47	0x00000000	0.0
48	0x00000000	0.0
49	0x00000000	0.0
50	0x00000000	0.0
51	0x00000000	0.0
52	0x00000000	0.0
53	0x00000000	0.0
54	0x00000000	0.0
55	0x00000000	0.0
56	0x00000000	0.0
57	0x00000000	0.0
58	0x00000000	0.0
59	0x00000000	0.0
60	0x00000000	0.0
61	0x00000000	0.0
62	0x00000000	0.0
63	0x00000000	0.0
64	0x00000000	0.0
65	0x00000000	0.0
66	0x00000000	0.0
67	0x00000000	0.0
68	0x00000000	0.0
69	0x00000000	0.0
70	0x00000000	0.0
71	0x00000000	0.0
72	0x00000000	0.0
73	0x00000000	0.0
74	0x00000000	0.0
75	0x00000000	0.0
76	0x00000000	0.0
77	0x00000000	0.0
78	0x00000000	0.0
79	0x00000000	0.0
80	0x00000000	0.0
81	0x00000000	0.0
82	0x00000000	0.0
83	0x00000000	0.0
84	0x00000000	0.0
85	0x00000000	0.0
86	0x00000000	0.0
87	0x00000000	0.0
88	0x00000000	0.0
89	0x00000000	0.0
90	0x00000000	0.0
91	0x00000000	0.0
92	0x00000000	0.0
93	0x00000000	0.0
94	0x00000000	0.0
95	0x00000000	0.0

weight f4 [12, 96]
0	0xbc4f00b9	-0.01263445
1	0x3da141da	0.07873888
2	0xbd546c79	-0.05186126
3	0xbd8ed17e	-0.06973551
4	0xbd95d93b	-0.07316824
5	0x3c7e6d77	0.015529028
6	0xbd5e3bda	-0.054256298
7	0xbd1d296b	-0.038369577
8	0x3d41e9a1	0.047341947
9	0xbcde245a	-0.027116943
10	0xbca23abe	-0.019803401
11	0x3c2a4c1f	0.010394125
12	0x3d466db6	0.048444472
13	0x3c225fd8	0.009910546
14	0xbd5c1599	-0.053731535
15	0xbbc8119c	-0.006105615
16	0xbdad2b64	-0.08455542
17	0x3ccffd26	0.025389265
18	0x3d5c082d	0.053718735
19	0x3d7cc63d	0.061712492
20	0x3d952ef4	0.07284346
21	0x3d539117	0.05165204
22	0x3d560f25	0.052260537
23	0x3da83eab	0.08215078
24	0xbd264a90	-0.040598452
25	0x3d2330d1	0.039841477
26	0x3d8e18b9	0.06938309
27	0xbb28230c	-0.0025655655
28	0xbd212ca9	-0.039349232
29	0xbd719b75	-0.058986146
30	0xbc983aab	-0.018582663
31	0xbcbc003d	-0.022949332
32	0x3d9579e6	0.07298641
33	0xbd3d24da	-0.046177723
34	0x3da64f0e	0.08120547
35	0x3d03a981	0.032144073
36	0xbd35d005	-0.044387836
37	0x3dadbccf	0.08483278
38	0xbd34e656	-0.044164978
39	0xbd10ab34	-0.035319522
40	0xbd05eb0c	-0.03269486
41	0xbc66af36	-0.0140798595
42	0x3d45c889	0.04828695
43	0x3c94b8c7	0.018154515
44	0x3d026892	0.031838007
45	0x3d836b9a	0.06417008
46	0x3d601f6f	0.054717477
47	0x3d9f3c23	0.07775142
48	0xbcc8206f	-0.024429528
49	0xbc061a78	-0.008185022
50	0xbcb93440	-0.022607923
51	0x3ce88f91	0.02838877
52	0xbca2db29	-0.019879894
53	0x3d9f1a57	0.07768696
54	0xbd643c83	-0.05572177
55	0xb9f45e56	-0.00046609592
56	0xbcc7f2af	-0.024407713
57	0x3c2d0de2	0.010562392
58	0xbda2b844	-0.07945302
59	0xbd81d8c5	-0.06340174
60	0xbcfc5d73	-0.030806279
61	0x3d2cf9dd	0.042230476
62	0x3d04b4ba	0.032398917
63	0x3d7d669b	0.06186543
64	0xbafa4b63	-0.0019095953
65	0x3d4c3a48	0.04986027
66	0x3dacb24e	0.084324464
67	0x3dcaa5dc	0.098949164
68	0xbd82d649	-0.06388528
69	0xbca24b82	-0.019811396
70	0x3dad897c	0.08473489
71	0xbc9158d2	-0.017742548
72	0xbd0a924a	-0.03383092
73	0xbd61994e	-0.055077843
74	0x3d5867b4	0.052833274
75	0x3c4d7260	0.012539476
76	0xbd28b963	-0.041192424
77	0x3d59bea8	0.05316034
78	0x3b82cc6d	0.0039916546
79	0xbda84cc4	-0.08217767
80	0x3ce8a8a6	0.02840073
81	0x3d267892	0.04064233
82	0xba073f8a	-0.00051593094
83	0x3da6af77	0.08138936
84	0x3d296f42	0.04136587
85	0x3d2793aa	0.040912308
86	0x3d8a6372	0.06757249
87	0xbdca073e	-0.098646626
88	0x3cada966	0.02119894
89	0x3a0b4c7d	0.0005313827
90	0xbd05aec7	-0.032637384
91	0xbd310ede	-0.04322707
92	0xbc076f1a	-0.008266235
93	0xbd5c707b	-0.053818207
94	0x3d8ef93e	0.06981133
95	0xbcac6e35	-0.021048645
96	0xbdc6ef8e	-0.0971366
97	0x3cdb8255	0.026795546
98	0x3d71b8b9	0.059014056
99	0x3d562a89	0.05228666
100	0xbd78f22d	-0.06077783
101	0x3db0744c	0.08615932
102	0x3d304399	0.043033216
103	0x3dcd08c4	0.100114375
104	0xbd740989	-0.059579406
105	0xbdabb468	-0.08384019
106	0xbdc98a1f	-0.09840798
107	0xbdc2c95d	-0.09511063
108	0x3c55638d	0.013024223
109	0x3d6826e6	0.05667772
110	0xbb3a619d	-0.002843953
111	0xbdc245ad	-0.09485946
112	0xbcc70b21	-0.024297299
113	0xbcb89d6d	-0.022536004
114	0x3cb15853	0.021648562
115	0x3c05a1a0	0.00815621
116	0xbdcc4888	-0.09974772
117	0xbda3fa03	-0.0800667
118	0x3d81e7c1	0.06343032
119	0xbd676989	-0.05649713
120	0xbdc3cfba	-0.09561105
121	0xbd61a5b8	-0.055089682
122	0xbdb545b8	-0.088511884
123	0x3d5337a9	0.051566754
124	0xbbb57215	-0.0055372813
125	0x3d67a583	0.05655433
126	0xbd3e5085	-0.04646351
127	0xbc8e356a	-0.017359454
128	0xbd520b09	-0.051280055
129	0x3d11b506	0.035573028
130	0x3da211d3	0.07913556
131	0x3d4efc0e	0.050533347
132	0x3d231ce6	0.03982248
133	0x3d1bdbb7	0.038051333
134	0x3caacedd	0.020850593
135	0xbc1b6383	-0.009484175
136	0xbdcea225	-0.1008952
137	0x3da87030	0.08224523
138	0x3da40800	0.080093384
139	0xbcf97d0b	-0.030455133
140	0x3d37c165	0.04486217
141	0x3db02a0c	0.0860177
142	0x3d0b5442	0.0340159
143	0x3d7e4b02	0.06208325
144	0x3d4746ea	0.048651613
145	0x3d790f23	0.06080545
146	0x3c867793	0.01641444
147	0x3d33a32e	0.043856792
148	0xbb339a5a	-0.0027405233
149	0x3da5ae27	0.080898575
150	0x3cbdc21b	0.023163846
151	0xbd1bef7a	-0.03807018
152	0x3daeb73d	0.08531044
153	0xbd524127	-0.051331665
154	0xbd881574	-0.06644717
155	0x3d8c6e11	0.06856931
156	0x3dbb31f7	0.091403894
157	0x3d9b69f1	0.07588566
158	0xbd963c54	-0.073357254
159	0x3dad8196	0.08471982
160	0x3db34e56	0.08755176
161	0xbcb53e57	-0.022124453
162	0xbd44244c	-0.047886178
163	0x3bcac133	0.006187582
164	0xbdc8ca86	-0.09804253
165	0x3c8e902c	0.01740273
166	0xbc111042	-0.008853974
167	0x3d603f92	0.054748125
168	0xbdcc029e	-0.09961437
169	0xbda8e293	-0.082463406
170	0x3d60c7fa	0.054878213
171	0xbd236e9a	-0.0399004
172	0x3d9c4418	0.07630175
173	0x3d3145d3	0.04327948
174	0x3bdd6bf3	0.0067572533
175	0xbd90c6a6	-0.07069139
176	0x3c9bcb42	0.01901782
177	0xbcc7f6b7	-0.024409635
178	0xbdb5f1b0	-0.08883989
179	0xbca0fc28	-0.019651487
180	0x3dce6e14	0.100795895
181	0x3d71bfa9	0.059020672
182	0xbd7f622f	-0.062349495
183	0x3d96e312	0.07367529
184	0x3d9869f0	0.07442081
185	0xbdc37c8d	-0.095452406
186	0x3cc98f17	0.024604363
187	0x3dc4ab06	0.09602933
188	0x39941fbc	0.00028252404
189	0x3d8f23dc	0.069892615
190	0x3ca87076	0.020561438
191	0xbda93022	-0.08261134
192	0x3d35f0a1	0.044418935
193	0x3dcfc40e	0.10144816
194	0x3c407636	0.011746934
195	0xbc48c1de	-0.012253253
196	0x3d446405	0.04794695
197	0x3db47fa9	0.08813412
198	0x3da598ee	0.0808581
199	0x3d98574a	0.07438524
200	0xbd34a0cb	-0.044098657
201	0xbc28e5ae	-0.010308666
202	0x3dc06c18	0.09395617
203	0xbd1e9a1e	-0.038721196
204	0x3da91ece	0.08257829
205	0x3dac06a3	0.08399703
206	0xbda5342c	-0.080665916
207	0xbd2badf9	-0.04191396
208	0xbcbfdd7a	-0.023421038
209	0x3d82b10a	0.06381424
210	0xbda5b66a	-0.08091433
211	0x3c830bad	0.015996778
212	0x3c1b3de7	0.009475208
213	0x3d76de5b	0.06027065
214	0xbd8a4f1d	-0.06753371
215	0x3ce74918	0.028233096
216	0xbb3b0fef	-0.0028543433
217	0x3b80e2d5	0.0039332905
218	0xbbeec2f0	-0.007286422
219	0x3d4285e3	0.047490966
220	0xbdc40509	-0.09571273
221	0xbd8a4898	-0.067521274
222	0x3dd07d41	0.1018014
223	0xbdaa1767	-0.08305245
224	0xbd3749f8	-0.044748276
225	0xbd20baed	-0.039240766
226	0xbd8f8802	-0.07008363
227	0xbd7b4fe0	-0.06135547
228	0xbd20038c	-0.039065883
229	0x3d4aa11a	0.049470045
230	0x3cf0e723	0.02940709
231	0xbd87dbb2	-0.066337004
232	0x3c95ae6a	0.018271644
233	0xbd05ad67	-0.032636072
234	0x3d445ccd	0.047940064
235	0xbd72fee6	-0.05932512
236	0x3b6b9eb0	0.003595274
237	0xbdb7ee98	-0.08981055
238	0x3dcc2ccd	0.099694826
239	0x3d305544	0.043050066
240	0x3d9dc749	0.07704026
241	0x3d9d6134	0.07684556
242	0x3d3f3907	0.046685245
243	0xbd80ed53	-0.06295266
244	0xbd80d724	-0.06291035
245	0x3d360b99	0.044444654
246	0xbdaab087	-0.08334451
247	0x3db9383e	0.090439305
248	0xbbef65d4	-0.00730584
249	0x3c208f90	0.009799853
250	0x3d96f161	0.07370258
251	0xbab3e40b	-0.0013724578
252	0xbcaabb03	-0.020841127
253	0x3d25ed1a	0.04050932
254	0xbd27a460	-0.040928245
255	0xbdceb761	-0.100935705

bias f4 [12]
0	0xbdc32aaf	-0.095296256
1	0xbd00b93b	-0.03142665
2	0x3d6acc3c	0.05732368
3	0xbd815588	-0.06315142
4	0xbcc319bc	-0.023815982
5	0x3d1d33d1	0.038379494
6	0xbb5ce96a	-0.0033708462
7	0xbd11c374	-0.03558679
8	0xbd5ee44b	-0.054416936
9	0x3db99538	0.09061664
10	0xbda2835b	-0.0793521
11	0xbd1c97c4	-0.038230672
