model/actor.pt (torch, 82944 bytes, 10 tensors)

weight f4 [128, 32]
0	0x3e218140	0.15771961
1	0xbc582771	-0.013192997
2	0xbecde715	-0.40215364
3	0xbedb206e	-0.4279818
4	0xbe61ab66	-0.2203804
5	0x3ce21245	0.027596602
6	0xbe15076c	-0.14553612
7	0xbe006f6a	-0.12542501
8	0x3c5a6a3e	0.013330994
9	0xbe1b6198	-0.15173948
10	0xbb91adce	-0.004445768
11	0xbc23f25a	-0.010006512
12	0xbde9dd96	-0.11419217
13	0x3cdf0cb5	0.027227739
14	0xbdb478e4	-0.088121206
15	0xbcb496e1	-0.0220446
16	0x3d8498af	0.064744346
17	0xbd2156e4	-0.039389506
18	0x3dddeb3e	0.108358845
19	0x3cb19910	0.021679431
20	0x3d8989d7	0.06715744
21	0x3dad04e3	0.08448198
22	0xbd777020	-0.060409665
23	0xbd1832de	-0.037157886
24	0x3d612a50	0.054971993
25	0xbb179274	-0.0023128064
26	0xbc8be281	-0.017075779
27	0xbc829664	-0.015940852
28	0xbceb52ca	-0.028726
29	0xbe041267	-0.12897645
30	0x3dd8da59	0.105885215
31	0x3c923423	0.017847126
32	0xbe1d482b	-0.15359561
33	0xbe9164fa	-0.28397352
34	0x3e3bf252	0.18354157
35	0xbf15860c	-0.58407664
36	0xbebd1393	-0.36928996
37	0xbde23028	-0.11044341
38	0x3cf6c7dc	0.030124597
39	0xbdbdf979	-0.09276099
40	0xbdbae218	-0.09125155
41	0x3e02751a	0.12739983
42	0xbd3372fd	-0.043810833
43	0x3c563586	0.013074284
44	0xbdc5eaa7	-0.09663897
45	0xbdd0067d	-0.101574875
46	0x3e01b54a	0.12666813
47	0x3cb9ebaf	0.02269539
48	0x3d1a1492	0.037617274
49	0x3dc0d4a0	0.09415555
50	0x3e2284b1	0.1587093
51	0xbd152c09	-0.03641895
52	0xbcc4e49c	-0.02403479
53	0x3c4f12d8	0.01263877
54	0xbe2581f2	-0.16162851
55	0xbc892e89	-0.016745823
56	0xbe05f98d	-0.13083477
57	0xbd89fcaf	-0.06737649
58	0xbe35f1f8	-0.17768085
59	0xbd7623ed	-0.060092855
60	0x3dadef5b	0.08492919
61	0x3df1551b	0.11783811
62	0xbd004bc0	-0.03132224
63	0xbe1bdbb2	-0.15220526
64	0x3e15cf5a	0.1462988
65	0xbc705c78	-0.014670484
66	0xbf6dce79	-0.9289318
67	0xbfb49f8f	-1.4111193
68	0xbde39f12	-0.11114325
69	0xbc85d498	-0.016336724
70	0x3d0ec065	0.03485145
71	0x3e08df84	0.13366514
72	0x3c3837ba	0.011243755
73	0x3dccd632	0.10001792
74	0xbde52f37	-0.11190646
75	0x3db3e0e9	0.087831326
76	0xbcc319f2	-0.023816083
77	0x3e08175d	0.13290162
78	0x3daa0777	0.08302205
79	0xbdf3caf8	-0.119039476
80	0xbd271df4	-0.04080005
81	0x3e02f4d3	0.12788706
82	0xbd2df48e	-0.042469554
83	0x3d18ec6e	0.037334852
84	0xbcb593d2	-0.022165213
85	0xbd258d20	-0.04041779
86	0xbdfcfc9f	-0.12352871
87	0x3d7547a0	0.05988276
88	0xbe23b1df	-0.15985821
89	0xbe0220d8	-0.12707841
90	0x3deef248	0.11667305
91	0x3db90fe0	0.09036231
92	0xbe0399e3	-0.12851672
93	0x3db01c4b	0.085991465
94	0xbe34879a	-0.17629853
95	0xbb86c4ca	-0.0041128146
96	0x3dea027c	0.11426255
97	0x3f17b1d8	0.59255743
98	0x3ecc84af	0.3994498
99	0x3f6b42c9	0.9189878
100	0xbe3e1710	-0.18563485
101	0x3ceab49c	0.028650574
102	0x3de591d0	0.11209452
103	0xbb8375e1	-0.004011855
104	0x3d56738a	0.05235628
105	0x3d79788f	0.06090599
106	0xbea073ca	-0.3133834
107	0x3d217cb6	0.039425574
108	0x3d80acf0	0.06282985
109	0x3cbcc975	0.023045281
110	0x3ba5f999	0.0050651547
111	0x3cfc00c8	0.030762091
112	0xbbced503	-0.006312014
113	0x3d86e207	0.0658608
114	0x3c028aa8	0.007967629
115	0x3bf2aa40	0.0074055493
116	0x3c5db6e9	0.013532379
117	0xbaa5da39	-0.0012653536
118	0x3dd1d12f	0.10244977
119	0xbd237cd9	-0.039913986
120	0x3e47d39a	0.19514313
121	0x3e2a4faf	0.1663196
122	0x3e25e991	0.1620238
123	0x3dca68c0	0.09883261
124	0x3e0f0b4c	0.13969153
125	0x3e311b55	0.17295583
126	0xbd06ce6a	-0.032911696
127	0x3e5c99bb	0.21543019
128	0xbbd00765	-0.0063485377
129	0x3e5cd726	0.21566448
130	0x3e00c2df	0.12574337
131	0x3f15b183	0.58473986
132	0xbd80d971	-0.06291474
133	0xbd5901b7	-0.05298015
134	0x3c4acefd	0.012378451
135	0x3cc95d1b	0.024580529
136	0x3c7e3c0b	0.015517245
137	0x3d5e1de2	0.054227717
138	0x3c83cac7	0.016087903
139	0x3cd19e19	0.025588082
140	0xbd17c909	-0.037056956
141	0xbcd3f182	-0.025871996
142	0xbdcfa955	-0.101397194
143	0xbde2d37a	-0.11075492
144	0xbdd39d2d	-0.10332713
145	0xbd92a042	-0.07159473
146	0x3e034894	0.12820655
147	0x3c36c14d	0.011154485
148	0x3c927349	0.017877238
149	0xbaef4f25	-0.001825784
150	0xbe89280e	-0.26788372
151	0x3ec42c4f	0.38315055
152	0xbe0b6261	-0.13611747
153	0x3e0d381f	0.1379094
154	0xbcdfd74a	-0.027324338
155	0xbdd6e8b0	-0.104936
156	0xbd2bee39	-0.041975234
157	0xbda535ac	-0.08066878
158	0x3e303843	0.17208962
159	0xbd02c08c	-0.03192191
160	0x3d251177	0.04029986
161	0xbf145270	-0.5793829
162	0x3e083693	0.13302068
163	0x3d8ddecf	0.06927263
164	0xbeb132ff	-0.3460922
165	0x39ada584	0.0003312045
166	0xbd82e411	-0.063911565
167	0xbcb340a6	-0.021881413
168	0xbda27813	-0.079330586
169	0x3da1b312	0.07895483
170	0xba2018f1	-0.0006107232
171	0x3e093e0f	0.1340258
172	0x3c1c0f85	0.0095251845
173	0x3cbafb22	0.022824828
174	0xbd19194a	-0.037377633
175	0x3e1dff2d	0.15429373
176	0x3c1efd13	0.009703892
177	0x3e5ebe9d	0.217524
178	0xbd33cbdd	-0.04389559
179	0xbc40c80a	-0.011766443
180	0xbdbe9c9d	-0.09307215
181	0x3d75bd93	0.059995245
182	0x3eeb9ea5	0.46019474
183	0x3e27db96	0.16392359
184	0xbdd4558b	-0.103678785
185	0xbd34d672	-0.044149823
186	0xbe255074	-0.16143972
187	0x3d57ecc9	0.05271605
188	0xbe199074	-0.1499651
189	0xbd9532dd	-0.07285092
190	0x3d797e32	0.060911365
191	0xbcaaaba2	-0.020833794
192	0xbd175a9f	-0.036951657
193	0xbe196df1	-0.14983346
194	0x3e9e0c45	0.30868736
195	0x3ecc6d9f	0.39927384
196	0x3e1e1871	0.15439011
197	0x3dd4df89	0.103941984
198	0xbd01f49e	-0.031727426
199	0xbdcc11cc	-0.09964332
200	0xbe01eaeb	-0.1268727
201	0xbe2bc906	-0.16775903
202	0xbd28a9a9	-0.041177426
203	0xbc3b8477	-0.011445156
204	0x3d0195d0	0.031637013
205	0x3d93b140	0.07211542
206	0xbd65e8cb	-0.05613021
207	0x3d20d62e	0.039266758
208	0xbe063664	-0.13106686
209	0xbddaaaf3	-0.10677137
210	0x3d73b633	0.05949993
211	0x3d7ad6ae	0.06123989
212	0x3d59501d	0.053054918
213	0x3d81c612	0.06336607
214	0x3e68179e	0.22665259
215	0x3dd5c8d0	0.104386926
216	0xbd46beae	-0.04852169
217	0x3c9b0247	0.018921984
218	0x3b3209ff	0.0027166603
219	0x3da6c9e5	0.08143977
220	0x3d8e3ee8	0.06945592
221	0xbdfbea85	-0.123005904
222	0x3dc0ce95	0.094144024
223	0x3dc2c92e	0.09511028
224	0xbd8eacc8	-0.06966549
225	0x3e81546e	0.25259727
226	0xbe10c718	-0.14138448
227	0x3f86bd71	1.0526563
228	0x3e94e04e	0.2907738
229	0xbe064c79	-0.1311511
230	0xbdd4613a	-0.10370107
231	0xbd65cd63	-0.056104075
232	0x3dd41de3	0.10357263
233	0xbd524ce9	-0.05134288
234	0x3d174756	0.036933266
235	0xbd64c903	-0.055855762
236	0x3d05fc9d	0.032711614
237	0x3cbb515f	0.02286595
238	0x3dc01130	0.09378278
239	0xbd6e8291	-0.058229987
240	0x3ddbd7d9	0.10734529
241	0x3d5c91c3	0.053849947
242	0xbcaa9ca5	-0.020826647
243	0xbdd43759	-0.10362119
244	0x3df9ffbc	0.122069806
245	0x3ddff6bd	0.109357335
246	0x3e3630e4	0.17792088
247	0xbd6c0c7e	-0.0576291
248	0x3ccbf8fe	0.024899002
249	0x3c552d77	0.013011328
250	0xbd80613a	-0.062685445
251	0x3e34f818	0.17672765
252	0x3e348152	0.17627457
253	0x3c2b50e6	0.010456299
254	0xbe1e188e	-0.15439054
255	0x3dc57ba7	0.096427254

bias f4 [128]
0	0xbe536e85	-0.20647629
1	0x3d675b22	0.056483395
2	0xbdfe9ce7	-0.124322705
3	0x3df44912	0.119279996
4	0xbe28659b	-0.1644501
5	0x3d93f764	0.072249204
6	0xbdf885fc	-0.121349305
7	0xbd3f0f0a	-0.0466452
8	0x3d714f62	0.058913596
9	0xbe09c421	-0.13453723
10	0x3b8e223a	0.004337576
11	0x3d4d89af	0.050180133
12	0x3e0ed9af	0.13950227
13	0x3e0aba78	0.13547695
14	0xbe120aa3	-0.1426187
15	0x3e236e13	0.15959959
16	0x3d2bfa48	0.041986734
17	0xbe10cbb9	-0.14140214
18	0x3cb3895a	0.02191608
19	0xbda920c0	-0.082582
20	0xbccd13b7	-0.025033815
21	0x3cc326d0	0.023822218
22	0x3dc18341	0.09448863
23	0x3db43af4	0.08800307
24	0x3e3fe789	0.18740667
25	0xbd490044	-0.04907252
26	0xbdfd1cef	-0.12359034
27	0xbdc4c871	-0.09608544
28	0x3d06939f	0.032855626
29	0xbdcb44ac	-0.099252075
30	0x3cd04f69	0.02542849
31	0xbdc027b5	-0.093825735
32	0x3dc5b23b	0.096531354
33	0x3db3e7cb	0.087844454
34	0xbc74a496	-0.0149318185
35	0x3dec08c1	0.11525107
36	0x3d9ed962	0.07756306
37	0x3d03e22d	0.03219812
38	0xbc82a84b	-0.015949389
39	0xbdff1018	-0.124542415
40	0x3c8e353d	0.01735937
41	0x3da77df6	0.08178322
42	0xbcb3f8e2	-0.021969263
43	0x3d85ea2a	0.06538804
44	0x3e34c9df	0.17655133
45	0xbd04d30f	-0.032427844
46	0xbdaa5832	-0.08317603
47	0x3e40a49f	0.18812798
48	0x3e20cd8d	0.15703411
49	0x3ddab6a0	0.10679364
50	0x3e2da657	0.16957985
51	0x3cecbb4e	0.028897908
52	0xbdb92e20	-0.09042001
53	0x3d239a7d	0.039942253
54	0xbc3358f0	-0.010946497
55	0xbdc040fb	-0.09387394
56	0x3daa1a97	0.08305853
57	0x3e03bb41	0.128644
58	0xbd897889	-0.067124434
59	0x3e02bd04	0.12767416
60	0x3e15e08c	0.14636439
61	0xbca19e84	-0.019728906
62	0xbe125487	-0.14290057
63	0x3d1cc344	0.038272157
64	0xbd72768d	-0.05919509
65	0xbdf9409f	-0.121705286
66	0x3d766403	0.060153972
67	0x3da5d7c8	0.08097798
68	0x3c7cc04d	0.015426707
69	0x3cd4acde	0.025961336
70	0xbd7e96b0	-0.062155426
71	0x3e145e8f	0.14489196
72	0x3e24f6c5	0.1610976
73	0xbe1e01e4	-0.15430409
74	0x3d055ba2	0.03255809
75	0x3db00c6b	0.085961185
76	0xbe0f6079	-0.14001645
77	0x3d1ad839	0.037803862
78	0xbde7b61c	-0.113140315
79	0xbdd94075	-0.10607997
80	0x3df17acd	0.117910005
81	0x3df52661	0.11970211
82	0xbcd206c5	-0.025637994
83	0x3e225a5d	0.15854783
84	0xbdbdf655	-0.092755
85	0x3dbc7175	0.09201328
86	0x3e062758	0.13100946
87	0xbdc30ac4	-0.09523538
88	0xbd0227ce	-0.031776242
89	0x3d84c030	0.06481969
90	0x3cb3b2eb	0.0219359
91	0x3c8b3114	0.016991176
92	0xbde44046	-0.11145072
93	0x3e088613	0.13332395
94	0x3deb0b54	0.1147677
95	0xbdfa23a5	-0.1221383
96	0xbd32608e	-0.043549113
97	0xbe1893ad	-0.14900084
98	0x3d9e6d09	0.077356406
99	0xbdb19770	-0.086714625
100	0x3db00c29	0.08596069
101	0x3d3b13a7	0.04567304
102	0xbe1d7e13	-0.15380125
103	0xbe492e83	-0.19646649
104	0xbd6895ef	-0.056783613
105	0x3c66c6c5	0.014085476
106	0x3e0d473f	0.1379671
107	0xbdaf9071	-0.08572472
108	0x3e19f649	0.15035357
109	0x3e2c582e	0.16830513
110	0xbd4d73ed	-0.050159384
111	0x3e06341e	0.13105819
112	0x3cc4776b	0.023982724
113	0xbdf30861	-0.118668325
114	0xbd9a4d76	-0.07534306
115	0x3cb9e8c6	0.022694003
116	0xbdf48836	-0.11940043
117	0x3c481f67	0.012214518
118	0xbd651eae	-0.05593746
119	0xbc0deebe	-0.008662878
120	0xbd81e5b3	-0.0634264
121	0x3dd5e831	0.104446776
122	0x3d207a5e	0.0391792
123	0xbe285bfb	-0.16441338
124	0x3d2db4d8	0.042408794
125	0xbaff614d	-0.0019483954
126	0xb98b5b91	-0.00026580368
127	0x3b8a76cf	0.004225589

weight f4 [128]
0	0x3f58d901	0.8470612
1	0x3f7a53a5	0.9778388
2	0x3f61ac06	0.8815311
3	0x3f7d3008	0.98901415
4	0x3f594bf3	0.84881514
5	0x3f51bd4b	0.81929463
6	0x3f54a379	0.8306194
7	0x3f603eaa	0.8759562
8	0x402d2da9	2.7059119
9	0x3fe40475	1.781386
10	0x3f747ee1	0.955061
11	0x3f67bb9d	0.9052065
12	0x3f6fd8d8	0.9369025
13	0x3f68909d	0.9084566
14	0x3fabd757	1.3425092
15	0x3f583047	0.84448665
16	0x3f72479a	0.94640505
17	0x3fc3b27d	1.5288845
18	0x3f7907a6	0.97277296
19	0x3f603bdc	0.8759134
20	0x3f77e7b2	0.96837914
21	0x3f6c4b43	0.9230234
22	0x3f6403a6	0.8906807
23	0x3f708d12	0.93965256
24	0x3f832915	1.0246912
25	0x3f8de172	1.1084425
26	0x3f6cb7bf	0.92467874
27	0x3f4f5d28	0.8100152
28	0x3f81f396	1.0152462
29	0x3f77631a	0.9663559
30	0x3f6dbf60	0.9287014
31	0x3f6b8c0d	0.92010576
32	0x3f540744	0.82823586
33	0x3f86e154	1.0537515
34	0x3faa637b	1.3311609
35	0x3f5cf336	0.8630861
36	0x3f80ef74	1.0073075
37	0x3f6d7712	0.9275981
38	0x3f79a36a	0.97514975
39	0x3f6b6e30	0.9196501
40	0x3f605063	0.8762266
41	0x3f60cdaa	0.8781382
42	0x3f7801e8	0.9687791
43	0x3ff56fe9	1.9174777
44	0x3faad360	1.3345757
45	0x3fc70d56	1.5550945
46	0x3fc0d090	1.5063648
47	0x3f6ed474	0.9329293
48	0x3f64e1d8	0.8940711
49	0x3f766609	0.96249443
50	0x3f73139b	0.9495179
51	0x3fd1e655	1.6398417
52	0x3f6bff74	0.92186666
53	0x3f7454e3	0.95442027
54	0x3f58ebf2	0.84735024
55	0x3f829699	1.0202209
56	0x3f69b488	0.91291094
57	0x3fdf1033	1.7426819
58	0x3f6dc04e	0.9287156
59	0x3f6eb2e7	0.93241733
60	0x4029b74f	2.6518133
61	0x3f51227f	0.8169326
62	0x3fa6285a	1.2981064
63	0x3fc46a15	1.5344874
64	0x3f77790e	0.9666909
65	0x3f6c66f3	0.9234459
66	0x3f634272	0.8877326
67	0x3f596681	0.84922034
68	0x3f84475b	1.0334276
69	0x3fc32d40	1.5248184
70	0x3f9a4221	1.2051431
71	0x4017e199	2.3731444
72	0x4004c58c	2.0745573
73	0x3f5b6dac	0.8571422
74	0x3f6365b5	0.8882707
75	0x3f6aa022	0.91650593
76	0x3f73b7a4	0.9520209
77	0x3f6bf233	0.9216644
78	0x3f804fb4	1.0024323
79	0x3f8b384b	1.0876554
80	0x3f50d489	0.815743
81	0x3f7d9f43	0.9907114
82	0x3f62f9e1	0.88662535
83	0x3f72c6a6	0.94834363
84	0x3f800430	1.0001278
85	0x3f603c44	0.8759196
86	0x3fead24a	1.8345425
87	0x3f9594e8	1.1686068
88	0x3f718aaa	0.9435221
89	0x3f995250	1.1978245
90	0x3f6f9a38	0.93594694
91	0x3f81db96	1.0145137
92	0x3f608bb1	0.8771315
93	0x3f802d90	1.0013905
94	0x3f4cb846	0.7996868
95	0x3f780287	0.96878856
96	0x3f64d7fb	0.8939206
97	0x4010483d	2.254409
98	0x3f71e95d	0.9449671
99	0x3f775fde	0.96630657
100	0x3f46cc24	0.77655244
101	0x3f67914b	0.90456074
102	0x3ff7dfec	1.936521
103	0x3f6bfda2	0.9218389
104	0x3f3c24cb	0.7349364
105	0x3f958cce	1.1683595
106	0x3f621e1d	0.883272
107	0x3f67f15e	0.9060267
108	0x3fdcfd09	1.726472
109	0x3f5e0d29	0.8673883
110	0x3f6a3f6f	0.9150304
111	0x3fc4beb6	1.53707
112	0x3f698674	0.91220784
113	0x3f64c8bb	0.8936879
114	0x3f4e5dee	0.80612075
115	0x3f6df666	0.929541
116	0x3f694ee6	0.91136014
117	0x3f6a4a55	0.9151967
118	0x3f711b16	0.94181955
119	0x3f7223ab	0.94585675
120	0x3f6f3fc2	0.9345666
121	0x3f6b33e3	0.9187605
122	0x3f85d0ac	1.0454307
123	0x3f82f2b7	1.0230321
124	0x3f847451	1.0347997
125	0x3f818c67	1.0120972
126	0x3f5317f1	0.82458407
127	0x3f760af4	0.96110463

bias f4 [128]
0	0xbdfd2bf6	-0.123619005
1	0xbd090d95	-0.03346022
2	0x3d95f1a9	0.07321484
3	0x3cb8029c	0.022462182
4	0x3d0de0aa	0.034638084
5	0x3e055b58	0.13023126
6	0x3cd6527e	0.026162382
7	0xbcefffed	-0.02929684
8	0x3da030c2	0.078218
9	0xbdabde0c	-0.083919615
10	0x3c063a33	0.008192587
11	0x3dadd038	0.0848698
12	0x3db09c2b	0.08623537
13	0x3a07a756	0.00051747763
14	0x3dffbbd2	0.12486996
15	0x3d0108a5	0.031502385
16	0x3cb5afe9	0.022178607
17	0x3dd47152	0.10373177
18	0x3a6e6f31	0.00090955483
19	0x3dc038da	0.093858436
20	0xbc0f25f3	-0.008737075
21	0xbc2d3e6a	-0.010573963
22	0xbc59a9f7	-0.013285152
23	0x3ceec036	0.029144388
24	0x3e0e3d67	0.1389061
25	0x3e126761	0.14297248
26	0x3e22047d	0.15822025
27	0x3cd9a951	0.026569994
28	0x3e31895c	0.17337555
29	0x3a8f7ee4	0.001094785
30	0x3e1e0dc6	0.15434942
31	0x3cd34803	0.025791174
32	0x3e226a9c	0.15860981
33	0x3cf3f44a	0.029779572
34	0x3e21e7d8	0.15811098
35	0x3dab4cc7	0.083642535
36	0xbc435820	-0.011922866
37	0x3d15d19f	0.036576863
38	0xbc6ea71d	-0.01456621
39	0x3da9336c	0.08261761
40	0x3e1e3074	0.15448171
41	0xbd59f29d	-0.05320989
42	0x3d068058	0.032837242
43	0xbcf02690	-0.029315263
44	0x3d591afa	0.053004242
45	0xbc112fed	-0.008861524
46	0x3de55d13	0.11199393
47	0x3e9e8053	0.3095728
48	0xbdce0e51	-0.100613244
49	0xbb9fc1f4	-0.004875416
50	0x3d70d022	0.05879224
51	0x3e14e562	0.14540628
52	0x3ad09c4b	0.001591572
53	0x3de234ee	0.11045252
54	0x3d56765b	0.052358966
55	0xbc5751bd	-0.0131420465
56	0xbd89bd53	-0.06725564
57	0x3d9becf3	0.07613554
58	0x3dece94f	0.115679376
59	0x3e329c51	0.17442442
60	0x3d63bf08	0.055602103
61	0x3e288aef	0.16459249
62	0x3def16aa	0.11674245
63	0x3e1455bf	0.14485835
64	0x3d0d7678	0.03453681
65	0x3daa9b24	0.08330372
66	0xbd4ff69f	-0.050772306
67	0xbc9b867e	-0.01898503
68	0x3e40f530	0.18843532
69	0x3e2adb48	0.16685212
70	0x3dddfbaf	0.108390205
71	0x3e2a3062	0.16620019
72	0x3daf7217	0.08566683
73	0x3c207b58	0.009795032
74	0xbcae229f	-0.021256743
75	0x3c08130d	0.008305323
76	0x3d179907	0.037011173
77	0x3a37361d	0.00069889595
78	0x3cdd23d6	0.026994627
79	0x3d895982	0.067065254
80	0x3c07c113	0.008285779
81	0x3ddf5bfd	0.10906217
82	0xbd7fc9c2	-0.06244827
83	0x3b6e7c8e	0.0036390158
84	0xbd9ba568	-0.07599908
85	0x3d1ba58b	0.03799967
86	0xbc9411b5	-0.01807485
87	0xbdab8579	-0.08375067
88	0xbcf4cf51	-0.029884012
89	0x3e194987	0.14969455
90	0xbd6cafc3	-0.057784807
91	0x3d9b83e3	0.07593515
92	0xbd566b8f	-0.05234867
93	0xbd2bccda	-0.04194341
94	0xbd061d7a	-0.032742955
95	0x3db4de92	0.088315144
96	0x3dbf889c	0.09352228
97	0x3e3a2143	0.18176751
98	0x3e03b82a	0.12863222
99	0xbd8152d4	-0.06314626
100	0x3c7b507a	0.015339011
101	0x3bd2fe53	0.006439009
102	0x3b988617	0.0046546566
103	0x3cd84ba5	0.026403258
104	0x3dd82431	0.10553778
105	0x3e126e70	0.14299941
106	0x3d347cd9	0.044064377
107	0xbcadbf1c	-0.021209292
108	0x3dbd33b9	0.09238381
109	0x39529230	0.0002008162
110	0x3c95c29e	0.018281277
111	0x3d520c78	0.051281422
112	0x3d6fed44	0.058575884
113	0xbd0a3f38	-0.033751696
114	0x3d8fc355	0.070196785
115	0x3dc39b0e	0.09551059
116	0x3c74fdad	0.014953059
117	0xbcbd827d	-0.02313351
118	0xbd0f085f	-0.034920093
119	0xbdb4d754	-0.08830133
120	0xbc5aebf9	-0.013361924
121	0x3a9919bf	0.0011680647
122	0x3e18f169	0.1493584
123	0x3e2fe094	0.17175514
124	0x3d6096b4	0.05483122
125	0xbceac43c	-0.028658025
126	0x3d68f580	0.056874752
127	0xbd524afb	-0.05134104

weight f4 [96, 128]
0	0x3d149a4a	0.036279954
1	0x3ce54853	0.027988588
2	0xbd04e8c9	-0.032448564
3	0x3e0654c4	0.13118273
4	0x3dd9648e	0.106148824
5	0xbd3a37f1	-0.045463506
6	0x3d261f9f	0.0405575
7	0x3d5ad41a	0.053424932
8	0x3e345e45	0.17614086
9	0xbd539374	-0.051654294
10	0xbc884556	-0.016634624
11	0xbdaa5833	-0.08317604
12	0x3cb06996	0.021534722
13	0x3d686d5d	0.056744922
14	0xbe242fb7	-0.16033827
15	0xbc1d19e6	-0.009588694
16	0x3c2925dc	0.010323968
17	0xbd8f06fa	-0.069837525
18	0xbd9a0376	-0.07520191
19	0xbd19d6f9	-0.03755853
20	0x3d2c7b83	0.042109977
21	0xbc667bef	-0.014067634
22	0x3d306f7a	0.043075062
23	0x3e1ccde4	0.15312916
24	0xbd5bb0c0	-0.05363536
25	0xb7a74455	-1.9939771e-05
26	0x3d7b7751	0.061393086
27	0x3d1ad2cc	0.037798688
28	0xbc0be194	-0.008537669
29	0xbd9b221a	-0.07574864
30	0xb989cfcf	-0.00026285506
31	0x3da65685	0.08121971
32	0xba1bc217	-0.00059417024
33	0x3ce3d97d	0.027813667
34	0xbe1d5b5c	-0.15366882
35	0x3cb852b5	0.022500375
36	0xbd015622	-0.031576283
37	0x3d0cd3fd	0.034381855
38	0x3d0b2c2a	0.033977665
39	0xbdaa98cb	-0.08329924
40	0xbd3448fb	-0.044014912
41	0x3dc0e3d0	0.09418452
42	0x3d7172b4	0.05894728
43	0xbe60b043	-0.21942239
44	0xbd94ada3	-0.07259681
45	0x3da0df9e	0.078551516
46	0x3c2e0191	0.010620491
47	0xbdaba157	-0.083803825
48	0x3d453544	0.0481465
49	0xbda5e050	-0.08099425
50	0x3cb60e1d	0.022223527
51	0xbcd13849	-0.025539534
52	0x3cd1d269	0.025613027
53	0xbd3204b5	-0.04346152
54	0xbad41390	-0.0016180146
55	0xbde55633	-0.11198082
56	0xbd988d3d	-0.07448814
57	0xbce0bed2	-0.02743474
58	0xbdddc5a7	-0.10828715
59	0xbb8da9dc	-0.0043232273
60	0xbe2f1b2d	-0.1710021
61	0xbd83b6a6	-0.06431322
62	0x3cfed6fb	0.03110837
63	0x3e444e6e	0.19170544
64	0x3c83f268	0.0161068
65	0xbd80f9ba	-0.062976316
66	0x3db9169a	0.09037514
67	0x3d322e2f	0.043501075
68	0xbdf1ea42	-0.11812259
69	0x3d50c37a	0.05096767
70	0x3d8399fe	0.06425856
71	0x3e47c577	0.1950892
72	0x3d218bd3	0.039439987
73	0x3b0a766f	0.002112772
74	0x3d3be69a	0.045874216
75	0x3d968513	0.07349601
76	0xbddb7d2a	-0.107172325
77	0x3be4ac23	0.006978528
78	0x3dc23de3	0.0948446
79	0x3d0ffd4f	0.035153683
80	0x3dbd2515	0.092355885
81	0xbdf80e26	-0.121120736
82	0x3b6f69ae	0.0036531496
83	0x3c3aa76a	0.011392454
84	0xbd431b60	-0.04763353
85	0xbd5e7914	-0.054314688
86	0xbe071778	-0.13192546
87	0x3cd7aaed	0.026326621
88	0x3ca3249c	0.019914918
89	0xbd6127b8	-0.05496952
90	0x3c8d4739	0.017245876
91	0xbd3455a8	-0.044027
92	0xbc3b51aa	-0.011433044
93	0xbd8aadcd	-0.06771431
94	0x3d06a4e2	0.03287209
95	0x3d07899c	0.03309022
96	0x3c6b01a5	0.014343654
97	0x3d71fbb9	0.059077952
98	0x3b3588ba	0.0027699904
99	0x3d929b28	0.071585
100	0x3be99533	0.0071283816
101	0xbd9f3961	-0.07774616
102	0xbe29343a	-0.16523829
103	0xbd9da00a	-0.07696541
104	0xbdb7488f	-0.08949386
105	0xbd80c898	-0.0628826
106	0xbdd13196	-0.10214536
107	0x3c9be416	0.019029658
108	0xbdd2c485	-0.102913894
109	0x3cc51296	0.024056714
110	0xbd1ddbc1	-0.03853965
111	0xbcd62a16	-0.026143115
112	0xbcf7ea40	-0.030263066
113	0xbc868f8f	-0.016425876
114	0x3d800fa3	0.062529825
115	0x3cec9676	0.02888034
116	0xbd2e8a42	-0.04261232
117	0x3d180d37	0.037121978
118	0x3d2751a0	0.040849328
119	0xbc925e35	-0.017867187
120	0x3d84d3b2	0.0648569
121	0x3d1a240a	0.037632026
122	0x3c1d721e	0.009609727
123	0xbd877d7b	-0.066157304
124	0x3d7ac30d	0.06122117
125	0x3e0c2dd4	0.13689357
126	0xbbaf0716	-0.005341421
127	0x3d94a191	0.07257379
128	0x3c9af43c	0.018915288
129	0x3c6c1529	0.014409342
130	0x3c139f71	0.009010182
131	0x3be508b7	0.0069895643
132	0x3ce42fa9	0.027854757
133	0x39de1ae9	0.0004236319
134	0x3ca40ead	0.02002653
135	0x3d19890e	0.03748422
136	0x3dd28ac0	0.10280371
137	0x3d9f40a3	0.07776
138	0x3da0c607	0.07850271
139	0xbca24a22	-0.01981074
140	0x3c1d9e20	0.0096202195
141	0xbcce906f	-0.025215356
142	0x3e2986bd	0.16555305
143	0x3bd2621c	0.006420387
144	0x3da1a775	0.07893268
145	0xbe97f370	-0.29677916
146	0xbd639e63	-0.05557097
147	0xbd5c4fec	-0.053787157
148	0x3d51e54e	0.051244073
149	0xbd85bef7	-0.06530564
150	0x3d460558	0.04834494
151	0xbcb1dd0e	-0.021711852
152	0xbe0c3f7b	-0.13696091
153	0xbc6833ae	-0.014172478
154	0xbd10b92a	-0.035332836
155	0x3a92c22f	0.0011196787
156	0xbd109111	-0.035294596
157	0xbcaacc61	-0.020849409
158	0xbd30e995	-0.04319151
159	0x3d611950	0.05495578
160	0xbbf1b538	-0.0073763393
161	0x3da8c946	0.08241515
162	0x3d8405d3	0.064464234
163	0xbd04245e	-0.032261245
164	0xbca5df19	-0.020247983
165	0xbcaabb92	-0.020841394
166	0x3d6c054f	0.05762225
167	0xbd319bf5	-0.043361623
168	0xbdbfc2e6	-0.09363346
169	0x3b9f7896	0.00486667
170	0x3d24f644	0.04027392
171	0xbd23f433	-0.04002781
172	0xbe693644	-0.22774607
173	0xbdd3f0aa	-0.103486374
174	0xbdca8076	-0.09887783
175	0xbd1030d4	-0.035202816
176	0x3c2fb8a5	0.010725175
177	0x3d3f33bb	0.046680193
178	0xbc3849c9	-0.0112480605
179	0xbecd26fb	-0.40068802
180	0x3afceaa2	0.0019296
181	0x3d30f4a4	0.043202057
182	0xbce30030	-0.02771005
183	0xbda54f12	-0.08071722
184	0x3d405f5c	0.04696594
185	0xbdd2562a	-0.10270341
186	0xbc86f104	-0.016472347
187	0xbd2943ef	-0.041324552
188	0x3e2a290d	0.16617222
189	0xbcd3afd0	-0.02584067
190	0xbdd7f5c8	-0.10544926
191	0xbe0245fa	-0.12722006
192	0x3ca5bdb3	0.020232057
193	0x3d029d00	0.031888008
194	0x3cb57eae	0.022155132
195	0x3d842625	0.06452588
196	0xbd160eb4	-0.036635116
197	0x3dfb0a8c	0.12257871
198	0x3b9c3445	0.004766973
199	0x3e07d63a	0.13265315
200	0x3c94c134	0.018158533
201	0x3c9718fb	0.018444529
202	0x3bd1ebf7	0.006406303
203	0x3d1a779b	0.03771172
204	0xbd731e4d	-0.05935507
205	0xbcf596c7	-0.029979123
206	0xbd8b6be0	-0.06807685
207	0xbcf171e6	-0.029473256
208	0xbc6f5e5b	-0.014609898
209	0xbd6ebbee	-0.058284692
210	0x3c2f8436	0.010712674
211	0xbc934972	-0.017979357
212	0x3cfe8be7	0.03107257
213	0xbbc0d9cf	-0.00588534
214	0xbe174a4d	-0.14774437
215	0xbd9d8ded	-0.07693086
216	0x3c8b96a6	0.017039608
217	0x3d04fdf4	0.03246875
218	0x3d0ffb4c	0.035151765
219	0xbcb9c970	-0.02267906
220	0x3d6c96e2	0.05776108
221	0x3d564194	0.052308634
222	0xbc3b6af8	-0.011439078
223	0x3c0ba3a6	0.008522904
224	0x3da4c136	0.080446646
225	0xbcb42283	-0.021989113
226	0x3d6ce4c4	0.057835355
227	0x3d9fd37c	0.07804009
228	0x3d1e8a3e	0.038706057
229	0xbc54d7b7	-0.012990884
230	0x3d4e70d1	0.05040056
231	0x3d061784	0.03273727
232	0x3c2e0d47	0.010623283
233	0xbe072cc9	-0.13200678
234	0x3cad2f13	0.02114061
235	0xbc7c9b61	-0.015417905
236	0xbd239308	-0.03993514
237	0x3cf9cfaf	0.030494539
238	0xbd518479	-0.051151726
239	0x3c9f063a	0.019412149
240	0xbc92be07	-0.017912878
241	0x3d3ad16e	0.045609884
242	0x3d5da994	0.0541168
243	0xbcebe2a7	-0.0287946
244	0x38e44d34	0.000108862674
245	0x3dbd5fc2	0.0924678
246	0x3c6a266e	0.014291389
247	0xbc9ba0c5	-0.01899756
248	0x3d1bcdce	0.038038068
249	0x3d2dd29a	0.042437173
250	0xbdb0ceee	-0.08633219
251	0xbd00497f	-0.03132009
252	0xbc8cb457	-0.017175836
253	0xbb18de35	-0.0023325805
254	0xbd62c217	-0.05536088
255	0x3d83a047	0.06427055

bias f4 [96]
0	0xbd246905	-0.040139217
1	0xbe06f9b9	-0.13181199
2	0x3d398fcf	0.045303162
3	0x3b3e31b8	0.0029021334
4	0x3e1f1cf7	0.15538393
5	0x3c9d39c8	0.019192591
6	0x3c83030a	0.01599266
7	0xbd3f87c7	-0.046760347
8	0x3d588d68	0.05286923
9	0xbde99b71	-0.11406601
10	0x3d97f7b4	0.074202925
11	0xbd7b5a2c	-0.06136529
12	0x3e04c5a5	0.1296602
13	0x3ad940e8	0.001657513
14	0x3c29051f	0.010316162
15	0xbd68d861	-0.05684698
16	0x3dffbc00	0.1248703
17	0xbc734677	-0.014848343
18	0x3d20c5eb	0.03925125
19	0x3c1c6136	0.009544661
20	0x3d357abc	0.0443065
21	0xbcce61ac	-0.025193058
22	0x3d5604a0	0.052250504
23	0xbb13023b	-0.002243175
24	0x3daa5e2b	0.08318742
25	0x3e197427	0.14985715
26	0xbd806bf0	-0.062705874
27	0x3d4a4020	0.04937756
28	0xbcb995b8	-0.0226544
29	0xbd808ed8	-0.06277245
30	0xbd954d49	-0.072901316
31	0xbd0a211d	-0.033722986
32	0xbcd926f5	-0.026507834
33	0x3d2793ac	0.040912315
34	0xbd245d21	-0.040127877
35	0x3dfa2146	0.12213378
36	0xbde348e7	-0.110978894
37	0x3cb0ce2b	0.021582684
38	0x3d940604	0.0722771
39	0xbc591814	-0.01325037
40	0x3d2dfacb	0.042475503
41	0x3de9dbef	0.11418902
42	0x3dd871be	0.105685696
43	0xbc82e4d2	-0.01597825
44	0x3d865ff4	0.0656127
45	0xbd47b451	-0.048755948
46	0xbb7b5b34	-0.0038353922
47	0x3b8509a8	0.004059989
48	0x3d8f01c5	0.069827594
49	0xbc7e4bea	-0.015521029
50	0x3d056dc3	0.03257538
51	0x3cc13fd7	0.023590012
52	0xbc35d679	-0.011098498
53	0xbd7fdde1	-0.06246746
54	0xbda36f4d	-0.07980213
55	0x3d04d2e3	0.03242768
56	0x3ddd3ae2	0.10802247
57	0xbd121333	-0.03566284
58	0x3b0fadf3	0.002192375
59	0x3d457820	0.048210263
60	0x3d9eab8b	0.07747563
61	0x3e16b20b	0.14716356
62	0xbd9595b3	-0.073039435
63	0xbd8ec1f8	-0.0697059
64	0xbcc16c79	-0.023611294
65	0x3c6eb421	0.014569313
66	0xbcd9a6a2	-0.026568715
67	0x3c1b3fdc	0.0094756745
68	0x3c92960a	0.01789381
69	0x3da772fa	0.08176227
70	0xbd92dc3b	-0.07170912
71	0x3c19e82b	0.009393732
72	0x3d9d2661	0.07673336
73	0x3dffdd2e	0.124933586
74	0x3d82a1fe	0.06378554
75	0xbd165d79	-0.036710236
76	0xbd230023	-0.039795052
77	0xbcccba56	-0.024991196
78	0xbcdce71d	-0.026965672
79	0x3dcacdac	0.0990251
80	0x3d97d56d	0.074137546
81	0xbe37570e	-0.17904302
82	0x3cc8b687	0.024501098
83	0x3d270062	0.04077185
84	0xbcfc3433	-0.03078661
85	0x3ddab425	0.10678891
86	0x3c725935	0.014791776
87	0x3bffa40a	0.0078015374
88	0xbd0f8412	-0.03503806
89	0xbd08b4c1	-0.033375505
90	0xbd95386b	-0.072861515
91	0x3caf1ea0	0.021376908
92	0xbcba02a1	-0.022706332
93	0x3ddce59c	0.10785982
94	0xbae7fcf5	-0.0017699288
95	0x3df582e0	0.11987853

weight f4 [96]
0	0x3fca0270	1.5781994
1	0x3fd8ad02	1.6927798
2	0x401ef1c0	2.4835052
3	0x40425baf	3.036846
4	0x407f5fbb	3.990218
5	0x4023d139	2.559645
6	0x3fdc9a95	1.7234675
7	0x40102951	2.2525218
8	0x3fcf87e0	1.6213341
9	0x3ff930e1	1.9468042
10	0x3fd1b8af	1.6384486
11	0x4051918c	3.2745085
12	0x3fe015cb	1.7506651
13	0x3fb66a72	1.4251235
14	0x40313f74	2.7694979
15	0x3fe1a88c	1.7629561
16	0x40496af8	3.1471539
17	0x3fef6a8e	1.8704393
18	0x3fe5d7f0	1.7956524
19	0x401fab6e	2.4948382
20	0x40061452	2.0949903
21	0x3fe79df9	1.8095084
22	0x40027df1	2.0389369
23	0x3ff4cd5a	1.9125168
24	0x40507253	3.2569778
25	0x3fff6a10	1.9954243
26	0x3fcd9c15	1.6063257
27	0x3fe52fa1	1.790516
28	0x3ff4cfb3	1.9125885
29	0x3fccaafa	1.5989678
30	0x3ff710df	1.9302024
31	0x3fa84b57	1.3147992
32	0x4015dae0	2.341484
33	0x3fda6441	1.7061845
34	0x3ff7a5a2	1.9347422
35	0x3fd4fa97	1.6638974
36	0x40189946	2.384355
37	0x400116ba	2.0170121
38	0x4042f667	3.0462892
39	0x400d4224	2.207162
40	0x40359146	2.8369918
41	0x4026957c	2.6028738
42	0x402634e5	2.5969784
43	0x3fcf7cb5	1.6209933
44	0x403baf77	2.9325845
45	0x3ff2a495	1.8956476
46	0x402a49bf	2.660751
47	0x3fddb054	1.7319436
48	0x40202648	2.5023365
49	0x3fcbd8dd	1.5925556
50	0x3fdeaac2	1.7395861
51	0x3fd4eb47	1.6634301
52	0x3fcb02d0	1.5860233
53	0x3fde2a11	1.7356588
54	0x3fff9c41	1.996956
55	0x401f14a6	2.4856353
56	0x3ffd8b7c	1.9808192
57	0x3fd20d58	1.6410322
58	0x3fca0380	1.5782318
59	0x400ed904	2.2319956
60	0x3fda8367	1.7071351
61	0x402d6491	2.709263
62	0x3fd565cc	1.6671691
63	0x4003ec44	2.0612955
64	0x400980fc	2.1484976
65	0x3fc1d718	1.5143766
66	0x3fe182e4	1.761807
67	0x3fcd643e	1.6046216
68	0x4073bc1b	3.808356
69	0x3ff3915e	1.9028738
70	0x4023a056	2.5566611
71	0x3fc40e2e	1.5316827
72	0x40082702	2.1273808
73	0x3fab8ed9	1.3402969
74	0x3fff26e2	1.9933741
75	0x3fdec799	1.7404662
76	0x400b9495	2.1809437
77	0x400fa830	2.2446404
78	0x4017b13e	2.370193
79	0x40196cf3	2.3972747
80	0x4080478a	4.008733
81	0x40065c3b	2.0993793
82	0x40071100	2.1104126
83	0x3fd29fbe	1.6455
84	0x3fdc9ae3	1.7234768
85	0x402c4b8e	2.6921115
86	0x4054b476	3.3235145
87	0x4045dc9a	3.0915895
88	0x3fc886d7	1.566615
89	0x3fd13ed9	1.6347305
90	0x3ff44926	1.9084823
91	0x403a6463	2.912377
92	0x401787c0	2.3676605
93	0x404ef525	3.2337124
94	0x3fe82002	1.8134768
95	0x3ffe09a6	1.9846694

bias f4 [96]
0	0x3d9f0c24	0.077659875
1	0xbc45e177	-0.012077681
2	0xbf1923e1	-0.5982037
3	0xbf36ca17	-0.71402115
4	0xbf270347	-0.65239376
5	0xbe2a1311	-0.16608836
6	0xbe504c8d	-0.20341702
7	0x3cc81207	0.024422659
8	0xb92c8535	-0.00016452822
9	0xbe151dc9	-0.14562143
10	0xbc550256	-0.013001045
11	0xbeee7eea	-0.46581203
12	0x3e626e9b	0.22112505
13	0xbe28c0eb	-0.16479842
14	0xbb85fd05	-0.004089
15	0x3e9be593	0.3044859
16	0x3dda4903	0.10658457
17	0x3e681ddf	0.22667645
18	0xbe0e4b96	-0.13896021
19	0xbe4a1b23	-0.19736914
20	0xbdc7dd3b	-0.09758993
21	0x3d34c4c9	0.04413298
22	0x3df82526	0.121164605
23	0xbe550add	-0.20804925
24	0xbe261750	-0.1621983
25	0xbd7d1997	-0.061791983
26	0x3da9bac9	0.082875796
27	0x3df84b0b	0.12123688
28	0xbdff2f1f	-0.124601595
29	0x3e2398ce	0.15976259
30	0xbebfad39	-0.37436846
31	0x3de7ffb2	0.11328067
32	0x3e6f2ce1	0.23356964
33	0x3e26c2bf	0.16285227
34	0x3d9a7e91	0.07543672
35	0x3d69d03a	0.057083346
36	0xbe3a9fa4	-0.1822496
37	0x3e686f13	0.22698621
38	0xbda3683a	-0.07978864
39	0xbd0cd1a2	-0.03437961
40	0xbf445f9c	-0.7670839
41	0xbee014cb	-0.43765864
42	0xbe309264	-0.17243344
43	0x3c21ce23	0.009875807
44	0xbed19aa8	-0.40938306
45	0xbe5974a5	-0.21235903
46	0xbf4ce0d9	-0.8003059
47	0x3ce626d7	0.028094692
48	0x3dab2c97	0.08358114
49	0xbdb6b189	-0.08920581
50	0x3e0c1168	0.13678515
51	0x3d5f34e6	0.054493807
52	0xbd121c3e	-0.035671465
53	0x3d237bd5	0.039913017
54	0xbe1005ce	-0.14064714
55	0xbe135ded	-0.14391299
56	0xbee319c6	-0.443556
57	0xbe8d3d28	-0.2758572
58	0xbdf7857c	-0.12086007
59	0xbe94d9e5	-0.2907249
60	0xbe91ca4e	-0.2847466
61	0xbe98daac	-0.29854333
62	0x3ec8322b	0.39100775
63	0x3e0818a6	0.13290653
64	0x3d27a059	0.040924404
65	0xbc3c83b4	-0.01150601
66	0xbce68d63	-0.02814359
67	0xbd1fe40e	-0.03903585
68	0xbf8b1b08	-1.0867624
69	0x3d18ff2f	0.037352737
70	0xbf81cc6c	-1.014051
71	0x3eb28647	0.3486807
72	0xbe33fbf6	-0.17576584
73	0xbce48424	-0.02789504
74	0xbe8e6ebe	-0.27818865
75	0xbe0ca98d	-0.13736553
76	0xbdeb95de	-0.11503194
77	0xbe2d71d1	-0.16937949
78	0xbecec91d	-0.40387812
79	0x3d258a88	0.040415317
80	0xbed96fb8	-0.42468047
81	0xbe9443f0	-0.28958082
82	0x3c4136b6	0.011792829
83	0x3eefe683	0.46855554
84	0x3e6ffa26	0.23435268
85	0xbf1a3ffd	-0.6025389
86	0xbf760490	-0.9610071
87	0xbe5ce913	-0.21573286
88	0x3d4cc240	0.04998994
89	0x3e5e3c2e	0.21702644
90	0xbe7b739f	-0.24555825
91	0xbf8b921c	-1.0903964
92	0xbe93c6d9	-0.28862646
93	0xbe82485a	-0.25445825
94	0x3e00dd7b	0.12584488
95	0xbdebf375	-0.11521045

weight f4 [10, 96]
0	0xbe268d37	-0.16264807
1	0xbde100da	-0.109864905
2	0x3ef1f520	0.47257328
3	0x3e5373d1	0.20649649
4	0xbe5c764c	-0.21529502
5	0x3f15c1d2	0.5849887
6	0xbd86f34d	-0.06589375
7	0xbfa1d20a	-1.2642224
8	0x3e4c4f9a	0.1995224
9	0xbc621ae2	-0.013800355
10	0x3e7e083c	0.24807829
11	0xbd4183db	-0.047244888
12	0x3e68e4f1	0.22743584
13	0x3fc27141	1.5190812
14	0xbf72a681	-0.94785315
15	0xbb1a2599	-0.0023520945
16	0xbdcb41ba	-0.09924646
17	0x3f1e0052	0.6171924
18	0x3d401967	0.046899226
19	0xbdd6455a	-0.104624465
20	0x3c8c6453	0.017137682
21	0xbdd18eca	-0.10232313
22	0x39a31485	0.0003110507
23	0x3eadbc13	0.33932552
24	0xbbe09b74	-0.006854469
25	0x3e3bccfe	0.18339917
26	0xbcd50477	-0.026003106
27	0x3f8c32d0	1.0953007
28	0x3e95c511	0.29251912
29	0xbdc64707	-0.09681516
30	0xbe90af4f	-0.2825875
31	0x3d126ed0	0.03575021
32	0xc025f66f	-2.593166
33	0x3a89b4cd	0.0010506153
34	0xbd806d08	-0.06270796
35	0x3e5019e1	0.20322372
36	0xbf13256d	-0.5747898
37	0x3dbd6ed5	0.09249655
38	0x3d60bd7b	0.054868203
39	0xc02c609b	-2.6933963
40	0xbf3a3d86	-0.7275013
41	0x3d995c57	0.074883156
42	0xbe03ecaa	-0.12883249
43	0x3eb134c6	0.34610575
44	0xbe1639d5	-0.14670499
45	0xbeb9bbee	-0.3627619
46	0x3f325736	0.69664323
47	0xbe1a9ae6	-0.15098152
48	0xbfde6f7b	-1.7377771
49	0x3e0e1039	0.13873376
50	0xbfbd5ada	-1.4793351
51	0x38ce7d55	9.8461904e-05
52	0xbe44eef1	-0.19231774
53	0xbd59cfdd	-0.05317675
54	0xbd9da02a	-0.076965645
55	0xbdf8a922	-0.121416345
56	0xbf067000	-0.5251465
57	0x3bd0e0df	0.006374463
58	0xbe31251a	-0.1729931
59	0xbf6065cc	-0.8765533
60	0x3dd1c298	0.10242194
61	0xbf1307ba	-0.57433665
62	0x3c105680	0.008809686
63	0xbfaa8afa	-1.3323662
64	0xbd330f2f	-0.043715652
65	0x3e38273c	0.17983717
66	0xbe819ba3	-0.25314054
67	0x3def9b6f	0.116995685
68	0x3cf250fe	0.029579636
69	0xbe655cea	-0.22398725
70	0x3cd7cafc	0.026341908
71	0x3e995ce4	0.29953682
72	0x3d75187d	0.059837807
73	0x3ebc27c4	0.3674909
74	0x3d3f404a	0.04669217
75	0x3f7b2e28	0.98117304
76	0xbf3f972a	-0.74840033
77	0xbe813ab3	-0.25240096
78	0x3f3cfba2	0.7382146
79	0x3e0d4d39	0.1379899
80	0xbd220b0a	-0.03956131
81	0xbef54ee0	-0.4791174
82	0x3c838b30	0.01605758
83	0xbfaff31d	-1.3746067
84	0xbe142939	-0.1446885
85	0x3f7d21a8	0.9887948
86	0x3ea3ce68	0.31993413
87	0xbf9b749a	-1.2144959
88	0x3d03a115	0.03213604
89	0x3d25ffa5	0.040527005
90	0x3ca80aa8	0.020512894
91	0x3cf6cc64	0.030126758
92	0xbe8d215c	-0.27564514
93	0x3f9b07da	1.2111771
94	0xbf9f4bfa	-1.2445061
95	0xbe4247b1	-0.1897266
96	0xbd7281b9	-0.059205744
97	0xbd332e16	-0.043745123
98	0xbf8c155c	-1.0944018
99	0xbdae0809	-0.08497626
100	0x3fe893bf	1.8170089
101	0xbf1bf3e2	-0.6091901
102	0xbd60d492	-0.054890223
103	0x402a3ec9	2.660082
104	0x3e89bb31	0.26900628
105	0x3e51a417	0.20472752
106	0x40516325	3.2716763
107	0x3dca0582	0.09864332
108	0x3f4cac14	0.7995007
109	0xbf21f2c1	-0.6326104
110	0xbe7761ea	-0.24158445
111	0x3e0da18a	0.13831154
112	0xbda78e5d	-0.081814505
113	0x3f6865da	0.90780413
114	0xbf3b3c3a	-0.73138773
115	0xbef10ac1	-0.47078517
116	0xbe01fc89	-0.12693991
117	0x3e9096e6	0.28240126
118	0x3eefcd3e	0.46836275
119	0xbf098fac	-0.5373485
120	0x3f86c3fe	1.0528562
121	0xbdbaeec6	-0.09127574
122	0x3e1cacb8	0.15300262
123	0xbed02201	-0.40650943
124	0xbf6a7d99	-0.91597897
125	0x3e472383	0.1944714
126	0x3f0c82bf	0.54887
127	0xbdd5b304	-0.10434535
128	0x3ff38a66	1.9026611
129	0xbe546b55	-0.20744069
130	0xbe1e99d1	-0.15488364
131	0xbe57b7c4	-0.21066195
132	0x3f0ba4ad	0.5454815
133	0xbf04178c	-0.5159843
134	0x3e4adf93	0.1981185
135	0x3f915822	1.1355021
136	0x3f847648	1.0348597
137	0x3e7ccb5a	0.24686947
138	0x3bccf8ac	0.00625523
139	0xbd0bd485	-0.03413822
140	0xbd89f41e	-0.06736015
141	0xbf4cc563	-0.7998869
142	0xbf8274e7	-1.0191926
143	0x3ed85b5c	0.42257202
144	0xbd8af810	-0.067855954
145	0xbe8df087	-0.2772257
146	0xbeb13eed	-0.3461832
147	0x3ea468b6	0.32111138
148	0x3debe681	0.115185745
149	0x3fc46945	1.5344626
150	0x3d7a3d13	0.0610934
151	0x3e58469e	0.21120688
152	0x3e06a7bc	0.13149923
153	0x3d467d60	0.04845941
154	0xbf7f98c1	-0.9984246
155	0xbf5687b7	-0.83800834
156	0xbd93aee5	-0.07211093
157	0x3f83593d	1.0261608
158	0xbe565ae8	-0.20933115
159	0xbeee049f	-0.464879
160	0xbeb73fb5	-0.35790792
161	0xbed69dde	-0.41917318
162	0xbd8fb415	-0.0701677
163	0xbe937834	-0.28802645
164	0x3ded709e	0.11593746
165	0xbf0189ec	-0.5060108
166	0x3f087687	0.5330586
167	0xbf748c9f	-0.9552707
168	0x3e14f26f	0.14545606
169	0xbd263d78	-0.040585965
170	0x3d592084	0.053009525
171	0xbf8d0fc0	-1.1020432
172	0x3e85cdd5	0.261336
173	0x3e21c11f	0.15796326
174	0xbece7243	-0.4032155
175	0x3deec564	0.11658743
176	0x3e9a3d46	0.30124873
177	0x4014548c	2.3176603
178	0x3f4627b8	0.77404356
179	0x4032b76d	2.7924454
180	0x3e8f41eb	0.2797998
181	0xbf37d47b	-0.71808594
182	0xc0036af1	-2.0534022
183	0x3e60aa8e	0.21940061
184	0x3e51f228	0.20502532
185	0xbecddccc	-0.40207517
186	0xbe376542	-0.1790972
187	0x3e3064b1	0.1722591
188	0x3d958fdb	0.07302829
189	0xbed3ed5e	-0.41392034
190	0x3f751245	0.95731
191	0x3ebb304c	0.36560285
192	0x3e72f9cc	0.23728102
193	0xbe552edb	-0.20818655
194	0xbfcdef34	-1.6088624
195	0xbfe01b66	-1.7508361
196	0x3dfc86dd	0.12330411
197	0x3e62b874	0.22140676
198	0x3f8e76c0	1.112999
199	0x3ef32089	0.4748576
200	0x3e0e2d1f	0.138844
201	0xbda7aca4	-0.081872255
202	0xbd125cdb	-0.035733085
203	0x3d38bfb4	0.045104697
204	0x3c7e5b5a	0.01552471
205	0x3d1f3492	0.038868494
206	0x3fa23c27	1.2674607
207	0xbd028739	-0.03186724
208	0x3a4d83a1	0.00078397436
209	0x3e919762	0.28435808
210	0x3f1ac2e1	0.6045361
211	0xbe4eb37f	-0.2018566
212	0xbca038a8	-0.019558266
213	0xbe332263	-0.17493586
214	0x3d22c454	0.039738014
215	0xbf07a99a	-0.52993166
216	0x3f3579e8	0.7088914
217	0x3e3ddb26	0.1854063
218	0xbf1d6f9b	-0.6149842
219	0x3dc5240f	0.09626018
220	0x3e0cefac	0.13763303
221	0xbf65f566	-0.89827573
222	0x3f3dcdde	0.74142253
223	0xbf2bc070	-0.6709051
224	0xbe058808	-0.13040173
225	0xbf4cb6bf	-0.7996635
226	0xbda96629	-0.08271439
227	0x3e84dbc4	0.25948918
228	0xbd88a123	-0.066713594
229	0xbf176c60	-0.5914974
230	0x3eecee62	0.46275622
231	0xbe0e01d6	-0.13867888
232	0x3fde8d36	1.7386844
233	0x3bc544db	0.006020171
234	0x3e6d55c0	0.23177242
235	0x3ec0f219	0.37684706
236	0x3eafa1db	0.34303173
237	0xbf26e878	-0.6519847
238	0xbef96d61	-0.48716262
239	0x3daa1ca2	0.083062425
240	0xbdb1b2e6	-0.086767
241	0x3f07ce41	0.53049093
242	0xbc47fb8d	-0.0122059705
243	0xbe571526	-0.21004161
244	0x3f33f3a0	0.7029362
245	0xbef71650	-0.4825921
246	0x3cdc4e7c	0.026892893
247	0x3e3192fb	0.17341225
248	0x3f6637a4	0.8992865
249	0x3f0fcdf6	0.56173646
250	0xbdd5c2f5	-0.10437576
251	0xbeebb991	-0.46040013
252	0x3eb4c91b	0.3530968
253	0x3f19eae0	0.60124016
254	0xbf92dfa6	-1.1474502
255	0xbd944256	-0.07239215

bias f4 [10]
0	0xbe1db752	-0.15401962
1	0x3ddf70f4	0.10910216
2	0xbd63be9c	-0.0556017
3	0xbe0e0d70	-0.13872313
4	0xbdd067cd	-0.101760484
5	0xbe44df1b	-0.19225733
6	0xbdb8be54	-0.09020677
7	0x3c967b31	0.01836929
8	0x3c086561	0.008324952
9	0x3dca67c6	0.098830745
