model/critic.pt (torch, 84635 bytes, 9 tensors)

weight f4 [128, 42]
000000 cc 97 f6 bd b7 30 19 3d 3d 45 41 3f 16 48 04 3f
       -0.12040672 0.037399974 0.75496274 0.51672494
000010 fb e1 32 be 2f ee 80 3c 1a 25 f7 bb 23 7f c6 bd
       -0.17469017 0.015738575 -0.0075422646 -0.09692218
000020 d2 90 83 bd e4 44 f3 bb 0f e7 bd bd 61 9c 53 3c
       -0.06424107 -0.007423984 -0.092725866 0.012915702
000030 e8 0d c6 bd 13 40 3b 3c f2 cb 88 3d 58 c0 9b bb
       -0.09670621 0.011428851 0.066795245 -0.004753154
000040 fd de 8b 3d 3e e2 af bc 64 c7 a8 bc af ff 00 3e
       0.06829641 -0.021470185 -0.02060289 0.12597536
000050 5f 1c 79 3c 8b 21 25 3d 1f da 82 be 2a c0 2d bd
       0.015204518 0.040315192 -0.25557038 -0.04241959
000060 e7 0c cf 3c c9 26 24 3e d8 05 a9 3d b6 c0 23 bd
       0.025274707 0.1603042 0.08253068 -0.039978705
000070 de f9 58 bd b8 9b b5 bd 6d ba 3c bc fd fd 3d bd
       -0.052972667 -0.088675916 -0.011519057 -0.0463848
000080 48 72 7d be 6f 8b db 3d 67 01 09 3c 99 c7 0f 3d
       -0.24750626 0.10719954 0.008362151 0.03510246
000090 79 1e 1d bd 84 88 2b 3d 59 bf 51 bd 91 4e cc bd
       -0.03835914 0.04187824 -0.051207874 -0.09975923
0000a0 d4 4e 4e bd 77 b9 5c bc 37 3d bf bb 92 5b 02 3f
       -0.050368145 -0.013471953 -0.005836155 0.50920975
0000b0 ef 16 33 3c 81 8b b5 3e 49 24 88 bd 49 8e 9b bc
       0.010930761 0.35457996 -0.06647546 -0.018988745
0000c0 bb 77 a5 bb 7e d8 cc bc ee 1c 09 bc 3f af 27 bc
       -0.0050496734 -0.025005575 -0.008368714 -0.010234653
0000d0 a9 fe 2c bd 0e cc 83 bd 9a 24 c9 bd 4a b7 bb bd
       -0.04223505 -0.06435405 -0.09821434 -0.09165819
0000e0 2e 6e 07 3d fc 25 a3 3d f0 e1 cb 3d 07 61 b1 3d
       0.03306406 0.07966229 0.099552035 0.086610846
0000f0 c7 60 9d ba 42 57 49 3e 17 d1 eb bc 19 1c 6a bd
       -0.0012006991 0.19662192 -0.028786225 -0.057155702
000100 79 4b 7e bd 8d 9e 93 be d6 5c e6 3d ce b2 e1 bd
       -0.062083695 -0.28831902 0.11248176 -0.110204324
000110 83 6c c0 bc 56 08 fa 3d 98 9e cf bd 5e 61 10 3e
       -0.023489242 0.12208621 -0.10137671 0.14099643
000120 63 87 79 3d 41 d4 18 3c 67 25 a4 3d a0 d8 86 3d
       0.06092013 0.009327949 0.080149464 0.06584287
000130 40 b6 2e 3d 9a 7a 5b 3e 0c fc f9 3b 60 d1 4a 3c
       0.042654276 0.21433488 0.0076289233 0.01237902
000140 0d 0e 2f bd 0c 4d 73 bd 2c 2b ef bd aa d8 61 bc
       -0.04273801 -0.05939965 -0.11678156 -0.013784567
000150 83 41 d6 3d 1d c5 8d 3d d3 ed 01 bf 82 ef 4f bf
       0.10461714 0.06922362 -0.50753516 -0.81224835
000160 14 50 b6 3e cf 3f 18 be df c2 2d be b3 b2 1d 3e
       0.3560797 -0.14868091 -0.16968869 0.154002
000170 d3 74 29 be 00 46 1a be c5 54 7c 3e b9 04 23 3c
       -0.16548471 -0.15065765 0.24641712 0.009949856
000180 ca d2 92 bd 70 ef ed bd 1e 3c 2c be f3 b4 2f 3e
       -0.07169111 -0.11617935 -0.16819808 0.1715887
000190 a9 5c 2e 3d 40 2d c5 bd 06 5e 8c bd fa dc 10 bd
       0.042568836 -0.096277714 -0.06853871 -0.03536699
0001a0 99 01 06 be 09 7e c1 3d cd 8b 9c be 20 d4 42 be
       -0.13086547 0.094478674 -0.3057541 -0.19026232
0001b0 81 96 f6 3b cc 0e 83 3d ea ab a9 3d 0e 8b ec bd
       0.0075252657 0.06399307 0.08284743 -0.1154996
0001c0 63 e6 d7 3d 92 70 4e 39 dc 4a 00 be 09 2b 40 bd
       0.1054199 0.00019687627 -0.12528557 -0.04691604
0001d0 b9 7f 0a bf c6 02 8a 3d 3f 2e 0a be 79 e1 c0 bb
       -0.5410114 0.0673881 -0.13494204 -0.0058862534
0001e0 ff 75 04 be 0e 61 2d 3e 10 46 cb bd a3 7f 84 be
       -0.12935637 0.16931555 -0.09925473 -0.2587863
0001f0 74 e1 40 3e b7 ea a2 bd 64 2e ae 3c 41 b7 0b 3e
       0.18836004 -0.079549246 0.021262355 0.13644125
000200 c9 be db be c3 09 78 be 0f 78 15 be 14 25 29 3d
       -0.42918995 -0.24222474 -0.1459658 0.041295126
000210 78 df 1e bd da 04 fb bc ef 2b 78 bd da 56 66 bc
       -0.038787335 -0.030641962 -0.060588773 -0.014058793
000220 3a cd 48 3c b0 61 63 bd 3c ce 0c 3d 7c f4 5e 3d
       0.012255961 -0.055513084 0.034376368 0.054432377
000230 87 ca c9 bc c1 a2 f6 3c 84 7b 50 3c 27 46 5c bc
       -0.024632705 0.030106904 0.012724761 -0.01344446
000240 e7 e4 4b 3d e2 99 04 bd a9 e4 b7 3d 63 d7 1a bc
       0.049778845 -0.032373317 0.0897916 -0.009450766
000250 ce 73 67 be 6d 9e 3d 3d 97 01 02 be b5 e9 e3 3d
       -0.2260277 0.046293665 -0.12695919 0.111285605
000260 04 f2 6d bd 6c 7e 13 3d 3c a8 53 3d 9e 3c e5 3d
       -0.058092132 0.036009237 0.051674113 0.111932024
000270 0f 24 46 bd c4 61 42 bd 02 76 3b 3e f7 13 95 3e
       -0.048374232 -0.047456518 0.18306735 0.29116794
000280 9e e7 ed 3e 5a 57 69 be 7b 8e 63 3e d0 15 f7 bc
       0.46465772 -0.22787228 0.2222232 -0.030161768
000290 30 b5 12 bd 60 b0 72 3c b0 de d7 ba 51 fa 59 3d
       -0.035817325 0.014812559 -0.0016469564 0.053217236
0002a0 55 5e a4 bd 27 d4 c6 bd 28 63 da be 81 48 80 bf
       -0.08025805 -0.097084336 -0.42653775 -1.0022126
0002b0 c0 85 dc 3e 4e 1b 0a bd 89 6b 1f be 89 20 ad bc
       0.43070793 -0.033717446 -0.15568365 -0.021133678
0002c0 fc 17 fd bd 45 49 cb bb b9 28 20 3e 56 ae e5 3d
       -0.1235809 -0.006203803 0.15640534 0.112148926
0002d0 96 cc 21 bc 0d 64 df bc 15 58 00 3d 65 14 a1 3d
       -0.009875437 -0.027269388 0.031334 0.07865218
0002e0 c4 01 c7 3d c1 d4 7e bd 23 6f 6c bd 6c e3 3e bd
       0.09717134 -0.062214617 -0.057723176 -0.046603605
0002f0 d9 0b ab bc 00 d8 89 bd 87 90 c5 be cd cf 2d be
       -0.020879673 -0.06730652 -0.38586828 -0.16973801
000300 61 4c 04 bd f2 08 73 ba 63 47 83 3c d8 91 a7 3d
       -0.032299403 -0.00092710473 0.01602525 0.08182114
000310 34 e0 4e 3d 1b 9d c3 bd b8 3d 29 be c8 7f ea bd
       0.050506786 -0.0955145 -0.1652745 -0.114501536
000320 e3 fd 63 be e3 50 03 be 1e 4a 02 be 38 02 da bb
       -0.22264819 -0.12823825 -0.12723586 -0.0066530965
000330 1d 96 a2 be 81 85 39 3e be 8e 8b be fa e0 1b bc
       -0.31755152 0.18117334 -0.2725734 -0.009514088
000340 dc 6e 5d be 9a d0 54 3e 53 a8 3b 3d 6b 00 c9 3d
       -0.21624321 0.207827 0.045814823 0.09814533
000350 fd 31 f4 be 51 ca 22 bf e6 fa fe 3d 0b ce 87 3d
       -0.47694388 -0.6358996 0.12450199 0.066310965
000360 03 5e d5 3d 04 47 fb 3c d5 ef 3d 3d 67 f4 5b 3e
       0.10418322 0.030673511 0.0463713 0.21479951
000370 03 35 43 bd 29 47 fc bc a7 1e 39 be 6f 0e 86 3d
       -0.047657978 -0.03079565 -0.18078099 0.06545722
000380 01 17 c2 bc 9d 40 f9 3c 2d 5c 90 be 95 13 53 3d
       -0.02369261 0.030426318 -0.28195325 0.051532347
000390 08 95 37 bc b2 d7 24 bd 93 1c 1f bd 6f 8f c4 bc
       -0.011204965 -0.040244766 -0.03884561 -0.023994176
0003a0 c8 de b5 be 77 51 1e 3d ae fa 1c 3d 44 6f 04 be
       -0.3552153 0.03865191 0.038325004 -0.1293307
0003b0 95 d2 13 be b2 20 27 3d 04 fe 04 3d e5 cb 84 3d
       -0.144358 0.040802665 0.03246881 0.06484202
0003c0 4c 23 10 be e8 f5 78 bd bb 41 b5 be a9 24 79 be
       -0.14075965 -0.06078139 -0.3540171 -0.24330391
0003d0 d3 6e a6 bc 66 b2 8f 3c 46 8e 2a bd d4 48 44 bd
       -0.020316517 0.017541122 -0.04163959 -0.047921017
0003e0 90 84 1f bb fd c2 9b bd cd a0 1a bd 55 23 ca 3c
       -0.0024340488 -0.076055504 -0.037751008 0.02467505
0003f0 7d f6 00 3e 6a c6 81 3e 50 c1 0e 3e c9 22 2a 3f
       0.12594028 0.2534669 0.1394093 0.6645933

bias f4 [128]
000000 d3 15 95 bc 6f 9d dc bd f2 a4 90 3d 24 39 22 bc
       -0.018198883 -0.107722156 0.07062711 -0.009901319
000010 5a 75 3c 3e 28 ae eb 3d 96 14 43 bd 49 a0 c4 bd
       0.18404141 0.11507827 -0.047627054 -0.096008845
000020 d8 37 9d bd 48 a0 e4 3d 29 ed b5 bc ab 89 00 3e
       -0.07676667 0.11163384 -0.022207813 0.12552516
000030 5c 40 f1 3d 84 41 f5 3d 44 f1 c9 bd 3d 2b a0 bd
       0.11779854 0.11975387 -0.09860471 -0.07820747
000040 aa 52 0a 3e d0 4c 23 bb 59 d3 0b bd ab 0b 66 bd
       0.13508096 -0.002491761 -0.034137104 -0.05616347
000050 54 ef e9 3d 45 e6 18 bd 4b f2 04 be 65 ca 5e bc
       0.11422601 -0.037328977 -0.12983052 -0.013598059
000060 16 f2 57 3d 0d 6a 3c bb d6 bc d0 3c 48 6b ff 3d
       0.052721106 -0.0028749735 0.025480669 0.12471634
000070 2d 6a b5 3d eb 02 0d be 1c aa de 3c c4 5c 88 3c
       0.08858142 -0.13770644 0.027180724 0.016645797
000080 76 93 0a 3b ed 1b 11 3e c3 4f 1f bd 7b d8 19 be
       0.0021145022 0.14170809 -0.038894426 -0.15023987
000090 e1 d4 8d 3d c0 77 8c bc ca fd d3 3d 13 0b 14 3e
       0.06925369 -0.017146945 0.10351141 0.1445735
0000a0 e4 76 83 bd e1 f3 18 be 4d e4 e7 bd e8 db 16 3d
       -0.06419161 -0.14936782 -0.11322842 0.036830813
0000b0 e1 f9 e3 3d e0 50 21 bd 5c e9 09 3e 91 f7 9d 3d
       0.11131645 -0.03938377 0.13467926 0.07713235
0000c0 dd 35 7b bd 6d 2c 73 3c bb c2 e4 bc d6 0d bb b8
       -0.061330665 0.014842135 -0.027924886 -8.919432e-05
0000d0 56 ea bd bd 07 e3 b0 bd 29 26 20 3d 6c df 33 3c
       -0.09273212 -0.08637052 0.039098892 0.010978561
0000e0 ae 90 22 3d 2d 1d 79 bb 0e 5a 3a bd 5f bc bb 3c
       0.03968876 -0.0038011775 -0.04549604 0.02291697
0000f0 0d d0 08 be e8 22 9f 3d 55 7c 31 bd d2 aa fe bb
       -0.13360615 0.0777033 -0.043331463 -0.007771828
000100 37 0a 63 3d b1 f3 f1 3d a7 d8 0b be 67 a9 4f 3d
       0.055429664 0.118140586 -0.13656865 0.050698664
000110 48 7b c5 3d 77 a2 00 bd 48 00 da bd 67 de 07 be
       0.09642655 -0.03140494 -0.10644585 -0.13268434
000120 34 0e 86 3d 04 82 ba 3a ea 9e 89 bd 65 cb 40 3e
       0.06545678 0.0014229422 -0.067197636 0.18827589
000130 6a 62 97 bb c4 86 47 bd 89 93 dd 3d f6 46 cb bd
       -0.004619886 -0.048712507 0.10819156 -0.09925644
000140 95 95 37 bd 1f 2d 16 3e 9e b3 11 be 00 de 56 3b
       -0.044820387 0.1466565 -0.14228675 0.003278613
000150 db bd 0e bd 4b 0c 4c 3d 7c 8b ca bd 3a 49 18 3d
       -0.03484903 0.04981641 -0.09889886 0.03717921
000160 ef 91 4f bd c6 49 6e 3d 19 29 e2 3d 36 8c 7f bd
       -0.050676282 0.058175825 0.11042995 -0.062389575
000170 7b ea 91 3d 21 46 09 bd a8 be ef 3d e2 4b 57 bd
       0.07124802 -0.033514146 0.11706287 -0.052562602
000180 d4 8c e7 bd e9 be 15 3d 8a c1 11 3e 4f 41 8c bd
       -0.11306158 0.03655902 0.14233986 -0.06848394
000190 cf a3 72 3b ee 0f e7 bd 9e ae 07 3e f1 0a 2f 3e
       0.0037023907 -0.11282335 0.13250205 0.17094018
0001a0 8d c3 1d bd d8 e0 00 be a9 e4 cf bb 95 f8 9f bd
       -0.03851657 -0.12585771 -0.006344397 -0.07811085
0001b0 8e b1 ca bc 8b 83 5a 3d 4f 8b a4 3c b1 16 83 bc
       -0.024742868 0.053348105 0.020085959 -0.016002031
0001c0 c0 46 0a 3e be da 20 3e c5 9c 10 be 37 d1 eb bd
       0.13503551 0.15708444 -0.14122303 -0.11514514
0001d0 3f e9 04 3e d2 25 3d bd 68 7e b2 3d 91 35 fc 3b
       0.12979601 -0.046178646 0.08715516 0.0076968153
0001e0 f3 9f e6 bc d7 de d8 bd 86 0c 0c bd 45 6a 7a 3d
       -0.028152442 -0.10589378 -0.03419163 0.061136503
0001f0 06 26 80 bc 44 38 e8 3d ff c6 ab bc 2c b6 17 3d
       -0.015643131 0.11338857 -0.020968912 0.037038967

weight f4 [128]
000000 34 67 6f 3f 1e ff 86 3f cb 77 7e 3f 43 00 76 3f
       0.9351685 1.0546606 0.9940154 0.9609415
000010 a2 c7 78 3f 6a 6c 81 3f f2 e2 5b 3f 07 f2 7a 3f
       0.97179615 1.011121 0.85893166 0.98025554
000020 04 6e 81 3f a9 12 c6 3f 00 5e 7a 3f 16 e2 9d 3f
       1.0111699 1.5474445 0.9779968 1.2334621
000030 3d 10 c2 3f 8f 46 7b 3f 19 99 a1 3f 86 8e 6f 3f
       1.5161206 0.9815454 1.2624847 0.9357685
000040 23 a9 6e 3f a5 f3 70 3f d5 0b 82 3f 56 6c 7d 3f
       0.9322683 0.9412177 1.0159861 0.9899343
000050 4f 94 80 3f ce d8 a0 3f c7 77 5f 3f d6 da 57 3f
       1.004526 1.2566164 0.8729214 0.8431829
000060 03 54 7d 3f 1a 28 6e 3f 69 f2 f2 3f c9 24 76 3f
       0.98956317 0.9302994 1.8980228 0.9614988
000070 3c f4 61 3f fd a0 a7 3f 4e a4 b7 3f e1 b0 64 3f
       0.882633 1.3096005 1.4347017 0.89332396
000080 9e f0 99 3f 66 2a 6d 3f d3 11 a3 3f b0 32 98 3f
       1.2026556 0.9264282 1.2739815 1.1890469
000090 6a 6c 60 3f a5 94 a4 3f 1c 4a 90 3f 95 ca 77 3f
       0.87665427 1.2857863 1.1272616 0.9679349
0000a0 5d 0b 71 3f 3f d3 65 3f 45 bf 6e 3f a1 93 7c 3f
       0.94157964 0.8977546 0.93260604 0.98662764
0000b0 df 10 83 3f 5d c4 9e 3f 44 a4 59 3f ec a0 84 3f
       1.0239524 1.2403675 0.85016274 1.036161
0000c0 0c 65 6c 3f 35 72 91 3f 1d 3a b8 3f 57 7a ac 3f
       0.92341685 1.1362978 1.4392735 1.3474835
0000d0 0c c4 5f 3f 97 5f aa 3f 4d b8 9c 3f a0 c3 9b 3f
       0.8740852 1.3310422 1.2243744 1.2169075
0000e0 07 79 c2 3f 70 14 6b 3f 94 04 8d 3f 9b 2a bb 3f
       1.5193185 0.9182806 1.1017022 1.4622377
0000f0 98 aa 72 3f 87 aa 82 3f 14 4a 7e 3f 22 1b 80 3f
       0.94791555 1.0208291 0.99331784 1.000828
000100 9a a0 8c 3f f5 c9 64 3f 39 c0 81 3f 54 b9 5b 3f
       1.0986512 0.8937066 1.0136787 0.85829663
000110 05 23 6e 3f da af 70 3f 75 7e 88 3f ff 09 81 3f
       0.93022186 0.9401833 1.0663592 1.0081176
000120 e8 88 73 3f cb 21 80 3f 51 53 8f 3f 13 cc 83 3f
       0.9513078 1.0010313 1.1197301 1.0296654
000130 88 f8 c4 3f d8 b4 64 3f 55 fc 95 3f dc 70 68 3f
       1.5388346 0.89338446 1.1717631 0.9079721
000140 84 55 80 3f d2 7a 79 3f 18 91 79 3f 58 8d 78 3f
       1.0026097 0.97453034 0.9748702 0.97090673
000150 a7 4e 80 3f 5b dd 60 3f bc 25 63 3f 6c 72 90 3f
       1.0024003 0.8783776 0.88729453 1.1284919
000160 27 e8 88 3f 1b 8f ff 3f f8 57 6a 3f 71 df 94 3f
       1.0695847 1.9965547 0.9154048 1.1630689
000170 ee 86 66 3f 5d 2e 77 3f c1 78 67 3f 6f 2a 90 3f
       0.90049636 0.9655512 0.9041863 1.126295
000180 1d a7 84 3f 0f 30 66 3f 8e b1 8c 3f fb d0 92 3f
       1.0363499 0.8991708 1.0991685 1.1470026
000190 4e f8 d3 3f 8b f1 bb 3f c3 57 68 3f b6 a3 bc 3f
       1.6560152 1.4683088 0.90758914 1.4737461
0001a0 21 d3 63 3f 55 72 82 3f 2f a6 56 3f d0 cd 79 3f
       0.8899403 1.0191141 0.83847326 0.9757967
0001b0 e5 a8 78 3f 0b d4 6d 3f f0 89 6c 3f f3 d0 83 3f
       0.9713271 0.92901677 0.92397976 1.0298141
0001c0 60 23 9f 3f 1b d6 81 3f 36 a5 5c 3f 14 4a 81 3f
       1.243267 1.0143465 0.8618959 1.0100732
0001d0 f6 59 67 3f ea 0c 75 3f ea cf 11 40 b9 92 80 3f
       0.90371644 0.9572283 2.278315 1.0044776
0001e0 8d 10 77 3f 64 fc 65 3f 7d 72 67 3f 27 fe 7b 3f
       0.9650963 0.8983824 0.9040907 0.9843468
0001f0 ce 1b 69 3f c2 d6 84 3f 39 55 67 3f 26 46 73 3f
       0.9105805 1.0378039 0.90364414 0.95028913

bias f4 [128]
000000 c1 ad 85 bd 4c 50 98 bc 80 67 a4 bd bf 46 b0 3c
       -0.065272816 -0.018592976 -0.080275536 0.02151811
000010 02 0a 1c bd 4c 59 60 3d 4c a4 86 3d 40 db bb 3b
       -0.03809548 0.05477266 0.06574306 0.0057329237
000020 6f 51 21 bc 8e a6 b9 3d 57 17 26 bc 44 29 02 3e
       -0.009846075 0.09064971 -0.010137401 0.12711054
000030 51 a4 9e 3d 4e 40 6d 3d 39 9a ae 3d 4e a4 cc bc
       0.077461846 0.057922654 0.085255094 -0.02498069
000040 0a d5 3d bd af 4d 82 bd db 5a 31 3c e0 76 e5 bc
       -0.046345748 -0.06362473 0.010824884 -0.028010786
000050 cb 98 a6 bc 51 a4 f8 3d bc 72 9e bc c9 91 93 bd
       -0.02033653 0.12140716 -0.019341819 -0.07205541
000060 94 c2 53 3d dc 11 be 3c 24 e2 e5 3d dc 8d bd 3d
       0.051699236 0.023201875 0.112247735 0.09255573
000070 cf d8 25 3d f3 ad ec 3c b2 28 a5 3d 7d fa 0c 3d
       0.040489968 0.02889154 0.08064403 0.03441857
000080 f4 74 11 3b 24 20 0f 3d 81 47 96 3d e4 7e 15 3c
       0.0022194954 0.03494276 0.07337857 0.009124491
000090 a4 5a 6f bd ec d8 e4 3b ee 88 70 3d a8 7d a1 bb
       -0.05843605 0.006983867 0.058724336 -0.0049283095
0000a0 26 ed 40 bd 4c 3a d4 ba 87 79 88 3c d7 7b 0f bd
       -0.047101162 -0.001619169 0.016659511 -0.035030212
0000b0 4b 72 27 3a 03 9c 04 3e 21 7b b0 bb a2 ed b9 3c
       0.00063875754 0.12950139 -0.005385772 0.02269632
0000c0 fa ff 01 bc 78 fe 4a 3e ce c9 f0 3d bb d8 e6 3c
       -0.007934565 0.19823635 0.11757241 0.028179517
0000d0 03 c8 5d bd ee 71 05 3e af ad cb bd 37 8b 89 3d
       -0.054145824 0.13031742 -0.09945237 0.06716006
0000e0 b7 1e 29 3e dc 61 d7 bc 09 e0 f6 3d 4e 52 e2 3d
       0.16515623 -0.02629178 0.1205445 0.110508546
0000f0 87 51 40 3b 72 29 75 3d a6 db 42 bd f1 68 37 bd
       0.002934547 0.05985398 -0.047572754 -0.044777814
000100 ab 05 ba bc 3a 7b 18 bc 3e 16 7b bd bf e6 62 3d
       -0.02270778 -0.009306723 -0.06130051 0.055395838
000110 6e 6d 9f bc 45 12 a2 bd 92 6b ef bc 21 6c 0f bd
       -0.01946136 -0.07913641 -0.029226098 -0.03501523
000120 5d 59 9c 3b 53 19 11 bd e1 5a 14 3c f3 c4 21 3e
       0.004771395 -0.03542454 0.00905487 0.15797786
000130 0b 02 0f 3e 91 83 98 bc 86 0b 5c 3d bd 5e 49 3b
       0.13965623 -0.018617423 0.053721927 0.0030726634
000140 c6 66 86 3d 2f d4 55 3d 6c 46 99 b9 01 c3 cb 3c
       0.06562571 0.052204307 -0.00029234902 0.024873259
000150 f8 e7 0a bd dd 87 dc 3c ef d5 b9 3d 7b 88 87 3c
       -0.03391263 0.026920253 0.09074008 0.016544571
000160 4a d8 30 3c 31 c6 ba 3c b8 aa 46 bd 49 0c 7f 3c
       0.010793755 0.022799583 -0.048502654 0.015566894
000170 24 ea 65 bc 21 90 5e 3c bc cd c9 bc 2f fb 20 3e
       -0.014032874 0.013584168 -0.024634235 0.15720819
000180 aa ec d6 3c a9 3f 9f 3c 6b 0c a7 3d 95 5f 9e 3b
       0.026235897 0.019439535 0.081566654 0.0048331716
000190 55 63 b2 3c 86 94 24 3d bf 67 4d bc c9 9b 2b bb
       0.02177588 0.040180705 -0.012536942 -0.0026185384
0001a0 d2 f3 08 3d e3 80 c9 bb ae e5 e0 3c 38 d5 a5 3c
       0.03343565 -0.0061493977 0.02745327 0.020243272
0001b0 3b e1 0a bc 05 88 4c bc 03 19 2c bc 9b 71 75 3a
       -0.008476551 -0.012483601 -0.01050401 0.0009362937
0001c0 4f f2 ec 3d 0f 5f 86 3c d8 67 f2 bc ff 8e 06 bd
       0.11569654 0.01640275 -0.029590532 -0.032851215
0001d0 96 01 17 3b c3 d0 65 3d e6 48 9c 3d 70 24 85 3d
       0.0023041717 0.056107294 0.07631092 0.065010905
0001e0 69 55 19 bd 9f 99 93 3c 15 3d 21 3d 7f 25 94 bd
       -0.03743497 0.018017588 0.039364893 -0.07233714
0001f0 e8 ff a2 bc 16 36 63 3d 5b be 88 3a 9b 83 83 3d
       -0.019897416 0.055471502 0.0010432707 0.06421586

weight f4 [96, 128]
000000 46 d4 2d bd 51 4a 94 be af 7e 48 bd 34 5c b4 bb
       -0.042438768 -0.2896295 -0.04894894 -0.0055041555
000010 02 01 29 3d 45 c2 44 be 03 ad f7 3d c1 ab 84 bb
       0.041260727 -0.19214733 0.12093546 -0.004048795
000020 0d 44 c9 bd ac ef ba 3e c0 81 a8 3c 3b d2 87 3c
       -0.09827433 0.3651098 0.020569682 0.016579738
000030 4d fe 7d bd 64 08 e1 3d fa bd 03 3d b9 1e b5 3d
       -0.0620101 0.109879285 0.032163598 0.088437505
000040 0a 8e 71 ba d1 c9 9c bd ab c0 59 bd 7a 2d 87 3d
       -0.0009214586 -0.07655681 -0.053162258 0.06600471
000050 18 52 03 3d 6f f6 15 3d 58 da e3 3d 1c eb 5a bc
       0.032060713 0.03661197 0.1112563 -0.0133617185
000060 4b f6 fc 3d 56 57 7b bd bc 94 a5 3e 1b 9e db 3d
       0.12351664 -0.061362587 0.32340038 0.107235156
000070 fe d2 3b bd cc 7d c0 bd 1f 8b b5 bd db ac 12 3d
       -0.045855515 -0.09398994 -0.08864426 0.03580938
000080 7a 04 09 be ca 38 1a bd e7 e2 44 be f5 71 ab bd
       -0.13380614 -0.037651815 -0.19227181 -0.08371345
000090 52 18 f7 3c eb 0b 07 be 06 92 74 3d 9c e2 27 bd
       0.030162964 -0.1318814 0.05970957 -0.040987596
0000a0 39 1c b2 3c d6 8d 48 3d cd 23 d0 bc f0 72 64 bd
       0.021741973 0.04896339 -0.025407696 -0.055773675
0000b0 ec 6c aa 3c 2e 44 6c be c1 b6 5e 3d 47 1a 7f bd
       0.020803891 -0.23072883 0.054373506 -0.06228092
0000c0 79 96 10 bc 42 c6 7b 3d 04 c5 c7 bd 9a 6f 02 bd
       -0.008824938 0.06146837 -0.097543746 -0.031844713
0000d0 65 3c 61 bd 7d 1c c3 bc bd 0d 3f be db 4c 66 3d
       -0.054989237 -0.023817295 -0.18657584 0.05622564
0000e0 86 a9 0d be 4e ce b2 3c 80 19 04 bd 0e 07 09 3d
       -0.138342 0.02182689 -0.03225088 0.033453993
0000f0 6f c0 3c bd 39 f8 77 3d 3a 91 68 bc 01 a6 65 3d
       -0.046081956 0.060539458 -0.014194781 0.056066517
000100 f1 94 1c bd 72 01 c6 bd 4e 0b 12 3e 54 6e 4c bc
       -0.03822798 -0.096682444 0.14262125 -0.012477476
000110 db 82 10 3c 50 99 c9 3c 1b 20 fb 3c 6c 32 49 3d
       0.008820261 0.024609238 0.030654958 0.04912035
000120 d0 d2 08 bc ab a9 80 bc cc 17 d7 3d 12 85 09 bc
       -0.008351043 -0.015705904 0.10502586 -0.008393543
000130 38 1c 2e be 70 46 16 3d 89 b4 96 bd 62 c3 3a bd
       -0.17002952 0.03668827 -0.07358653 -0.045596488
000140 4c 63 4a 3d 8d 8b 09 3c 19 dc 50 bc cf ca 86 3d
       0.049411103 0.008395088 -0.012747788 0.065816514
000150 8f 6a 5a 3c fb eb bb 3d e2 9a df 3d 11 65 39 be
       0.01333107 0.09175869 0.109182134 -0.1810496
000160 43 00 8a 3c 9d 32 e3 bc 40 25 ce bd 9a 4d ba bd
       0.016845828 -0.027734095 -0.100656986 -0.090968326
000170 70 88 de 3d 24 c2 81 3d 88 41 4d 3c c8 92 bb bc
       0.10865867 0.063358575 0.012527831 -0.02289714
000180 c9 02 8e 3d 2b 2f 20 3e ef 3d 90 3e 2a 2d d5 bd
       0.06934125 0.15642993 0.28172252 -0.10409005
000190 59 6d d4 bd f4 0b f5 3d 81 ac 0b bd 2f ec f9 3b
       -0.10372419 0.119651705 -0.03410006 0.007627032
0001a0 99 1f 6f 3c 25 81 94 3d 4e 6a 02 3e 3a e2 58 bd
       0.014594936 0.07251195 0.12735865 -0.05295012
0001b0 0f 80 4d be f6 dd ec 3d cf bb 8d bb 36 77 6a 3d
       -0.20068382 0.11565773 -0.004325367 0.057242595
0001c0 c3 1f 17 3e e6 25 51 3d 0f 8d 05 bb f8 59 ba bc
       0.1475821 0.051061533 -0.0020378267 -0.022747979
0001d0 85 16 c6 3d cd c0 d7 3c 0a 9a 04 3e 46 b5 db bb
       0.09672264 0.026337052 0.12949386 -0.006704959
0001e0 cb a7 9b bd aa ab 0d 3c 9d a8 c3 bd a2 ee ee 3c
       -0.07600363 0.008646885 -0.09553645 0.029166523
0001f0 a1 34 0e be c6 78 c7 bb 7f 58 cd 3d 2e b5 32 3e
       -0.13887264 -0.0060873954 0.10026645 0.17451927
000200 d6 27 ac bd 55 6e 9a 3d 0a 26 b7 bd dd e0 58 bc
       -0.084060356 0.075405754 -0.08942802 -0.013237205
000210 8b 13 86 bc 69 a7 f7 39 76 bd 4b 3c 5e 11 bc 3d
       -0.01636674 0.00047236242 0.012435308 0.09183
000220 16 8b df 3b f6 5c 5b bc e7 c4 07 bd 56 be ba bc
       0.0068220003 -0.013388863 -0.033146765 -0.022795837
000230 6f 18 51 bc c9 83 03 3d db 83 29 3d b5 b2 c9 3b
       -0.012762173 0.032108102 0.041385513 0.0061553367
000240 51 d0 b3 3d e8 2f 0f bd 98 07 79 3d f6 8e 4a bd
       0.087799676 -0.034957796 0.060798258 -0.049452744
000250 c7 6f c1 bd dd 22 84 3c 0d 1c cc bc 07 d6 d2 3c
       -0.09445148 0.016129905 -0.02491572 0.025736822
000260 59 69 e8 3c 83 55 aa 3c d6 3f 7d 3c 5f 12 b5 bd
       0.028370546 0.020792728 0.015457114 -0.08841395
000270 a6 bd 2d bd df 8b 07 3e 4c c4 8f bd 36 1e 1a bd
       -0.04241719 0.1323695 -0.070198625 -0.037626468
000280 48 55 8a 3d d0 f5 a5 3b a5 a4 29 3b 07 5b 26 be
       0.06754547 0.0050647035 0.002588549 -0.16245662
000290 94 19 5f bd 8c 00 0d be 83 43 e9 3d 79 64 c0 3c
       -0.054467753 -0.1376974 0.1138983 0.02348541
0002a0 ad ff f0 3c 05 30 51 bd 57 3d 68 3d 16 d1 e4 bc
       0.02941879 -0.051071186 0.056699123 -0.027931731
0002b0 b8 7c 46 3d 78 9e 5b bd 66 37 a9 3c f7 fb 12 3e
       0.048458785 -0.053617924 0.020656299 0.1435393
0002c0 52 c1 68 3b 88 7e 54 3c b8 f6 39 3d fb 9c 6b bd
       0.0035515619 0.0129696205 0.045401305 -0.057522755
0002d0 2d 30 d6 bd 48 15 2b be 8d 20 d7 bc 1b 4d 03 3d
       -0.104584076 -0.16707337 -0.026260639 0.032055955
0002e0 01 58 42 3d 9d 25 ae 3d 38 aa a0 bc ba ff 1a 3c
       0.04744721 0.08503268 -0.019612417 0.009460384
0002f0 b1 c5 d5 3c 25 7e 53 3d b8 3e 2f bc 28 ad 81 bd
       0.026095243 0.051633973 -0.010696106 -0.06331855
000300 9f cb 0f bd 69 d7 8b bd 0a 4f 03 bd 55 63 28 3d
       -0.035106298 -0.068281956 -0.0320578 0.041110355
000310 37 aa 94 bd 75 ed 98 3d 01 0f 99 3b 82 ed ba 3c
       -0.072590284 0.07467166 0.004670978 0.02281833
000320 31 cc 6a 3b 97 13 c3 bd 21 e0 e7 bc 4f 89 ca 3c
       0.0035827274 -0.09525221 -0.028305115 0.024723677
000330 a1 fb 68 3c 5d 63 e9 3d 8a 90 40 bd 73 9a 98 3d
       0.014220149 0.11395905 -0.047012843 0.07451334
000340 96 d7 ab 3c 16 1f 40 bd 49 0f 95 bd 2b 0f e0 3c
       0.020976823 -0.046904646 -0.07278306 0.027350983
000350 4f f6 b6 3d 37 de 20 3d fa cd 20 bd 78 3d b7 bc
       0.089336984 0.03927442 -0.039258935 -0.022368178
000360 9a e6 07 bd a9 cb 96 be 8c 53 51 bd ae 72 ed bd
       -0.033178903 -0.29452255 -0.051105067 -0.11594139
000370 70 bb b6 3c ce be fa 3d 02 ba 02 3e 41 56 1f 3d
       0.022306174 0.12243424 0.12766269 0.038900618
000380 76 16 4c 3d b7 77 16 bd 76 c5 bc 3c c2 c9 93 bc
       0.049826108 -0.036735263 0.023043375 -0.018040542
000390 d8 67 37 be a5 7f b4 3d f7 5a 23 bc 54 fb 28 bd
       -0.17910707 0.08813409 -0.009970418 -0.04125531
0003a0 4c 5d 4b bd be 1b 68 3d 9f c1 29 3d 05 b6 34 bd
       -0.04964952 0.056667082 0.041444417 -0.0441189
0003b0 e6 8c b9 3d a8 8b 00 3b ba f4 56 3d 40 e1 f0 bc
       0.09060077 0.0019614492 0.052479483 -0.029404283
0003c0 aa 5d 26 3c 33 3a fc 3c 4b cd 8d 3d be be 0d 3d
       0.010154167 0.03078947 0.06923922 0.034605734
0003d0 b4 83 03 3d af 39 56 3d 77 e0 91 3d 90 09 7f bc
       0.032108024 0.052301105 0.071228914 -0.015566245
0003e0 62 2a 33 3d 51 df 24 bc 7e 79 84 bd ec 92 90 3c
       0.04374159 -0.010063008 -0.06468485 0.017648183
0003f0 6c dd 72 3d 53 d5 f9 bd 1f 71 58 bd 27 f5 76 bc
       0.059293196 -0.121988915 -0.052842256 -0.015073097

bias f4 [96]
000000 da 84 bb 3d fa 7b 3c 3d 43 0e e9 3d 61 ea 03 bc
       0.09156199 0.04601667 0.11379673 -0.008051486
000010 d0 28 23 bb b7 b0 b6 3d 47 2e f3 3c 10 ef d8 bc
       -0.0024896152 0.089204244 0.029685153 -0.026481181
000020 46 3a 10 3d 19 57 e1 bc ff 57 8a bd 6c 3d 00 3d
       0.035211824 -0.027507352 -0.06755065 0.031308576
000030 02 32 4f 3d cc 64 63 3c 8b 61 94 bc 0f 1c 3f bd
       0.0505848 0.013879012 -0.018112918 -0.046657618
000040 12 86 04 ba 52 52 db 3c 2b b5 10 3b a0 62 ca 3d
       -0.00050553784 0.026772652 0.002208064 0.098820925
000050 b8 f6 e6 3d 00 83 83 bc 15 7b 32 3d 4d 7b 50 bc
       0.112775266 -0.016053677 0.04357441 -0.01272471
000060 06 29 48 bd f6 51 2f bc ef 83 90 3d c4 77 3a bd
       -0.048867248 -0.010700693 0.07056414 -0.045524374
000070 c1 31 0c 3d 69 90 15 ba 8c af 33 3c 8f dc ee bc
       0.034227137 -0.0005705418 0.010967147 -0.029157905
000080 93 1f 01 bd a1 f4 0a bd ca e9 96 3d 4d 97 f9 3c
       -0.031524252 -0.033924703 0.073688105 0.030467654
000090 07 6f 0c bd 9c 5a 64 bd b9 87 44 bc fa 2a a6 3d
       -0.03428557 -0.055750474 -0.011995249 0.08113666
0000a0 64 d8 a9 3b 5b 37 3d 3b 77 e0 88 bb 06 22 1e bd
       0.0051832665 0.0028872106 -0.004177149 -0.038606666
0000b0 8d d5 39 bd 73 11 88 3d a5 41 b9 3d 7e 4a 93 3c
       -0.045369674 0.06643953 0.09045724 0.017979857
0000c0 53 84 99 bd 0b 7f 8e bc 8d a2 a9 3d d6 f8 c2 bb
       -0.07495942 -0.017394563 0.08282957 -0.0059500737
0000d0 e0 18 41 bd 1b 6a 64 bd fb 34 88 3c 61 9d c0 bc
       -0.047142863 -0.055765253 0.016626826 -0.023512544
0000e0 d9 e4 b3 bd 23 79 86 3c ad 32 8f 3d 8f dc 0f bd
       -0.087838836 0.016415184 0.069920875 -0.03512245
0000f0 c3 b6 ef bb 95 00 28 3d 7c 35 a7 bb c3 d1 82 3d
       -0.007315488 0.04101618 -0.0051028114 0.06387665
000100 66 af b1 bc 7c de 3c bd e8 08 ed 3c c4 f5 da bc
       -0.021690082 -0.046110615 0.02893491 -0.026728518
000110 52 a3 29 3d ae 97 b2 bb 81 d6 c5 bc 46 38 b4 3d
       0.04141552 -0.0054502105 -0.024150135 0.08799796
000120 32 d7 9e 3d 22 f0 91 bd 9a 54 3b 3b e4 e4 07 3d
       0.07755889 -0.0712588 0.0028584362 0.03317727
000130 f8 a9 d4 bc f5 35 7f bd c0 39 76 bd b7 b9 9b bd
       -0.025959954 -0.062307317 -0.06011367 -0.07603782
000140 c4 e9 0c 3d f4 ea a6 3d b5 11 87 3c ec fc 05 3c
       0.034402624 0.081502825 0.016487936 0.008177977
000150 8c 67 92 3d ac c7 90 bd 08 58 70 3c b5 3d 69 3d
       0.07148656 -0.070693344 0.014669426 0.056943614
000160 1a 77 c5 3c 7d 2a 4c 3c f2 ba 9a 3d 9b 42 a7 bc
       0.024104644 0.012461302 0.07555188 -0.020417502
000170 9e 51 65 3d ea dc 17 3d e3 79 40 bd 6e 2f 8b 3d
       0.05598604 0.037075914 -0.04699124 0.06796156

weight f4 [96]
000000 0f 66 a0 3f fa 73 f1 3f 46 86 e9 3f 59 ad be 3f
       1.2531146 1.8863518 1.8244102 1.4896652
000010 83 26 f8 3f 3e 76 25 40 aa 72 de 3f 0e 60 d9 3f
       1.9386753 2.585342 1.7378743 1.6982439
000020 42 fd 20 40 51 3a 0f 40 28 6d d9 3f 66 53 e2 3f
       2.5154576 2.2379344 1.6986437 1.7681701
000030 d2 b7 a7 3f 2d c1 dd 3f 18 de eb 3f 55 30 01 40
       1.3102973 1.7324578 1.8427153 2.018575
000040 f3 a6 cd 3f 7e 92 0b 40 eb 7a f3 3f d8 0b ca 3f
       1.6066574 2.1808162 1.9021887 1.5784864
000050 6a d1 ce 3f 6e 54 10 40 81 e3 09 40 0f 23 c5 3f
       1.6157658 2.2551532 2.1545107 1.5401324
000060 7e 3d ca 3f 52 3f 7d 3f 0d c2 e3 3f 85 15 89 3f
       1.5800016 0.98924744 1.7793595 1.0709692
000070 4e d7 13 40 53 a7 f0 3f 54 6b 99 3f 90 5d e6 3f
       2.3100162 1.8801063 1.1985879 1.7997303
000080 17 8e 10 40 9d 9c 1a 40 8d 6c 34 40 8b ce 19 40
       2.2586725 2.415809 2.8191254 2.4032314
000090 6d 33 db 3f 55 42 00 40 30 40 ea 3f cc b3 e2 3f
       1.7125069 2.0040486 1.8300838 1.771112
0000a0 7c 8a c9 3f d2 00 cd 3f 72 55 d6 3f 5d 58 c8 3f
       1.5745387 1.6015875 1.6744826 1.5651966
0000b0 8a 86 f2 3f f6 68 b8 3f 72 fd db 3f c5 7f f7 3f
       1.8947308 1.4407032 1.718672 1.9335867
0000c0 d7 0b e5 3f cc 2e aa 3f 0e 97 e7 3f af 8e d5 3f
       1.7894238 1.3295531 1.8092973 1.6684169
0000d0 88 29 34 40 64 41 1c 40 21 96 1f 40 dc bf 01 40
       2.8150349 2.4414911 2.4935381 2.0273352
0000e0 19 1f 03 40 02 cd d3 3f 54 3a df 3f 5c ee 23 40
       2.048773 1.6546938 1.7439675 2.5614233
0000f0 5d 3e a0 3f c6 a1 dd 3f a4 1b c3 3f 8d b7 11 40
       1.2519032 1.7314994 1.524281 2.276828
000100 05 b6 ea 3f 95 4b 12 40 06 29 c0 3f 90 15 e0 3f
       1.8336798 2.2858632 1.5012519 1.750658
000110 76 23 22 40 c9 f5 c5 3f a1 b3 07 40 7e c8 da 3f
       2.5334144 1.5465633 2.1203387 1.7092435
000120 af 7b fb 3f 0a 59 ee 3f 9f ce 35 40 f7 27 f2 3f
       1.964712 1.8620923 2.8407362 1.8918446
000130 6b 25 e7 3f 61 f1 f2 3f e0 05 17 40 5f 1d 32 40
       1.8058294 1.8979913 2.3597336 2.7830427
000140 30 13 e2 3f bb 81 b0 3f ea 03 e1 3f 58 c2 06 40
       1.7662106 1.3789591 1.757932 2.1056118
000150 a1 2c b9 3f 7f 6b 2b 40 3e 2e da 3f f5 34 de 3f
       1.4466745 2.678436 1.7045362 1.7359911
000160 a7 5e 07 40 59 02 d9 3f ed 00 d7 3f 65 00 07 40
       2.1151521 1.6953841 1.6797158 2.109399
000170 82 22 b4 3f 21 76 07 40 9b dd ea 3f 18 ec e2 3f
       1.4073031 2.116585 1.8348879 1.77283

bias f4 [96]
000000 09 ea 03 be 5b 3b 9c be e3 88 40 3e d4 9f 2e bd
       -0.12882246 -0.30514035 0.18802218 -0.042632893
000010 b2 61 84 3d 12 0b 38 be 84 65 bc be f4 39 0a 3e
       0.064639464 -0.17972973 -0.367962 0.1349867
000020 f4 bf a9 3e 4a 89 dd 3c a0 13 17 bd 2e 6c 2a 3e
       0.3315426 0.027043004 -0.03688395 0.1664283
000030 63 1b a7 be 89 57 29 3e 7b 1d 3c 3e 4f ef 3f bf
       -0.32638082 0.16537298 0.18370621 -0.7497453
000040 fe 5a a6 3e 62 97 ba be 88 14 ca 3e 41 13 1f 3d
       0.32491297 -0.3644362 0.3946879 0.03883672
000050 e4 57 1b be b1 e5 93 3d ec 5b 93 bd 59 88 a8 3d
       -0.15170246 0.072215445 -0.07195267 0.08229131
000060 b1 81 28 3e 1a 16 24 3c 91 2e 7e 3d 86 43 54 be
       0.16455723 0.010015035 0.062056128 -0.20728883
000070 e5 e3 27 bf d7 0a bc bd 83 e0 2c 3e 93 3e a3 bd
       -0.65582114 -0.09181755 0.1688252 -0.079709195
000080 c0 84 3a be 7b f7 fe be 8a e2 bc 3e 02 b0 94 bd
       -0.18214703 -0.49798188 0.36891586 -0.07260133
000090 fa 98 96 3e aa b8 dd bd b3 42 35 be 27 f4 39 3d
       0.29413587 -0.108262375 -0.17701225 0.045398857
0000a0 9e 65 1f be a5 51 af bd f6 7a 87 be 8b e0 9f 3e
       -0.15566108 -0.08560494 -0.26461 0.31226
0000b0 c0 a0 f2 bc 96 be 60 3e f7 61 e7 3d af 6c 06 3f
       -0.029617667 0.21947703 0.11297982 0.5250959
0000c0 71 2e 5b 3e 40 a1 07 bd 40 cd 1f 3a c6 54 54 3d
       0.21404435 -0.033112764 0.0006095953 0.05183866
0000d0 fa b6 44 bf 0b c7 bb 3e f5 b2 19 3e f3 74 e8 be
       -0.768417 0.36675295 0.15009673 -0.45401725
0000e0 d4 ea d7 be 05 cf c6 3d ee 01 13 be a1 6a eb 3d
       -0.42171347 0.097074546 -0.14356205 0.11494947
0000f0 b9 84 03 be a2 e7 c5 3e 6f 00 45 be ee 80 ec be
       -0.12843598 0.38653284 -0.19238447 -0.46192116
000100 42 97 0f bf ab 15 82 be c4 6f 3a 3e f7 16 b1 3d
       -0.56090176 -0.25407156 0.18206698 0.08646958
000110 28 c6 86 be e9 96 af 3d ac 37 2b bf 7f 7a d8 3e
       -0.26323056 0.08573706 -0.66881824 0.42280957
000120 1c 06 92 3d 99 8d 36 3c 9a 59 42 bf 30 0c 9b 3e
       0.071300715 0.011142158 -0.7591797 0.30282736
000130 c6 a9 da 3e 8d e1 8f 3e 14 5b 70 be 6d e7 ac bf
       0.42707652 0.2810177 -0.23472244 -1.3508126
000140 83 35 6d 3d b6 a3 9c bd 5b 3b 6d be 9f 99 06 be
       0.05791236 -0.07648413 -0.23167174 -0.1314454
000150 d5 0a 00 ba b7 75 cb be d1 f9 80 3e d6 75 2b 3d
       -0.00048844266 -0.39738247 0.25190595 0.041860424
000160 c4 22 ae bd 4f bb cc 3e de 15 49 3e e2 72 1c bf
       -0.08502725 0.39986655 0.19637248 -0.611128
000170 e0 20 83 3e 2f b8 24 be 45 18 0c be d2 8c bd be
       0.2561102 -0.16085885 -0.13681133 -0.370215

weight f4 [1, 96]
000000 e5 96 85 3e c2 1a 89 3f 18 a9 4b 3f 88 b0 09 bf
       0.26091686 1.0711291 0.7955489 -0.5378499
000010 8c 24 68 bf 9e 15 d8 3f 38 e7 47 bf 8a 6c 47 bf
       -0.90680766 1.6881597 -0.78087187 -0.7789999
000020 c3 2b b6 bf 2e dc 93 bf 47 f6 30 3f c8 9b 43 3f
       -1.4232105 -1.1551569 0.6912579 0.7640958
000030 f4 83 d7 3e 1a a3 2f bf 74 95 50 bf fa 6a ae 3f
       0.4209286 -0.6860825 -0.8147805 1.3626397
000040 39 03 1f bf 6d 65 aa 3f 11 4d 61 bf fb 1f 2a bf
       -0.6211429 1.3312203 -0.8800822 -0.6645505
000050 09 13 39 3f cb 79 91 3f 45 c1 9e 3f c0 40 1a 3f
       0.7229467 1.1365293 1.2402731 0.6025505
000060 42 9c 1f bf ee ee b0 3d 4a 58 3b 3f 41 c8 fd 3d
       -0.62347806 0.08639322 0.73181593 0.12391711
000070 86 7b cf 3f ed 95 76 3f 8a af 58 3e 76 78 51 bf
       1.6209571 0.9632252 0.21160713 -0.81824434
000080 6c 7c a9 bf 41 c2 bf bf 41 df da 3f ce ce a8 bf
       -1.3241096 -1.4981157 1.7099382 -1.3188112
000090 84 0d 34 bf 40 32 8c bf d7 67 63 3f 85 2e 4a 3f
       -0.70333123 -1.0952835 0.8883032 0.78977233
0000a0 8b f9 27 bf 64 4e 27 3f 51 35 44 3f 2e 5f 0b bf
       -0.6561515 0.6535399 0.76643854 -0.5444211
0000b0 0f b1 72 3f 9a 71 e2 3e 66 3e 40 3f 40 c5 5c bf
       0.9480142 0.44227296 0.7509521 -0.8623848
0000c0 6a e0 4c 3f 9e b7 a5 3e 48 51 5f 3f 8c bc 29 3f
       0.8002993 0.3236665 0.872334 0.66303325
0000d0 1f 30 0a 40 91 00 a4 bf e1 e6 bc bf b3 30 a8 3f
       2.159187 -1.2812673 -1.4757959 1.3139862
0000e0 99 81 a0 3f e0 55 37 bf ab 27 5f 3f 60 00 be bf
       1.253955 -0.7161541 0.87169904 -1.4843864
0000f0 27 c9 95 3e 8a 74 4c bf 99 c2 23 3f 64 d4 ad 3f
       0.2925503 -0.79865324 0.6396881 1.3580441
000100 ee a1 86 3f 92 36 b9 bf f8 fa 01 bf 55 d6 46 3f
       1.0518167 -1.4469779 -0.5077357 0.77670795
000110 ed af cd bf 12 83 1b 3f 3a 8e bc bf be ae 47 bf
       -1.6069313 0.6074687 -1.4730904 -0.7800101
000120 6a cd 6b bf 2b ce 63 3f 54 12 00 c0 80 f0 5f bf
       -0.9211031 0.8898646 -2.0011187 -0.8747635
000130 27 53 4d 3f 0d f9 68 3f 57 d3 b9 bf 27 a5 30 c0
       0.80205005 0.9100502 -1.4517621 -2.76008
000140 93 cd 40 bf 64 84 dc 3e 4e b9 5c 3f b2 24 9f bf
       -0.7531368 0.43069756 0.8622025 -1.2433074
000150 a9 bc e2 3e 51 59 e7 bf ee c6 37 3f dc 83 49 bf
       0.4428456 -1.8074132 0.7178792 -0.78716826
000160 25 ca 87 bf dd cf 3d bf 55 00 23 bf e4 91 b0 3f
       -1.0608565 -0.741453 -0.6367238 1.3794522
000170 6a 82 ed 3e f4 48 92 3f 3e c9 70 bf 34 24 7c 3f
       0.4638856 1.1428514 -0.9405707 0.9849274
