model/critic.pt (torch, 84947 bytes, 9 tensors)

weight f4 [128, 44]
000000 d6 a9 73 bd 61 9d a2 3d f0 f4 a5 3d cb e1 18 bd
       -0.05948814 0.07940174 0.08103359 -0.037324708
000010 72 74 83 3d 3a 4c 11 3e 1b 69 f3 bd 08 3a b9 bd
       0.064186946 0.14189234 -0.11885282 -0.09044272
000020 7c 91 17 3e 2c 98 a3 3d 9e 21 98 b9 d8 33 a9 3d
       0.14801592 0.07988009 -0.00029016746 0.082618415
000030 bf 9e 98 bc 37 bf 6e 3c b0 df 10 bd 17 0c ce 3c
       -0.018630384 0.014571956 -0.035369575 0.02515225
000040 66 b3 d2 3c e9 6e 99 bd fa ca a9 bd 04 40 d3 bc
       0.02572031 -0.074918576 -0.08290668 -0.025787361
000050 87 85 1f 3d 52 ac 02 3e a7 56 cb bc 23 3a 22 bd
       0.0389457 0.12761047 -0.024821592 -0.039606225
000060 a8 84 98 3d e4 c0 6d 3c ff 41 ce bd a0 9b b9 3b
       0.07447177 0.014511321 -0.100711815 0.005664304
000070 02 aa 45 3d 0e 11 12 be a6 6c 0a 3e c1 b8 b7 bc
       0.048257835 -0.14264318 0.13518009 -0.022426965
000080 15 26 18 be 07 aa 07 3e 26 93 f4 bd 50 f5 de bd
       -0.14858277 0.13248454 -0.11942129 -0.108866334
000090 04 2a ce bd 18 c2 d0 3c 4b 86 b8 bd d8 7b 77 3d
       -0.100666076 0.025483176 -0.09009989 0.06042084
0000a0 3c d0 11 3d 07 07 cb 3d e3 1d 15 be 78 d1 dc bd
       0.03559898 0.0991345 -0.14562182 -0.107821405
0000b0 8d d7 03 3e 90 8d 99 3d 00 8a 79 bd 5e da 5a 3d
       0.12875195 0.07497704 -0.060922623 0.053430907
0000c0 e3 2a de bd bf b8 4f 3d 7b f7 a5 3d e9 c4 83 bd
       -0.10848024 0.050713297 0.08103844 -0.06434042
0000d0 2f e1 90 bd d1 49 ad bb 16 82 f9 3d 41 5c 9d bd
       -0.070742 -0.0052883406 0.12183015 -0.07683612
0000e0 c6 22 1c 3d f3 3f 10 3e a6 8e fb bd 28 6a 42 3d
       0.0381191 0.14086895 -0.122830674 0.04746452
0000f0 5f 7a 3d 3d 4f d3 a0 bd a6 4a 09 bd ec 3b cf 3d
       0.04625928 -0.07852804 -0.033518456 0.10118851
000100 0f 6d 15 3e 90 18 fb bd 5f d8 18 3e 2e 45 65 3d
       0.14592384 -0.12260544 0.14926289 0.055974178
000110 72 25 53 bd ac 87 9e bd 4d 7a f3 3d d1 51 7f bd
       -0.051549383 -0.07740721 0.118885614 -0.062333886
000120 57 c9 08 be bc 62 f2 bb ac f3 10 be 4f 0c 83 3d
       -0.13358055 -0.007397024 -0.14155453 0.06398832
000130 15 25 03 bd 5b 0c 3b bd e8 16 d6 bd 24 75 16 be
       -0.032017786 -0.04566608 -0.10453588 -0.14693123
000140 52 e9 c7 bd e2 e8 b6 3d 49 e8 09 3d 3d 86 da 3d
       -0.09761299 0.089311376 0.03366879 0.10670135
000150 6b cc e1 3d 1c a8 18 bd 77 9e 3f 3d 7c 85 26 bd
       0.11025318 -0.037269697 0.046781983 -0.040654644
000160 1c e1 ea bd fc 94 9e 3d 68 ef 10 be 05 ae 01 bd
       -0.114687175 0.0774326 -0.14153826 -0.0316601
000170 70 85 df 3d 67 a0 b5 3c 35 fd 32 bd 31 d7 ed bd
       0.10914123 0.022171212 -0.04369851 -0.1161331
000180 32 27 89 bd a7 0b c7 3d 1b 9e 23 3d 55 b9 c1 bd
       -0.06696929 0.097190194 0.039945703 -0.094591774
000190 b6 5b b3 3d 77 a3 85 3d e3 7b 9f 3d 37 16 80 bd
       0.08757727 0.06525319 0.077873014 -0.06254237
0001a0 05 a3 8c bb 17 75 39 bd 5e 6e 2a bd 40 b4 e1 bd
       -0.0042918944 -0.04527768 -0.04160916 -0.11020708
0001b0 dd a9 93 3d 11 ed 0f be a4 22 c0 bd 32 04 0c 3e
       0.07210133 -0.14055277 -0.09381607 0.13673475
0001c0 59 c6 94 bc 43 6f cf 3d 26 26 f2 bd 9f ab c1 bd
       -0.018160986 0.10128643 -0.118236825 -0.09456562
0001d0 90 52 18 be 87 2f 3f bd 8c 03 24 3d b7 f3 b0 bd
       -0.14875245 -0.046676185 0.040042445 -0.08640235
0001e0 31 1d ad 3c 97 c6 4b bd 5f 13 d1 bd 62 b5 e3 bd
       0.021132084 -0.049749937 -0.10208773 -0.111185804
0001f0 35 15 09 3b 13 01 51 3d da 62 ef bd 42 3e b8 bd
       0.0020917181 0.051026415 -0.11688776 -0.0899625
000200 84 1f d6 bd 25 10 e7 bd 70 af c5 3c ba 5b 86 3d
       -0.1045523 -0.11282376 0.024131507 0.06560464
000210 09 09 a7 3d de 97 77 3c 85 af a8 3d 28 98 b9 ba
       0.0815602 0.015111892 0.08236603 -0.0014159726
000220 39 2e f1 bd 72 de b7 bb c7 84 8f 3d 5f 7f e5 bc
       -0.117763944 -0.0056112343 0.07007747 -0.028014837
000230 c0 82 d5 3d 89 f5 0a be e9 8d f0 3d 0d 09 83 bd
       0.10425329 -0.13570227 0.11745817 -0.06398211
000240 5c 33 89 bc 98 fe 97 bd 0f 60 c3 3c b6 06 00 be
       -0.016748123 -0.07421607 0.023849515 -0.1250256
000250 8d 56 97 bc e9 9f 0f be 59 7b c0 3d 78 49 96 bd
       -0.018473888 -0.14025845 0.09398527 -0.07338232
000260 f1 f4 db 3c 98 70 c7 3d d2 54 07 bd dc 07 c0 3d
       0.026850196 0.097382724 -0.033039875 0.09376499
000270 a2 27 ce bd 87 5c 66 bc 5a db 15 3e 03 f4 e6 bd
       -0.10066153 -0.014060146 0.14634457 -0.1127701
000280 38 c8 c2 3d 25 17 ec 3d 98 35 05 be 3e 72 cb 3d
       0.09510845 0.11527852 -0.13008726 0.09933899
000290 2f 38 11 be 08 c4 e1 bc 3f c2 0d bd 3b fd 5b bd
       -0.14181589 -0.027559295 -0.034609076 -0.053708296
0002a0 53 28 d0 3d b2 69 29 bb b9 3c d4 bd ea a2 9a 3d
       0.10163941 -0.0025850353 -0.103631444 0.07550605
0002b0 c3 14 96 bc 3d 75 92 bb 06 36 f5 bc c0 d2 eb bd
       -0.018320447 -0.0044695423 -0.029932987 -0.11514807
0002c0 34 21 ba bd 61 79 e0 bd 81 06 09 3e e6 cb c9 bb
       -0.09088364 -0.10960651 0.13381387 -0.00615834
0002d0 98 ef 9b 3d be 71 8d bc ef 73 bf bd 0c 6c 3a 3c
       0.07614058 -0.01726615 -0.093482845 0.011378299
0002e0 d4 53 93 bc 84 cc 0d 3e 64 c8 10 3e 04 1b 87 3d
       -0.017984308 0.13847548 0.14138943 0.0659695
0002f0 3d 87 1e bd 3f 89 35 bd ef e9 9c bd c7 fd 22 bd
       -0.038703192 -0.04432034 -0.07661807 -0.039792802
000300 35 9c 68 3d 8c 36 a2 bd 35 d7 c9 ba 4d b8 c0 ba
       0.056789596 -0.0792056 -0.001539922 -0.0014703363
000310 ae 8e e5 3d a9 d7 e2 bd bf fd 2e 3d 4f 0f 9c bc
       0.112088546 -0.1107629 0.04272246 -0.019050268
000320 c4 f1 a2 3d b8 1d 0d 3e a6 4f fe bc 07 19 10 be
       0.079562694 0.13780868 -0.031043839 -0.14072047
000330 ea b7 d8 3d 20 b3 be bd 93 67 bc 3d 57 5f cf 3d
       0.10581954 -0.09311509 0.09199443 0.101256065
000340 4d 3b 0c be 3b b5 ae 3d df 16 28 3d 43 a5 62 3c
       -0.13694496 0.08530661 0.041037437 0.013833347
000350 9f 27 9e 3c 9d a5 b0 3c a2 f5 d9 3d c8 47 f9 bb
       0.019306002 0.021563346 0.10642554 -0.007607434
000360 23 4e d6 3c 33 56 f1 3d a3 1e 04 3c 0b 04 f3 ba
       0.026160305 0.11784019 0.008063945 -0.0018540634
000370 ab 8a fc bb 90 4d 51 3d b9 56 86 bd d9 02 0e be
       -0.00770696 0.05109936 -0.0655951 -0.13868274
000380 9d 08 b6 bd 62 ed ac 3d 08 c8 77 bc c6 00 78 3d
       -0.088883616 0.08443715 -0.015123375 0.060547613
000390 dc 7d d5 bd a3 90 e8 3d c3 d9 c5 bd 35 1b 17 3d
       -0.104243964 0.11355712 -0.096606754 0.03689118
0003a0 ea 9c 29 bd 49 76 8e 3c 6c 78 d9 3d 62 f1 de bc
       -0.04140941 0.017390387 0.10618672 -0.02721471
0003b0 1a 85 4a bc be f0 cb 3d 4f 0f a5 bc d7 9b c7 3d
       -0.012360835 0.09958027 -0.020148901 0.09746521
0003c0 93 dd 18 be bb be 0b be a7 f6 3e bd 1e dd 04 bd
       -0.14928274 -0.13646977 -0.046621945 -0.032437436
0003d0 bf 77 80 3d 8a ef 93 3d e9 99 19 3e 53 23 26 3d
       0.0627284 0.07223423 0.15000118 0.04056103
0003e0 36 2a b5 3d 03 ec a3 bc d5 ae f0 3d 5c 0f ee 3c
       0.08845942 -0.02001 0.117520966 0.029060058
0003f0 06 31 bf bd 24 b2 15 3e dd 7f d3 3c 8b 6c a1 bb
       -0.09335522 0.14618737 0.025817806 -0.0049262694

bias f4 [128]
000000 a1 c8 9d 3d 51 cf 89 bc 30 00 0e be 9f 6a 98 bc
       0.077042826 -0.016822489 -0.13867259 -0.018605528
000010 22 8c 7b 3d 82 cf 8b bc 1c 89 47 bd 26 8c f8 bd
       0.061412938 -0.01706672 -0.048714742 -0.12136106
000020 9a ff 3c 3d c9 9d d2 bd 29 fa 52 bd 19 87 2d bd
       0.0461422 -0.102840014 -0.051508103 -0.042365167
000030 ea b7 14 be 4f 34 aa bb 68 d3 cd bd 3c df 15 3e
       -0.14523283 -0.005194224 -0.10050088 0.14635938
000040 b6 b9 b0 bd 19 c8 30 bc 6c d4 0c be 72 c9 0d bd
       -0.086291716 -0.0107898945 -0.13752908 -0.03461594
000050 9b 6f db bd e1 9c cc bd 26 32 dc 3d 3e 3e a2 bc
       -0.107146464 -0.0999086 0.107517526 -0.01980507
000060 b6 24 03 be 72 7f ac bd 5a b4 a3 3d 8e ee bf bc
       -0.12806973 -0.08422746 0.07993384 -0.023429181
000070 e1 36 f9 bd c4 66 09 be db 8c 0b bd a8 62 4b 3d
       -0.121686704 -0.13418108 -0.034069877 0.049654633
000080 e8 4d a3 bd 9d c2 e7 bd 6d 77 2f bd e2 1f 77 bd
       -0.07973844 -0.113164164 -0.042838503 -0.06033314
000090 15 0a 2c bd da 61 c9 bd a4 4a 51 bd 01 87 b2 bd
       -0.042001802 -0.09833117 -0.051096573 -0.08717156
0000a0 0d e8 49 3d b6 2f 4f 3d 26 84 4d bd 2f 91 df 3d
       0.049293566 0.05058261 -0.050174855 0.109163634
0000b0 c8 f7 d5 3d 61 04 aa 3d a1 05 05 be 21 33 24 3c
       0.10447651 0.083016165 -0.12990429 0.010021956
0000c0 08 d2 dc bd bf 20 33 bd 16 dc 86 bd 78 ac 54 bd
       -0.10782248 -0.0437324 -0.06584947 -0.05192229
0000d0 59 71 e9 3d 50 3a 07 3e c5 af 00 bd 63 96 9c 3b
       0.113985725 0.13205838 -0.031417627 0.0047786697
0000e0 62 c5 d0 bd 97 90 12 3e 52 a2 75 3d 99 62 23 bd
       -0.10193898 0.14312969 0.059969254 -0.039888952
0000f0 45 af c6 bd 44 4d a3 3c 3b a3 6f bc 44 15 b4 3d
       -0.09701399 0.019934304 -0.0146263195 0.087931186
000100 be 1d cb bb ba f4 fe bc e7 7e ff bd f8 c3 16 be
       -0.006198614 -0.031122554 -0.124753766 -0.14723194
000110 57 16 85 3d 78 32 07 be 5d e4 aa bd 43 5c 98 bc
       0.064984016 -0.13202846 -0.08344338 -0.018598681
000120 c7 eb 7e 3d fb 96 c7 bd be d2 05 3e 8f 60 c8 bd
       0.062236574 -0.09745594 0.13068673 -0.09784042
000130 4e 96 86 39 5f fa a8 bd 7e 2b 13 3e 94 e3 04 be
       0.00025670457 -0.082508795 0.1437206 -0.12977439
000140 fa 39 13 3e 0f 6b 5c bd e9 cd 0a be 9e 67 fd bd
       0.14377585 -0.053813037 -0.13555111 -0.12373279
000150 30 06 ff bd c9 97 a3 bd 64 7a c2 3d 68 cc e5 3d
       -0.12452352 -0.07987935 0.094960004 0.11220628
000160 5a 7f 0f be 77 f4 d8 3c 54 81 2b bd c8 f6 33 3d
       -0.14013425 0.026483757 -0.041871384 0.04393652
000170 37 62 76 bd a2 28 9a 3d 43 5a a0 3d f6 7c 08 3d
       -0.06015226 0.07527281 0.07829716 0.033322297
000180 db 01 30 3a e5 28 18 3e ee 73 aa ba 02 ad d5 bd
       0.00067141437 0.1485935 -0.001300452 -0.10433389
000190 36 e9 01 3d 51 4c 92 3d 06 cf 15 3e dc 7a fe 3d
       0.031716548 0.071434624 0.14629754 0.12425777
0001a0 21 28 31 b9 e7 79 bd bd b8 4b 78 3d c2 c8 93 3d
       -0.00016894985 -0.09251767 0.060619086 0.07216026
0001b0 13 20 db 3d e7 01 5a bd f5 3b fe 3d 2f 1f 17 be
       0.10699477 -0.05322447 0.1241378 -0.1475799
0001c0 3f 1f ea 3d 21 86 f0 3d 42 40 04 3d ec 9c 4a bc
       0.11431741 0.11744333 0.032287844 -0.012366515
0001d0 e6 e0 3a bd a1 a2 9a bb c5 80 92 bc 39 2f c3 bd
       -0.045624636 -0.004719094 -0.017883668 -0.095304914
0001e0 46 88 0e 3e 22 99 a9 bd f2 0a a0 bd ab 49 11 3d
       0.13919172 -0.08281161 -0.07814588 0.035470646
0001f0 99 f6 10 be 51 a2 cc bd 3d 11 bd 3d 52 90 d1 bd
       -0.1415657 -0.09991897 0.092318036 -0.10232605

weight f4 [128]
000000 00 00 80 3f 00 00 80 3f 00 00 80 3f 00 00 80 3f
       1.0 1.0 1.0 1.0
000010 00 00 80 3f 00 00 80 3f 00 00 80 3f 00 00 80 3f
       1.0 1.0 1.0 1.0
000020 00 00 80 3f 00 00 80 3f 00 00 80 3f 00 00 80 3f
       1.0 1.0 1.0 1.0
000030 00 00 80 3f 00 00 80 3f 00 00 80 3f 00 00 80 3f
       1.0 1.0 1.0 1.0
000040 00 00 80 3f 00 00 80 3f 00 00 80 3f 00 00 80 3f
       1.0 1.0 1.0 1.0
000050 00 00 80 3f 00 00 80 3f 00 00 80 3f 00 00 80 3f
       1.0 1.0 1.0 1.0
000060 00 00 80 3f 00 00 80 3f 00 00 80 3f 00 00 80 3f
       1.0 1.0 1.0 1.0
000070 00 00 80 3f 00 00 80 3f 00 00 80 3f 00 00 80 3f
       1.0 1.0 1.0 1.0
000080 00 00 80 3f 00 00 80 3f 00 00 80 3f 00 00 80 3f
       1.0 1.0 1.0 1.0
000090 00 00 80 3f 00 00 80 3f 00 00 80 3f 00 00 80 3f
       1.0 1.0 1.0 1.0
0000a0 00 00 80 3f 00 00 80 3f 00 00 80 3f 00 00 80 3f
       1.0 1.0 1.0 1.0
0000b0 00 00 80 3f 00 00 80 3f 00 00 80 3f 00 00 80 3f
       1.0 1.0 1.0 1.0
0000c0 00 00 80 3f 00 00 80 3f 00 00 80 3f 00 00 80 3f
       1.0 1.0 1.0 1.0
0000d0 00 00 80 3f 00 00 80 3f 00 00 80 3f 00 00 80 3f
       1.0 1.0 1.0 1.0
0000e0 00 00 80 3f 00 00 80 3f 00 00 80 3f 00 00 80 3f
       1.0 1.0 1.0 1.0
0000f0 00 00 80 3f 00 00 80 3f 00 00 80 3f 00 00 80 3f
       1.0 1.0 1.0 1.0
000100 00 00 80 3f 00 00 80 3f 00 00 80 3f 00 00 80 3f
       1.0 1.0 1.0 1.0
000110 00 00 80 3f 00 00 80 3f 00 00 80 3f 00 00 80 3f
       1.0 1.0 1.0 1.0
000120 00 00 80 3f 00 00 80 3f 00 00 80 3f 00 00 80 3f
       1.0 1.0 1.0 1.0
000130 00 00 80 3f 00 00 80 3f 00 00 80 3f 00 00 80 3f
       1.0 1.0 1.0 1.0
000140 00 00 80 3f 00 00 80 3f 00 00 80 3f 00 00 80 3f
       1.0 1.0 1.0 1.0
000150 00 00 80 3f 00 00 80 3f 00 00 80 3f 00 00 80 3f
       1.0 1.0 1.0 1.0
000160 00 00 80 3f 00 00 80 3f 00 00 80 3f 00 00 80 3f
       1.0 1.0 1.0 1.0
000170 00 00 80 3f 00 00 80 3f 00 00 80 3f 00 00 80 3f
       1.0 1.0 1.0 1.0
000180 00 00 80 3f 00 00 80 3f 00 00 80 3f 00 00 80 3f
       1.0 1.0 1.0 1.0
000190 00 00 80 3f 00 00 80 3f 00 00 80 3f 00 00 80 3f
       1.0 1.0 1.0 1.0
0001a0 00 00 80 3f 00 00 80 3f 00 00 80 3f 00 00 80 3f
       1.0 1.0 1.0 1.0
0001b0 00 00 80 3f 00 00 80 3f 00 00 80 3f 00 00 80 3f
       1.0 1.0 1.0 1.0
0001c0 00 00 80 3f 00 00 80 3f 00 00 80 3f 00 00 80 3f
       1.0 1.0 1.0 1.0
0001d0 00 00 80 3f 00 00 80 3f 00 00 80 3f 00 00 80 3f
       1.0 1.0 1.0 1.0
0001e0 00 00 80 3f 00 00 80 3f 00 00 80 3f 00 00 80 3f
       1.0 1.0 1.0 1.0
0001f0 00 00 80 3f 00 00 80 3f 00 00 80 3f 00 00 80 3f
       1.0 1.0 1.0 1.0

bias f4 [128]
000000 00 00 00 00 00 00 00 00 00 00 00 00 00 00 00 00
       0.0 0.0 0.0 0.0
000010 00 00 00 00 00 00 00 00 00 00 00 00 00 00 00 00
       0.0 0.0 0.0 0.0
000020 00 00 00 00 00 00 00 00 00 00 00 00 00 00 00 00
       0.0 0.0 0.0 0.0
000030 00 00 00 00 00 00 00 00 00 00 00 00 00 00 00 00
       0.0 0.0 0.0 0.0
000040 00 00 00 00 00 00 00 00 00 00 00 00 00 00 00 00
       0.0 0.0 0.0 0.0
000050 00 00 00 00 00 00 00 00 00 00 00 00 00 00 00 00
       0.0 0.0 0.0 0.0
000060 00 00 00 00 00 00 00 00 00 00 00 00 00 00 00 00
       0.0 0.0 0.0 0.0
000070 00 00 00 00 00 00 00 00 00 00 00 00 00 00 00 00
       0.0 0.0 0.0 0.0
000080 00 00 00 00 00 00 00 00 00 00 00 00 00 00 00 00
       0.0 0.0 0.0 0.0
000090 00 00 00 00 00 00 00 00 00 00 00 00 00 00 00 00
       0.0 0.0 0.0 0.0
0000a0 00 00 00 00 00 00 00 00 00 00 00 00 00 00 00 00
       0.0 0.0 0.0 0.0
0000b0 00 00 00 00 00 00 00 00 00 00 00 00 00 00 00 00
       0.0 0.0 0.0 0.0
0000c0 00 00 00 00 00 00 00 00 00 00 00 00 00 00 00 00
       0.0 0.0 0.0 0.0
0000d0 00 00 00 00 00 00 00 00 00 00 00 00 00 00 00 00
       0.0 0.0 0.0 0.0
0000e0 00 00 00 00 00 00 00 00 00 00 00 00 00 00 00 00
       0.0 0.0 0.0 0.0
0000f0 00 00 00 00 00 00 00 00 00 00 00 00 00 00 00 00
       0.0 0.0 0.0 0.0
000100 00 00 00 00 00 00 00 00 00 00 00 00 00 00 00 00
       0.0 0.0 0.0 0.0
000110 00 00 00 00 00 00 00 00 00 00 00 00 00 00 00 00
       0.0 0.0 0.0 0.0
000120 00 00 00 00 00 00 00 00 00 00 00 00 00 00 00 00
       0.0 0.0 0.0 0.0
000130 00 00 00 00 00 00 00 00 00 00 00 00 00 00 00 00
       0.0 0.0 0.0 0.0
000140 00 00 00 00 00 00 00 00 00 00 00 00 00 00 00 00
       0.0 0.0 0.0 0.0
000150 00 00 00 00 00 00 00 00 00 00 00 00 00 00 00 00
       0.0 0.0 0.0 0.0
000160 00 00 00 00 00 00 00 00 00 00 00 00 00 00 00 00
       0.0 0.0 0.0 0.0
000170 00 00 00 00 00 00 00 00 00 00 00 00 00 00 00 00
       0.0 0.0 0.0 0.0
000180 00 00 00 00 00 00 00 00 00 00 00 00 00 00 00 00
       0.0 0.0 0.0 0.0
000190 00 00 00 00 00 00 00 00 00 00 00 00 00 00 00 00
       0.0 0.0 0.0 0.0
0001a0 00 00 00 00 00 00 00 00 00 00 00 00 00 00 00 00
       0.0 0.0 0.0 0.0
0001b0 00 00 00 00 00 00 00 00 00 00 00 00 00 00 00 00
       0.0 0.0 0.0 0.0
0001c0 00 00 00 00 00 00 00 00 00 00 00 00 00 00 00 00
       0.0 0.0 0.0 0.0
0001d0 00 00 00 00 00 00 00 00 00 00 00 00 00 00 00 00
       0.0 0.0 0.0 0.0
0001e0 00 00 00 00 00 00 00 00 00 00 00 00 00 00 00 00
       0.0 0.0 0.0 0.0
0001f0 00 00 00 00 00 00 00 00 00 00 00 00 00 00 00 00
       0.0 0.0 0.0 0.0

weight f4 [96, 128]
000000 19 b2 a1 bc d9 d3 3d 3d 6d 1d 47 bd 93 70 fa bc
       -0.019738244 0.04634461 -0.048612047 -0.030571258
000010 11 31 88 3d bf a6 a4 bd 20 fc 64 bd 0b 9d b9 bb
       0.06649984 -0.08039617 -0.055904508 -0.005664473
000020 91 11 0f bd a5 d2 98 bd 9d df 19 bd 8a 59 43 bd
       -0.034928862 -0.07462052 -0.03756677 -0.047692813
000030 26 7c 93 bd 2d 61 9d ba d7 f1 7b 3d fe 6c b1 3d
       -0.07201414 -0.001200711 0.061509933 0.08663367
000040 cc 88 25 3d bd 58 ba 3c 52 ab 4e bb 4b 53 99 bd
       0.040413663 0.022747392 -0.003153522 -0.0748659
000050 b5 16 b2 ba 0e 9c 06 bd 3a 72 a2 3d 05 d1 88 bd
       -0.001358709 -0.03286367 0.07931943 -0.06680492
000060 70 d6 62 bb de 69 a1 bd 1c d4 9d 3d ff dc 58 3d
       -0.0034612678 -0.07881521 0.07706472 0.052945133
000070 f2 4c 6f 3d 4e 16 9d 3d bd 53 65 3d da 02 99 3d
       0.05842299 0.0767027 0.055988062 0.07471247
000080 d1 9e 38 3d ef 73 82 3d 26 0b 3b bd a3 4e 36 bd
       0.045073334 0.06369769 -0.04566493 -0.044508588
000090 0a 9c 8b 3d c6 56 ad 3d f9 9c 14 bd ee bc a6 3d
       0.068168715 0.08463816 -0.036282513 0.08141504
0000a0 ce fe 97 3d 4d c3 16 bb c7 7d b9 bc bc 23 f3 3c
       0.07421647 -0.0023004592 -0.022642983 0.029680125
0000b0 70 43 be 3c eb 56 1a bc fd 7c 94 3d f8 5d f2 3c
       0.023225516 -0.009420137 0.07250402 0.029585823
0000c0 60 41 81 3d 77 53 41 3b 00 24 0a 3d 55 b8 84 bd
       0.063112974 0.0029499212 0.03372574 -0.06480471
0000d0 c9 7d b4 3d 45 88 a9 3d 38 8f 3a bd 26 b7 59 bd
       0.08813054 0.082779445 -0.04554674 -0.05315318
0000e0 55 1e b4 bd c0 f8 8a bd ff 02 ad 3d 16 57 67 3d
       -0.08794848 -0.067857265 0.08447837 0.056479536
0000f0 91 23 0f 3d 74 b7 08 3d b0 72 36 3d 11 a5 3d 3d
       0.03494603 0.03337808 0.04454297 0.046299998
000100 36 3a 57 bd 5f 39 f7 bc ee 55 c7 bc 59 29 af 3d
       -0.05254575 -0.030178724 -0.024332967 0.08552808
000110 27 95 ec 3c 8b 74 96 bd 5c f9 32 3d 41 1e 45 3d
       0.028879715 -0.073464476 0.04369484 0.048124555
000120 94 1e 98 bb 47 6d 68 bd d7 53 45 bd 06 c0 8e bd
       -0.004642317 -0.05674484 -0.04817566 -0.06970219
000130 ff 8b 9e 3d 5f 1f 58 bd fa ab e4 bc 3f e8 23 bb
       0.07741546 -0.052764293 -0.027914036 -0.0025010256
000140 27 c5 00 3d 59 99 77 bd ed 9c 7c 3d 3f 10 ae bd
       0.03143802 -0.060448978 0.061673094 -0.084991924
000150 57 38 b2 3c 1d 9d e7 3c 14 51 0a 3a fc 14 87 bd
       0.02175538 0.02827316 0.0005276364 -0.06595799
000160 86 bf 12 3c 75 41 95 3d 8c c0 b3 bd f7 5a fa 3c
       0.008956796 0.072878756 -0.0877696 0.030560954
000170 6c aa 98 3d 7d f2 62 3d fd dc a9 bd a2 db 7d 3d
       0.074543804 0.055407036 -0.08294103 0.061977036
000180 1b 7e 94 3d 99 07 27 bd ec 14 79 3d a0 82 b2 bd
       0.07250615 -0.04077873 0.06081097 -0.08716321
000190 11 36 a9 bc 46 fc e9 bc 89 54 88 3d fe 2e 02 bd
       -0.020655664 -0.028562676 0.06656749 -0.031783096
0001a0 9f d9 9a 3d 7e 21 9a 3d 29 d1 00 bc 98 4c b0 bb
       0.07561039 0.075259194 -0.007862368 -0.0053802244
0001b0 54 2b 68 bd 17 ef 5b 3d 14 fc 7b bd b7 e8 3b 3d
       -0.056681946 0.05369481 -0.061519697 0.04587623
0001c0 01 c3 33 3d f8 38 84 3d 7d bd 0e 3d c1 c6 a6 bc
       0.043887142 0.064561784 0.03484868 -0.020358445
0001d0 9f db 98 3c 18 db b9 3c 2d 0a 91 39 77 34 03 3d
       0.018659411 0.02268748 0.00027664137 0.032032456
0001e0 e2 be 42 3d ba 21 8b 3d db 61 83 bd d6 da 84 3d
       0.04754532 0.06793542 -0.06415149 0.06487052
0001f0 a9 ee aa bc af 21 87 3d 7d 41 bf 39 ad 49 86 bb
       -0.020865755 0.065982215 0.00036479151 -0.0040981383
000200 97 d1 d7 3c 67 1a 14 3c f0 35 0b 3d 74 73 e4 3c
       0.026345057 0.009039498 0.033986986 0.027887084
000210 58 96 9e 3d c0 e8 39 bd 99 53 8f 3d 0b 97 b0 3d
       0.077435195 -0.045387983 0.06998367 0.08622559
000220 c1 cb 44 3d 10 02 40 3d ef 62 92 3c c6 67 89 bd
       0.048045877 0.046876967 0.01786944 -0.06709246
000230 dd fe 4b 3d 1f c2 b4 bd 9b 65 58 bd ab df ac 3c
       0.049803603 -0.08826088 -0.052831274 0.021102747
000240 be a1 d8 3c 03 b3 67 3d 0f a7 84 bd 63 da 82 3b
       0.026444312 0.056567203 -0.064771764 0.003993319
000250 b2 5f c7 bc ac c4 77 bd 87 4b d7 bc 0e e9 f5 3c
       -0.024337623 -0.060490295 -0.026281131 0.030018356
000260 67 d7 44 bd 08 24 02 bd 15 33 f5 bc 28 c2 9e bd
       -0.048056986 -0.031772643 -0.029931584 -0.07751876
000270 51 14 84 3d 9e 9a 5c 3d e2 9a 6b 3d 94 10 a1 3d
       0.064491875 0.053858392 0.057520755 0.0786449
000280 70 a9 fd 3c ae 4d ab 3d 9d 5c 73 3d 1c 41 80 3c
       0.030964583 0.083644256 0.059414495 0.015656047
000290 cb c9 52 3d 2a 51 a6 3d 1d 24 c0 3b 76 57 2a 3d
       0.051461976 0.081209496 0.00586368 0.041587315
0002a0 0e 03 5c bd df 38 1d 3d 55 c9 a1 3d bd 5e 42 3d
       -0.05371385 0.038384315 0.07899729 0.04745363
0002b0 2e b8 4e 3c 8b 3a 68 bd e0 1d 4a bc db 6f 8f bc
       0.012617154 -0.056696456 -0.012336224 -0.017509392
0002c0 d4 93 8f bc 37 20 96 bd 0d 16 9b bd b3 d2 9c 3d
       -0.017526545 -0.07330363 -0.07572565 0.07657375
0002d0 08 30 b1 3d d6 d6 12 bd 6a 19 96 3d 14 1d 83 bd
       0.08651739 -0.035849415 0.07329066 -0.064020306
0002e0 00 ed 8c 3d f3 31 5d 3d 6b 6b 98 3d b6 8d 7e bd
       0.06881142 0.054002713 0.07442363 -0.062146865
0002f0 ff 67 a8 bd 47 4d f3 3c ad ae a1 bd ba 65 11 3d
       -0.08222961 0.029699935 -0.07894645 0.035497405
000300 21 4f 46 3d dd 01 9a bd 6f 52 96 3d b7 42 8d bd
       0.048415307 -0.07519887 0.07339942 -0.068974905
000310 58 30 a4 3d 99 d5 c4 3c 13 05 ad bd 0f b9 3c bd
       0.08017033 0.024027633 -0.084482335 -0.046074923
000320 0c 52 3b bd 6f ca 63 bc 3b f2 13 3c bd 14 dd 3b
       -0.045732543 -0.013903244 0.00902992 0.006746857
000330 14 f7 8b bd 68 df 4d bd 4f 1c a9 bd be 51 75 bd
       -0.06834236 -0.050261885 -0.082573526 -0.05989241
000340 fd 48 97 3c 4e c6 32 bd 7a ef b7 3c ef 38 a1 3d
       0.01846742 -0.04364615 0.022453059 0.07872187
000350 4e 3b c2 bc 0d be a5 bd df cb a9 bd 85 2e 0c bd
       -0.02370992 -0.0809289 -0.082908385 -0.034224052
000360 1b 70 68 bd 45 ba c3 3c 5f 12 70 3d 2d 32 60 3d
       -0.056747537 0.023892531 0.05861127 0.05473535
000370 24 c9 a9 bd 0e 10 97 3d 40 c4 1f 3d b2 c0 94 bd
       -0.08290318 0.07376109 0.039005518 -0.07263316
000380 5f a2 4e 3d 19 07 71 3d 96 56 5b 3d 1a c3 ab 3c
       0.050447818 0.05884466 0.05354937 0.020967055
000390 1c 6a b1 bc 3d c4 23 bd c5 b1 9d bd 9b 6f b0 3d
       -0.021657042 -0.03998207 -0.076999225 0.08615037
0003a0 80 6b db 3b 04 fc b1 bb 02 d5 9e 3d 25 09 d3 3c
       0.0066961646 -0.005431654 0.07755472 0.025761196
0003b0 a5 5e 84 3d 33 01 8d 3d 9c b7 9e bd fe 34 41 3d
       0.064633645 0.06884994 -0.077498645 0.047169678
0003c0 0f b6 2a bd e9 85 9b bc 3a d9 a3 3d 23 12 e8 3b
       -0.04167753 -0.018984752 0.08000417 0.00708224
0003d0 62 b9 0b 3d e7 58 a5 3d b2 e9 aa 3d f8 ba 3a 3d
       0.03411234 0.080735974 0.08345355 0.045588464
0003e0 13 0d 98 bd cf 1a 9e 3d 9d ef 1d 3d 9d cb a7 bd
       -0.07424369 0.07719957 0.03855859 -0.08193133
0003f0 f7 b6 7c 3b ac a6 0a bd c5 cb 2e bd 57 aa 99 bc
       0.0038561204 -0.033850357 -0.0426748 -0.018757982

bias f4 [96]
000000 80 c9 27 3d 2b 66 f6 bc 83 ad 6d bd f4 41 b4 3d
       0.04096365 -0.030078014 -0.0580268 0.08801642
000010 8c 26 96 bd a8 cd 2d bd dc aa 23 bd 80 4e 26 3c
       -0.07331571 -0.042432457 -0.039957866 0.010150552
000020 12 5f 7b bd d2 57 a3 3d d2 97 32 bd 2d ea 76 3c
       -0.061369963 0.07975735 -0.04360182 0.01507048
000030 8d e8 ad bd 58 5c 8a bd 7d cd aa 3d 64 bb 25 3d
       -0.08491621 -0.067558944 0.08339975 0.040461913
000040 65 0c aa 3d 52 e3 cd bc 4b f3 54 3d 33 59 d8 3c
       0.08303145 -0.025132809 0.051989835 0.026409721
000050 34 fa 07 3c f9 23 97 3d e5 7b a2 bd 87 88 a9 bd
       0.008299399 0.07379908 -0.07933787 -0.08277994
000060 03 62 b7 bc 74 a3 97 3b bd 75 a7 3c 6c 70 3b 3d
       -0.022385603 0.0046276394 0.020441884 0.04576151
000070 da 18 dc bc 7f a2 4f 3d f2 b0 b1 3d 6f ce 50 bd
       -0.026867319 0.050692078 0.08676328 -0.05097812
000080 2f 1a db 3b e6 0f 90 bd e3 16 b6 3c a0 24 af bc
       0.006686471 -0.070342824 0.02222771 -0.021379769
000090 c6 34 8f 3d a2 20 a2 3d 17 88 cf 3c b7 4e 58 bd
       0.069924876 0.079163805 0.025333447 -0.052809443
0000a0 72 2e 57 39 17 51 9c bd 52 6b a8 bd 95 16 b9 bc
       0.000205213 -0.07632654 -0.08223595 -0.022593776
0000b0 fa 85 92 3d 53 85 fa bc 7c 53 0f 3d ac 63 6b bd
       0.0715446 -0.030581152 0.034991726 -0.0574681
0000c0 0f 74 86 3d 10 de 82 3d 12 c5 1e bd 2a cc 2b bd
       0.06565105 0.06390011 -0.03876216 -0.041942753
0000d0 f5 dc 07 3d cf f5 8c bd 66 b2 97 bd c1 c0 24 bd
       0.033169705 -0.06882822 -0.07407074 -0.040222887
0000e0 e4 6e 6a 3c 94 9c f0 3c 11 33 20 3d 5e 89 90 3d
       0.014308665 0.029371537 0.0391112 0.07057451
0000f0 63 bb b4 3d b1 40 45 3d e0 92 b6 3b b2 fa 5c bd
       0.08824804 0.048157398 0.005571708 -0.05395002
000100 73 03 30 bd 2c b0 34 bd 4c 6b e0 bc 13 fe 56 3d
       -0.04297204 -0.044113323 -0.027394913 0.052488398
000110 2b 9c b0 3d 9d b9 a0 3c 67 ad aa bd dc 34 d2 bc
       0.08623537 0.019619757 -0.08333855 -0.025659971
000120 3e 66 85 bd 60 38 c9 ba 71 44 01 bd bf cc 93 bd
       -0.06513642 -0.0015351884 -0.03155941 -0.072167866
000130 f9 7c 26 3d 4e 32 50 3d 24 cd 58 3d e6 c8 56 3d
       0.040646527 0.050829224 0.052930012 0.052437685
000140 cc e6 2e bd a2 94 89 bb ce 7b 8f bd a6 5e 8e bd
       -0.042700574 -0.0041986266 -0.07006036 -0.069516465
000150 c7 88 14 bd d8 3d 64 bd 06 16 97 3d 0c df 42 3d
       -0.036263254 -0.05572304 0.073772475 0.047575995
000160 8d 7e ac bd 7f 1b 1c bd 99 02 54 3d 82 48 90 bd
       -0.08422575 -0.03811216 0.05176029 -0.0704508
000170 a4 89 46 3d ba 80 15 3d d8 98 8b 3d 38 57 ac 3d
       0.048471108 0.036499716 0.06816262 0.08415073

weight f4 [96]
000000 00 00 80 3f 00 00 80 3f 00 00 80 3f 00 00 80 3f
       1.0 1.0 1.0 1.0
000010 00 00 80 3f 00 00 80 3f 00 00 80 3f 00 00 80 3f
       1.0 1.0 1.0 1.0
000020 00 00 80 3f 00 00 80 3f 00 00 80 3f 00 00 80 3f
       1.0 1.0 1.0 1.0
000030 00 00 80 3f 00 00 80 3f 00 00 80 3f 00 00 80 3f
       1.0 1.0 1.0 1.0
000040 00 00 80 3f 00 00 80 3f 00 00 80 3f 00 00 80 3f
       1.0 1.0 1.0 1.0
000050 00 00 80 3f 00 00 80 3f 00 00 80 3f 00 00 80 3f
       1.0 1.0 1.0 1.0
000060 00 00 80 3f 00 00 80 3f 00 00 80 3f 00 00 80 3f
       1.0 1.0 1.0 1.0
000070 00 00 80 3f 00 00 80 3f 00 00 80 3f 00 00 80 3f
       1.0 1.0 1.0 1.0
000080 00 00 80 3f 00 00 80 3f 00 00 80 3f 00 00 80 3f
       1.0 1.0 1.0 1.0
000090 00 00 80 3f 00 00 80 3f 00 00 80 3f 00 00 80 3f
       1.0 1.0 1.0 1.0
0000a0 00 00 80 3f 00 00 80 3f 00 00 80 3f 00 00 80 3f
       1.0 1.0 1.0 1.0
0000b0 00 00 80 3f 00 00 80 3f 00 00 80 3f 00 00 80 3f
       1.0 1.0 1.0 1.0
0000c0 00 00 80 3f 00 00 80 3f 00 00 80 3f 00 00 80 3f
       1.0 1.0 1.0 1.0
0000d0 00 00 80 3f 00 00 80 3f 00 00 80 3f 00 00 80 3f
       1.0 1.0 1.0 1.0
0000e0 00 00 80 3f 00 00 80 3f 00 00 80 3f 00 00 80 3f
       1.0 1.0 1.0 1.0
0000f0 00 00 80 3f 00 00 80 3f 00 00 80 3f 00 00 80 3f
       1.0 1.0 1.0 1.0
000100 00 00 80 3f 00 00 80 3f 00 00 80 3f 00 00 80 3f
       1.0 1.0 1.0 1.0
000110 00 00 80 3f 00 00 80 3f 00 00 80 3f 00 00 80 3f
       1.0 1.0 1.0 1.0
000120 00 00 80 3f 00 00 80 3f 00 00 80 3f 00 00 80 3f
       1.0 1.0 1.0 1.0
000130 00 00 80 3f 00 00 80 3f 00 00 80 3f 00 00 80 3f
       1.0 1.0 1.0 1.0
000140 00 00 80 3f 00 00 80 3f 00 00 80 3f 00 00 80 3f
       1.0 1.0 1.0 1.0
000150 00 00 80 3f 00 00 80 3f 00 00 80 3f 00 00 80 3f
       1.0 1.0 1.0 1.0
000160 00 00 80 3f 00 00 80 3f 00 00 80 3f 00 00 80 3f
       1.0 1.0 1.0 1.0
000170 00 00 80 3f 00 00 80 3f 00 00 80 3f 00 00 80 3f
       1.0 1.0 1.0 1.0

bias f4 [96]
000000 00 00 00 00 00 00 00 00 00 00 00 00 00 00 00 00
       0.0 0.0 0.0 0.0
000010 00 00 00 00 00 00 00 00 00 00 00 00 00 00 00 00
       0.0 0.0 0.0 0.0
000020 00 00 00 00 00 00 00 00 00 00 00 00 00 00 00 00
       0.0 0.0 0.0 0.0
000030 00 00 00 00 00 00 00 00 00 00 00 00 00 00 00 00
       0.0 0.0 0.0 0.0
000040 00 00 00 00 00 00 00 00 00 00 00 00 00 00 00 00
       0.0 0.0 0.0 0.0
000050 00 00 00 00 00 00 00 00 00 00 00 00 00 00 00 00
       0.0 0.0 0.0 0.0
000060 00 00 00 00 00 00 00 00 00 00 00 00 00 00 00 00
       0.0 0.0 0.0 0.0
000070 00 00 00 00 00 00 00 00 00 00 00 00 00 00 00 00
       0.0 0.0 0.0 0.0
000080 00 00 00 00 00 00 00 00 00 00 00 00 00 00 00 00
       0.0 0.0 0.0 0.0
000090 00 00 00 00 00 00 00 00 00 00 00 00 00 00 00 00
       0.0 0.0 0.0 0.0
0000a0 00 00 00 00 00 00 00 00 00 00 00 00 00 00 00 00
       0.0 0.0 0.0 0.0
0000b0 00 00 00 00 00 00 00 00 00 00 00 00 00 00 00 00
       0.0 0.0 0.0 0.0
0000c0 00 00 00 00 00 00 00 00 00 00 00 00 00 00 00 00
       0.0 0.0 0.0 0.0
0000d0 00 00 00 00 00 00 00 00 00 00 00 00 00 00 00 00
       0.0 0.0 0.0 0.0
0000e0 00 00 00 00 00 00 00 00 00 00 00 00 00 00 00 00
       0.0 0.0 0.0 0.0
0000f0 00 00 00 00 00 00 00 00 00 00 00 00 00 00 00 00
       0.0 0.0 0.0 0.0
000100 00 00 00 00 00 00 00 00 00 00 00 00 00 00 00 00
       0.0 0.0 0.0 0.0
000110 00 00 00 00 00 00 00 00 00 00 00 00 00 00 00 00
       0.0 0.0 0.0 0.0
000120 00 00 00 00 00 00 00 00 00 00 00 00 00 00 00 00
       0.0 0.0 0.0 0.0
000130 00 00 00 00 00 00 00 00 00 00 00 00 00 00 00 00
       0.0 0.0 0.0 0.0
000140 00 00 00 00 00 00 00 00 00 00 00 00 00 00 00 00
       0.0 0.0 0.0 0.0
000150 00 00 00 00 00 00 00 00 00 00 00 00 00 00 00 00
       0.0 0.0 0.0 0.0
000160 00 00 00 00 00 00 00 00 00 00 00 00 00 00 00 00
       0.0 0.0 0.0 0.0
000170 00 00 00 00 00 00 00 00 00 00 00 00 00 00 00 00
       0.0 0.0 0.0 0.0

weight f4 [1, 96]
000000 88 84 07 3d be 87 85 3d ab 98 45 3c d7 b3 9d 3d
       0.033085376 0.065200314 0.012060325 0.07700317
000010 1f d7 a2 3d fe e4 63 bd 08 b7 c8 3d 5c e6 b9 bd
       0.07951187 -0.055638306 0.098005354 -0.09077141
000020 69 cf 41 3d 9f 04 88 bd c9 3e a0 3d 3d ad 86 3d
       0.047316942 -0.066415064 0.07824475 0.06576011
000030 af 39 79 3d b1 ea 99 bd 2c 17 9e 3d f3 96 cb 3d
       0.060846027 -0.07515467 0.077192634 0.09940901
000040 3d 59 87 bd 24 97 8d ba 8a 18 92 bd 85 92 bf 3d
       -0.06608818 -0.001080249 -0.07133587 0.09354118
000050 f3 ff 8c bd 4d bf 7b 3b 03 8b 50 3d 3f 61 94 3d
       -0.06884756 0.0038413585 0.050913822 0.07245111
000060 b3 c5 b5 3c 9c 99 9e 3d bd 6b cb 3d 71 ab 1f bd
       0.022188997 0.077441424 0.09932659 -0.03898186
000070 b1 25 93 bd 1d a3 bc bd 12 a2 9c 3d 43 1f ac bc
       -0.071849234 -0.09210799 0.076481 -0.021011
000080 2e e6 b9 3d 69 3a 19 3d 5c 73 ac 3c 0b 20 9d 3d
       0.090771064 0.03740922 0.021051101 0.07672127
000090 1f f6 09 bd 12 09 96 3d 9d f8 7e 3d 11 8c 95 bd
       -0.033681985 0.07325949 0.062248815 -0.07302106
0000a0 00 01 95 3d 19 01 89 3c 98 0b 83 bd 38 ef 45 bd
       0.07275581 0.016724156 -0.06398696 -0.04832384
0000b0 53 3e 7e bd bf e8 e7 3c 69 a7 95 bd 57 22 ba 3d
       -0.062071156 0.028309224 -0.073073216 0.09088581
0000c0 2b bf 7e bd 51 8b d1 3c 7b 9a 78 bd bb ff b2 3b
       -0.06219403 0.025579127 -0.0606942 0.0054626144
0000d0 bd 70 01 bd 87 19 b9 bd fa f7 a8 3d 3e cd 94 bc
       -0.031601656 -0.09038072 0.08250423 -0.018164273
0000e0 9e 60 03 3d 60 fc 64 3c 60 0a a3 3d 29 fb 69 3c
       0.032074563 0.0139761865 0.07960963 0.014281073
0000f0 66 b6 c9 3d ae 92 8c 3a 44 86 7e bd e1 fa 2a 3d
       0.09849243 0.0010724866 -0.062139764 0.041743163
000100 68 cd c7 bc ad af 84 bd 05 a3 c9 3c 01 4d c7 3d
       -0.024389938 -0.0647882 0.024613867 0.09731484
000110 dc 35 bc bd c4 51 cd 3c 61 86 1a 3d 9e fa ae bd
       -0.0918996 0.025063403 0.03772581 -0.08543895
000120 ad 75 5c 3b d3 6d 0b bd 82 f0 d3 bc 2a a7 e9 bc
       0.0033639476 -0.034040283 -0.025871519 -0.028522093
000130 4b ce 37 3c b3 b6 61 bd c3 a7 9a bd e0 1b ab 3d
       0.011218618 -0.055105876 -0.07551529 0.08354926
000140 6a a5 be 3d 48 f5 c2 bd 2e cf 67 bc 21 06 b9 3d
       0.09308894 -0.0951944 -0.014148517 0.09034372
000150 f3 d9 2f bc 60 54 b8 3d d8 06 34 3d 0e 82 e4 3c
       -0.0107331155 0.09000468 0.04395184 0.027894046
000160 d0 cb b8 ba 94 b6 83 3d 05 23 52 3d 1c 54 37 3d
       -0.0014098827 0.064313084 0.05130293 0.044757947
000170 74 4b c3 3d a8 4e cc 3d 9a c2 a2 3d 04 b4 23 bc
       0.09535876 0.0997594 0.079472736 -0.00999165
